models/hybrid_recommender_20250428_110447/gnn_model.pt (torch, 232480 bytes, 4 tensors)

layers.0.bias f4 [128]
000000 00 00 00 00 00 00 00 00 00 00 00 00 00 00 00 00
       0.0 0.0 0.0 0.0
000010 00 00 00 00 00 00 00 00 00 00 00 00 00 00 00 00
       0.0 0.0 0.0 0.0
000020 00 00 00 00 00 00 00 00 00 00 00 00 00 00 00 00
       0.0 0.0 0.0 0.0
000030 00 00 00 00 00 00 00 00 00 00 00 00 00 00 00 00
       0.0 0.0 0.0 0.0
000040 00 00 00 00 00 00 00 00 00 00 00 00 00 00 00 00
       0.0 0.0 0.0 0.0
000050 00 00 00 00 00 00 00 00 00 00 00 00 00 00 00 00
       0.0 0.0 0.0 0.0
000060 00 00 00 00 00 00 00 00 00 00 00 00 00 00 00 00
       0.0 0.0 0.0 0.0
000070 00 00 00 00 00 00 00 00 00 00 00 00 00 00 00 00
       0.0 0.0 0.0 0.0
000080 00 00 00 00 00 00 00 00 00 00 00 00 00 00 00 00
       0.0 0.0 0.0 0.0
000090 00 00 00 00 00 00 00 00 00 00 00 00 00 00 00 00
       0.0 0.0 0.0 0.0
0000a0 00 00 00 00 00 00 00 00 00 00 00 00 00 00 00 00
       0.0 0.0 0.0 0.0
0000b0 00 00 00 00 00 00 00 00 00 00 00 00 00 00 00 00
       0.0 0.0 0.0 0.0
0000c0 00 00 00 00 00 00 00 00 00 00 00 00 00 00 00 00
       0.0 0.0 0.0 0.0
0000d0 00 00 00 00 00 00 00 00 00 00 00 00 00 00 00 00
       0.0 0.0 0.0 0.0
0000e0 00 00 00 00 00 00 00 00 00 00 00 00 00 00 00 00
       0.0 0.0 0.0 0.0
0000f0 00 00 00 00 00 00 00 00 00 00 00 00 00 00 00 00
       0.0 0.0 0.0 0.0
000100 00 00 00 00 00 00 00 00 00 00 00 00 00 00 00 00
       0.0 0.0 0.0 0.0
000110 00 00 00 00 00 00 00 00 00 00 00 00 00 00 00 00
       0.0 0.0 0.0 0.0
000120 00 00 00 00 00 00 00 00 00 00 00 00 00 00 00 00
       0.0 0.0 0.0 0.0
000130 00 00 00 00 00 00 00 00 00 00 00 00 00 00 00 00
       0.0 0.0 0.0 0.0
000140 00 00 00 00 00 00 00 00 00 00 00 00 00 00 00 00
       0.0 0.0 0.0 0.0
000150 00 00 00 00 00 00 00 00 00 00 00 00 00 00 00 00
       0.0 0.0 0.0 0.0
000160 00 00 00 00 00 00 00 00 00 00 00 00 00 00 00 00
       0.0 0.0 0.0 0.0
000170 00 00 00 00 00 00 00 00 00 00 00 00 00 00 00 00
       0.0 0.0 0.0 0.0
000180 00 00 00 00 00 00 00 00 00 00 00 00 00 00 00 00
       0.0 0.0 0.0 0.0
000190 00 00 00 00 00 00 00 00 00 00 00 00 00 00 00 00
       0.0 0.0 0.0 0.0
0001a0 00 00 00 00 00 00 00 00 00 00 00 00 00 00 00 00
       0.0 0.0 0.0 0.0
0001b0 00 00 00 00 00 00 00 00 00 00 00 00 00 00 00 00
       0.0 0.0 0.0 0.0
0001c0 00 00 00 00 00 00 00 00 00 00 00 00 00 00 00 00
       0.0 0.0 0.0 0.0
0001d0 00 00 00 00 00 00 00 00 00 00 00 00 00 00 00 00
       0.0 0.0 0.0 0.0
0001e0 00 00 00 00 00 00 00 00 00 00 00 00 00 00 00 00
       0.0 0.0 0.0 0.0
0001f0 00 00 00 00 00 00 00 00 00 00 00 00 00 00 00 00
       0.0 0.0 0.0 0.0

layers.0.lin.weight f4 [128, 384]
000000 11 37 a3 bd 81 5a 8a bd e6 01 a4 bd 94 e8 22 bd
       -0.079694875 -0.067555435 -0.080081746 -0.039772585
000010 94 12 92 bc b8 c7 f6 bc 05 76 be bd 58 be b4 bd
       -0.017831124 -0.03012453 -0.09299854 -0.08825368
000020 ac 2d d5 bd e8 aa 23 bd a6 de d8 bd 88 a4 55 bc
       -0.10409102 -0.03995791 -0.10589342 -0.013039716
000030 d6 5d 2a 3d f0 65 22 3c 18 86 01 bd 00 f7 08 3a
       0.041593395 0.009911999 -0.031622022 0.0005224794
000040 72 79 59 bd 7e 83 cb bd 22 fd 1c 3d b2 ec 45 3d
       -0.053094335 -0.099371895 0.038327344 0.048321433
000050 c2 ef 66 3d 1a a6 33 3d d8 62 27 bd 24 ed bb 3c
       0.056380995 0.04385958 -0.04086575 0.022940226
000060 e6 6a 39 3d f3 29 da 3d e0 7b 46 3c 7a 4f 43 bd
       0.045267962 0.106525324 0.012114495 -0.047683217
000070 f4 f4 fc 3c 20 8c 4a 3c e4 1c fb 3c c0 44 43 3b
       0.030878522 0.01236251 0.030653425 0.0029795617
000080 14 55 a6 3c d4 0b ee 3c a0 33 8d bd 97 f8 83 3d
       0.02030424 0.029058374 -0.06894612 0.06443899
000090 9d fc 8a 3d 18 02 1d bc 59 19 8c 3d b0 c3 da 3b
       0.067864634 -0.009583019 0.06840772 0.00667616
0000a0 1f 36 b1 3d ac cd ed 3c 80 d3 d7 3a 1c 1e ab bd
       0.08652901 0.029028736 0.001646623 -0.08355352
0000b0 8c b3 27 bd 84 22 b0 3c fb 32 ce bd c9 eb 63 bd
       -0.040942714 0.021500833 -0.100683175 -0.055644784
0000c0 b6 01 a2 bd 85 5b ba bd 13 a7 b0 bd 00 ec 37 bd
       -0.079104826 -0.09099487 -0.08625617 -0.0449028
0000d0 e7 15 be 3d d7 67 bf 3d 65 5c b3 3d c0 1d 57 3c
       0.09281521 0.09345978 0.08757857 0.013129652
0000e0 ad 45 ae 3d 73 ad a2 bd 90 0c be 3b bf da af bd
       0.08509383 -0.07943239 0.0057998374 -0.085866444
0000f0 53 b6 b1 bd 50 76 02 bc 9e 37 88 bd 84 c8 fa bc
       -0.08677354 -0.007962778 -0.06651233 -0.030613191
000100 cd bc d8 3d ab 96 b6 3d bc 24 8e bd 5c af df 3c
       0.10582886 0.089154564 -0.069406 0.027305298
000110 5e 87 a6 bd dc b0 d2 bd 4c c7 62 bd 8a 4f 06 3d
       -0.08131288 -0.102876395 -0.055365846 0.032790698
000120 4e 8b 3a bd ff f0 b2 3d f9 bd 9a 3d b2 45 42 3d
       -0.045543008 0.087373726 0.07555766 0.047429748
000130 95 86 d5 bd 04 67 a1 3c 28 d7 08 bd cc 2f e2 3c
       -0.1042606 0.019702442 -0.033408314 0.027610682
000140 e1 f3 c0 3d 0e 89 ac bd 62 f6 43 3d af eb a3 3d
       0.09421516 -0.084245786 0.04784239 0.080039375
000150 95 4b c6 3d 23 2f 97 3d be ed 0a bd 02 55 16 3d
       0.09682385 0.073820375 -0.033918135 0.036702164
000160 5f f1 72 bd 24 a9 b6 3c 60 4d 04 3c e8 25 5f 3c
       -0.05931222 0.02229745 0.008075088 0.013619877
000170 f3 50 79 bd f3 0c a0 3d 2d 31 aa 3d 41 68 b2 3d
       -0.060868215 0.0781497 0.08310161 0.08711291
000180 50 ce 0e bd 0e ac 22 3d 25 1e 92 3d c0 b3 df 3b
       -0.034864724 0.039714865 0.07134656 0.006826848
000190 2e 1e 67 bd 98 74 6f bd 75 85 92 3d a0 91 37 bc
       -0.056425266 -0.0584608 0.07154361 -0.011204153
0001a0 b8 f3 49 bc 20 a0 78 bb 9c fe 93 3c 54 fd a3 3c
       -0.0123261735 -0.0037937239 0.018065743 0.020018257
0001b0 64 cb ee 3c 0d 6f 54 bd dd 71 9c 3d bf 97 90 3d
       0.029149719 -0.05186372 0.07638905 0.07060193
0001c0 e3 31 70 bd 52 73 a9 bd ca bb 81 bd f7 9e d1 bd
       -0.058641326 -0.08273949 -0.06334646 -0.10235398
0001d0 f8 fc 7a 3c a0 28 4f bb 96 1e 20 3d c0 3c ac ba
       0.0153191015 -0.0031609908 0.03909167 -0.0013140664
0001e0 8c 03 99 bc 35 34 bb 3d e2 49 7f 3d c8 a9 09 bd
       -0.01867845 0.09140817 0.06232632 -0.03360918
0001f0 ec 62 ac bc 37 cd db bd 72 6e 33 3d 93 ef be bd
       -0.021043263 -0.10732501 0.0438065 -0.09323039
000200 a6 ab 6f 3d 26 70 33 3d b4 2b 95 bd 90 4a a1 3b
       0.058513306 0.043808125 -0.07283726 0.0049222186
000210 c9 1f da 3d a8 17 6a bc 64 e2 af bd 85 8c 60 bd
       0.10650594 -0.014287867 -0.085881025 -0.05482151
000220 bc 7b a4 3c 10 07 f8 bb 8d 72 ce 3d 11 02 ca 3d
       0.020078532 -0.0075692013 0.100804426 0.098636754
000230 8e 0a 49 3d 63 02 84 3d 3c 59 c9 3c 10 d0 e1 bb
       0.04908233 0.06445768 0.024578683 -0.006891258
000240 bd 8c bf bd 59 3b c2 bd bd 0b 90 3d e6 60 a5 bd
       -0.093530156 -0.09483976 0.07033489 -0.080751225
000250 84 e6 eb 3c 43 47 cb 3d 44 b3 b1 3c 0d 8f 49 bd
       0.028796442 0.099257015 0.021691926 -0.04920869
000260 5f d1 85 3d 84 96 9c 3c 22 de 13 3d dc a6 5a bd
       0.06534075 0.01911474 0.036100514 -0.053381786
000270 98 3f 64 bc 8c c2 de bc 18 40 14 3c ef 8a d1 3d
       -0.013931178 -0.027192377 0.009048484 0.102315776
000280 9d ce b4 3d 5e 6c 74 3d 88 cf 8e bc d0 ae 01 3c
       0.08828471 0.05967366 -0.017432943 0.007915214
000290 02 a8 11 bd 17 8e d2 3d f4 6a 92 3c 07 3b cc bd
       -0.035560615 0.10281008 0.017873265 -0.09972196
0002a0 ff 19 c2 3d a3 2b a5 bd bc 6f 3e bd 40 78 aa 3a
       0.094776146 -0.08064964 -0.046493277 0.0013005808
0002b0 90 06 3f 3c 7f e8 59 bd 3a 6d 4a bd 9c fe ba bc
       0.0116592795 -0.05320024 -0.049420573 -0.022826485
0002c0 0b f5 d8 3d a4 46 8f 3c 64 dd d9 bc fe 87 7f 3d
       0.10593613 0.017489739 -0.026594825 0.06238555
0002d0 0c 61 ee 3c 06 42 27 bd a7 22 cf 3d b8 fa 9c bc
       0.02909901 -0.04083445 0.10114031 -0.01916252
0002e0 2b 00 d6 3d 20 ad 82 bb 48 cd 6b 3c ed 4f a5 3d
       0.10449251 -0.0039879233 0.014392205 0.08071885
0002f0 b0 bd 31 bd 36 2c 87 bd 22 f5 a5 bd fd d0 7f bd
       -0.04339379 -0.066002294 -0.08103396 -0.062455166
000300 a0 45 3d 3b 19 bc bd 3d 0e 91 26 3d f0 1f ee 3b
       0.002888061 0.092643924 0.04066568 0.007266991
000310 ee d8 11 3d 8c 97 a2 3c bf 76 91 3d 4f 4f ab bd
       0.03560727 0.019847654 0.07102727 -0.08364736
000320 dd b0 d6 3d 4e 10 43 3d 80 2d ce bd 44 be 2b bd
       0.10482953 0.04762297 -0.10067272 -0.0419295
000330 19 d9 cb 3d 52 2b 09 3d 44 95 80 3c a9 98 a9 3d
       0.099535175 0.03348858 0.015696175 0.08281071
000340 5f 7c c6 3d b7 7d cc 3d 92 0c 97 bd 1a 42 25 3d
       0.09691691 0.09984916 -0.073754445 0.040346242
000350 5c eb fc bc 80 c2 02 ba d6 9f 21 3d 48 dc 27 3c
       -0.030873947 -0.0004988089 0.039459072 0.01024539
000360 3b b0 51 bd 5c 85 92 bd 60 15 6c bc 50 9d e8 3b
       -0.051193457 -0.071543425 -0.014409393 0.0070988312
000370 c0 dc da ba 86 6b 36 bd 23 17 d2 3d 60 46 d5 3b
       -0.0016697869 -0.044536136 0.10258319 0.0065086335
000380 6e 2a 7b 3d 4f aa 4f bd c5 71 82 3d d8 cd 11 bc
       0.06131976 -0.05069953 0.06369356 -0.008899175
000390 a4 18 1b bd 30 f9 7e 3c d8 3c 3f bc cc fd b5 3c
       -0.037865296 0.015562341 -0.011672221 0.022215746
0003a0 7b be 90 3d 8e 1f 74 3d 64 d3 af 3c a0 04 7c bc
       0.07067581 0.059600405 0.021463104 -0.015381962
0003b0 24 06 a2 3c 0f f2 b1 bd 52 51 af bd 11 c5 50 bd
       0.019778319 -0.08688747 -0.085604325 -0.050969187
0003c0 8c cb c0 bc 4a f8 57 3d 05 54 cc 3d f3 28 b8 3d
       -0.023534559 0.05272702 0.09976963 0.089921854
0003d0 0a 68 26 3d 98 df 4c 3c af 69 85 3d 54 e3 d1 bd
       0.040626563 0.012504481 0.06514298 -0.102484375
0003e0 c0 67 84 3c ca db 4b 3d 49 e7 40 bd 10 07 e5 bc
       0.016162753 0.049770154 -0.04709557 -0.02795747
0003f0 36 9b 2e bd 3c b8 93 bd 6c eb 8b bd 94 77 61 bd
       -0.04262849 -0.07212874 -0.068320125 -0.05504568

layers.1.bias f4 [64]
000000 00 00 00 00 00 00 00 00 00 00 00 00 00 00 00 00
       0.0 0.0 0.0 0.0
000010 00 00 00 00 00 00 00 00 00 00 00 00 00 00 00 00
       0.0 0.0 0.0 0.0
000020 00 00 00 00 00 00 00 00 00 00 00 00 00 00 00 00
       0.0 0.0 0.0 0.0
000030 00 00 00 00 00 00 00 00 00 00 00 00 00 00 00 00
       0.0 0.0 0.0 0.0
000040 00 00 00 00 00 00 00 00 00 00 00 00 00 00 00 00
       0.0 0.0 0.0 0.0
000050 00 00 00 00 00 00 00 00 00 00 00 00 00 00 00 00
       0.0 0.0 0.0 0.0
000060 00 00 00 00 00 00 00 00 00 00 00 00 00 00 00 00
       0.0 0.0 0.0 0.0
000070 00 00 00 00 00 00 00 00 00 00 00 00 00 00 00 00
       0.0 0.0 0.0 0.0
000080 00 00 00 00 00 00 00 00 00 00 00 00 00 00 00 00
       0.0 0.0 0.0 0.0
000090 00 00 00 00 00 00 00 00 00 00 00 00 00 00 00 00
       0.0 0.0 0.0 0.0
0000a0 00 00 00 00 00 00 00 00 00 00 00 00 00 00 00 00
       0.0 0.0 0.0 0.0
0000b0 00 00 00 00 00 00 00 00 00 00 00 00 00 00 00 00
       0.0 0.0 0.0 0.0
0000c0 00 00 00 00 00 00 00 00 00 00 00 00 00 00 00 00
       0.0 0.0 0.0 0.0
0000d0 00 00 00 00 00 00 00 00 00 00 00 00 00 00 00 00
       0.0 0.0 0.0 0.0
0000e0 00 00 00 00 00 00 00 00 00 00 00 00 00 00 00 00
       0.0 0.0 0.0 0.0
0000f0 00 00 00 00 00 00 00 00 00 00 00 00 00 00 00 00
       0.0 0.0 0.0 0.0

layers.1.lin.weight f4 [64, 128]
000000 60 43 b7 bd 38 1f ac 3c 52 5a 80 3d ae 32 96 3d
       -0.08948398 0.02101098 0.06267227 0.07333885
000010 79 02 19 3e 08 ec 24 be a0 1d eb 3c f0 b0 29 3c
       0.1494235 -0.16105664 0.02870065 0.010357127
000020 e7 9b 34 3e 28 7b c9 3c b4 d7 14 3d 80 b5 de bc
       0.17637597 0.024594858 0.036338523 -0.027186155
000030 a1 0f 19 3e 28 45 98 bc 06 ca b6 3d 69 ca 11 3e
       0.14947368 -0.018587664 0.08925252 0.1423737
000040 78 1e 6c bd 01 01 1d 3e 2b 02 06 be 80 d5 b6 bb
       -0.057646245 0.15332414 -0.13086765 -0.0055796504
000050 50 46 4e 3c 27 df 2e 3e e9 d3 02 3e 1a 5d ab bd
       0.012590006 0.17077313 0.1277615 -0.08367367
000060 20 ce db bb f0 64 5e 3c 75 8e 1b 3e 40 13 e0 3c
       -0.0067079216 0.01357387 0.15191062 0.02735293
000070 a0 3d 06 3d 28 44 ba bc b9 18 16 be 80 72 29 bd
       0.032773614 -0.022737578 -0.14657868 -0.04136896
000080 b0 cd 9e bc 60 92 c2 3b 40 c6 52 bc 0e f2 29 be
       -0.019385189 0.0059378594 -0.012864649 -0.16596243
000090 ae fd da bd 38 12 54 3d b8 0b 9b 3c f6 39 14 be
       -0.10692917 0.051775187 0.018926486 -0.14475235
0000a0 50 a7 19 3c be 60 97 3d 30 d8 2b bc 89 16 18 be
       0.009378269 0.07391499 -0.010488555 -0.14852346
0000b0 ce 38 d0 3d ac 1a 80 3d 99 b9 17 3e 97 e7 19 3e
       0.10167085 0.06255087 0.14816894 0.15029751
0000c0 58 10 9f 3c 6b 57 24 be 6a 45 b2 3d 00 5f 11 3c
       0.019416973 -0.16048972 0.08704646 0.008872747
0000d0 f3 5b da bd 72 83 a9 3d 30 e2 5a 3d e4 af 0c bd
       -0.10662069 0.08277024 0.053438365 -0.03434743
0000e0 ae ed df 3d 8e 1b a6 bd 89 59 9e bd 72 54 d1 3d
       0.10934006 -0.081107244 -0.07731921 0.10221185
0000f0 80 23 d8 3b 48 24 ca 3c b2 ab c8 3d 1e 34 b0 3d
       0.006596029 0.024675503 0.09798373 0.086036906
000100 b2 51 84 bd d6 f1 f1 3d 2b ab 25 3e c6 99 56 bd
       -0.06460895 0.11813705 0.16178577 -0.052392744
000110 c8 68 56 3d 28 c0 62 3d 53 f4 2c 3e 6d b7 1e 3e
       0.05234602 0.055359036 0.16890077 0.15499659
000120 f8 06 a4 bc e1 ae 1c be 63 93 1a 3e 6f 41 21 3e
       -0.020022854 -0.15301086 0.15095286 0.15747617
000130 a8 19 a6 bc f8 18 c3 bc e0 72 3c bd fb 53 13 be
       -0.020275906 -0.023815617 -0.04600799 -0.14387505
000140 a3 68 16 be 1b e4 c4 bd d1 04 2a 3e d7 83 31 be
       -0.14688353 -0.0961382 0.166034 -0.17335449
000150 d0 4a 2d bd 83 f0 17 3e ce 38 ce 3d da 83 d7 bd
       -0.042307675 0.14837842 0.100694284 -0.105231956
000160 60 ad 02 bd 13 2a 1d 3e 88 e8 a9 bc a1 04 1c be
       -0.031903625 0.15348081 -0.020740762 -0.15236141
000170 0d ee 0d be e3 bf 09 3e 86 29 d6 bd 90 96 2b 3c
       -0.1386034 0.13452105 -0.10457139 0.010472909
000180 1b aa 09 3e 70 dd 6b 3d 5b 4d 16 3e 5e 09 e5 3d
       0.13443796 0.057584226 0.14677946 0.11183427
000190 52 b5 d7 3d 55 ba 11 3e 04 75 53 bd c0 ee 3a bb
       0.10532631 0.14231236 -0.051625267 -0.0028523654
0001a0 2e 5b d0 3d d0 38 1d bc cb 8f 16 3e bb 47 03 be
       0.10173641 -0.009596065 0.1470329 -0.12820332
0001b0 0d be 29 3e 30 cf 21 bc ad f8 0c 3e 6b a9 f2 bd
       0.16576405 -0.0098760575 0.13766737 -0.1184872
0001c0 5b 61 24 3e f9 f5 02 3e e5 b2 c0 bd db 01 c4 bd
       0.16052763 0.12789144 -0.094091214 -0.095706664
0001d0 f7 f7 32 be 72 95 f6 bd 6c 84 08 bd c9 f5 f2 bd
       -0.17477404 -0.12040223 -0.033329412 -0.11863286
0001e0 10 40 84 bd a1 d2 0a 3e 1a 49 9b bd 01 a2 a2 bd
       -0.064575315 0.13556911 -0.075823024 -0.07941056
0001f0 e0 99 aa bb 6e 3d a2 bd b4 6d f4 bd 56 6b a7 3d
       -0.0052063316 -0.07921873 -0.11934987 0.081747696
000200 20 74 06 bc 18 e6 b6 bc 14 f6 13 3d d8 35 bd bc
       -0.008206397 -0.022326514 0.03612335 -0.023096964
000210 5e fb fb 3d 88 00 0f 3d f6 6d c2 3d a9 87 01 3e
       0.12303804 0.034912616 0.0949363 0.12649406
000220 7b 9f cf bd 14 e1 0b bd db 7a 33 3e 5a a7 e5 3d
       -0.1013784 -0.034150198 0.17527334 0.112135604
000230 ab bb 9c bd f8 0d 7c bd b4 1a 50 bd f6 44 15 be
       -0.07652982 -0.06153676 -0.050806716 -0.14577088
000240 17 42 17 3e 9c 86 46 bd 1c b9 12 bd 2e 1d d6 3d
       0.14771305 -0.048468217 -0.035821065 0.10454784
000250 c2 29 d2 3d c8 0f ed bc 3e 5c 30 be 9c 68 60 3d
       0.10261871 -0.02893819 -0.17222688 0.054787263
000260 23 20 0a 3e a0 45 5f bc 20 9b 8d 3c f8 55 13 be
       0.13488822 -0.01362744 0.017285883 -0.14388263
000270 d4 41 80 bd 72 1c ae 3d 2c f8 13 3d f0 5b 8e 3d
       -0.06262556 0.08501519 0.036125347 0.069511294
000280 88 d1 26 bd 00 dc 80 bd 50 80 84 3c 2f 4e 28 3e
       -0.04072717 -0.06291962 0.016174465 0.16436075
000290 a4 f6 01 3d 12 7e 03 be a1 1a 04 3e 6b 2c 1d be
       0.031729355 -0.12841061 0.12900783 -0.15348975
0002a0 fd 61 b1 bd 60 2b 63 bc c0 7c 54 bb 29 18 92 bd
       -0.08661268 -0.013865322 -0.003242299 -0.071335144
0002b0 61 a5 15 3e eb e0 84 bd 5b b0 c0 bd ba 10 cd 3d
       0.14613868 -0.06488212 -0.09408637 0.10012956
0002c0 4e a3 d7 bd 64 5c 25 bd c0 64 2b bd 3a 9e c7 3d
       -0.10529195 -0.040371314 -0.04184413 0.09746976
0002d0 63 99 a6 bd 36 4c b7 3d 1b b1 d5 bd ac 19 92 3d
       -0.08134725 0.08950083 -0.10434171 0.07133803
0002e0 d9 03 09 be f0 24 32 bd f6 d2 f2 3d 6b a8 23 3e
       -0.13380374 -0.043492258 0.11856644 0.15982215
0002f0 96 08 be 3d 10 46 02 3c 50 d6 54 3d 75 41 cb bd
       0.092789814 0.0079512745 0.051962197 -0.09924594
000300 53 eb 27 3e 93 5f 09 be 49 ad 80 bd d4 0b b4 bd
       0.16398363 -0.13415365 -0.062830515 -0.087913185
000310 60 b5 4b bd 5e a6 f4 3d d6 7b 0d be ea 02 e9 3d
       -0.04973352 0.119457945 -0.13816771 0.11377509
000320 c4 68 51 3d 58 2a 5b 3d 97 bb 00 3e b4 41 5a 3d
       0.051125303 0.05350718 0.1257156 0.053285316
000330 42 b4 97 bd 80 94 89 3d 3b 2f 2b 3e 8b da 22 3e
       -0.07407428 0.06717777 0.16717236 0.1590368
000340 a0 79 17 be dc 60 cf bd 37 c3 8d bd 44 f6 88 3d
       -0.1479249 -0.10125896 -0.06922 0.066875964
000350 e0 ec 0b be 89 69 1f be 9e 77 de bd 99 4b 34 be
       -0.1366458 -0.15567602 -0.10862659 -0.17606963
000360 b0 e9 53 bc 1a 71 d3 bd 56 44 cc 3d 10 36 27 be
       -0.012934133 -0.10324307 0.099739715 -0.16329217
000370 ec 73 7c 3d 2a 5d b1 3d 1e a4 f7 3d 80 5b 27 3c
       0.06163399 0.08660348 0.1209185 0.010214686
000380 a8 e0 cd bc da f2 8c 3d ab f6 21 be 35 38 95 bd
       -0.025131539 0.06882258 -0.15816753 -0.07286111
000390 d4 8c 84 3d 91 9d 33 3e 3b 12 15 be 60 e1 20 bd
       0.06472173 0.17540576 -0.14557736 -0.039277434
0003a0 6d a7 09 3e 7c 3d 04 bd 5a 5a 30 be 10 a2 f7 bc
       0.13442774 -0.0322852 -0.17221966 -0.030228645
0003b0 1b af ad bd ce 16 ff 3d fe bd 88 3d 2a 10 dd 3d
       -0.08480664 0.124555215 0.06676863 0.10794099
0003c0 6e b9 e4 3d 40 c9 d4 3c dd eb 27 3e c0 61 42 3d
       0.111681804 0.02597487 0.16398568 0.047456503
0003d0 ac cb 2f bd a3 1d 16 3e 7e 51 8b 3d 25 eb 9c bd
       -0.042918846 0.14659743 0.06802653 -0.07662038
0003e0 f0 6b 05 bd ae 32 bf 3d b5 98 29 3e 4d 5a e5 bd
       -0.03257364 0.09335838 0.1656216 -0.11198864
0003f0 de 89 a6 3d 48 81 08 3d 20 96 f2 bc 6a b3 d7 bd
       0.08131765 0.033326417 -0.0296126 -0.105322674
