models/hybrid_recommender_20250428_112006/gnn_model.pt (torch, 232480 bytes, 4 tensors)

layers.0.bias f4 [128]
000000 00 00 00 00 00 00 00 00 00 00 00 00 00 00 00 00
       0.0 0.0 0.0 0.0
000010 00 00 00 00 00 00 00 00 00 00 00 00 00 00 00 00
       0.0 0.0 0.0 0.0
000020 00 00 00 00 00 00 00 00 00 00 00 00 00 00 00 00
       0.0 0.0 0.0 0.0
000030 00 00 00 00 00 00 00 00 00 00 00 00 00 00 00 00
       0.0 0.0 0.0 0.0
000040 00 00 00 00 00 00 00 00 00 00 00 00 00 00 00 00
       0.0 0.0 0.0 0.0
000050 00 00 00 00 00 00 00 00 00 00 00 00 00 00 00 00
       0.0 0.0 0.0 0.0
000060 00 00 00 00 00 00 00 00 00 00 00 00 00 00 00 00
       0.0 0.0 0.0 0.0
000070 00 00 00 00 00 00 00 00 00 00 00 00 00 00 00 00
       0.0 0.0 0.0 0.0
000080 00 00 00 00 00 00 00 00 00 00 00 00 00 00 00 00
       0.0 0.0 0.0 0.0
000090 00 00 00 00 00 00 00 00 00 00 00 00 00 00 00 00
       0.0 0.0 0.0 0.0
0000a0 00 00 00 00 00 00 00 00 00 00 00 00 00 00 00 00
       0.0 0.0 0.0 0.0
0000b0 00 00 00 00 00 00 00 00 00 00 00 00 00 00 00 00
       0.0 0.0 0.0 0.0
0000c0 00 00 00 00 00 00 00 00 00 00 00 00 00 00 00 00
       0.0 0.0 0.0 0.0
0000d0 00 00 00 00 00 00 00 00 00 00 00 00 00 00 00 00
       0.0 0.0 0.0 0.0
0000e0 00 00 00 00 00 00 00 00 00 00 00 00 00 00 00 00
       0.0 0.0 0.0 0.0
0000f0 00 00 00 00 00 00 00 00 00 00 00 00 00 00 00 00
       0.0 0.0 0.0 0.0
000100 00 00 00 00 00 00 00 00 00 00 00 00 00 00 00 00
       0.0 0.0 0.0 0.0
000110 00 00 00 00 00 00 00 00 00 00 00 00 00 00 00 00
       0.0 0.0 0.0 0.0
000120 00 00 00 00 00 00 00 00 00 00 00 00 00 00 00 00
       0.0 0.0 0.0 0.0
000130 00 00 00 00 00 00 00 00 00 00 00 00 00 00 00 00
       0.0 0.0 0.0 0.0
000140 00 00 00 00 00 00 00 00 00 00 00 00 00 00 00 00
       0.0 0.0 0.0 0.0
000150 00 00 00 00 00 00 00 00 00 00 00 00 00 00 00 00
       0.0 0.0 0.0 0.0
000160 00 00 00 00 00 00 00 00 00 00 00 00 00 00 00 00
       0.0 0.0 0.0 0.0
000170 00 00 00 00 00 00 00 00 00 00 00 00 00 00 00 00
       0.0 0.0 0.0 0.0
000180 00 00 00 00 00 00 00 00 00 00 00 00 00 00 00 00
       0.0 0.0 0.0 0.0
000190 00 00 00 00 00 00 00 00 00 00 00 00 00 00 00 00
       0.0 0.0 0.0 0.0
0001a0 00 00 00 00 00 00 00 00 00 00 00 00 00 00 00 00
       0.0 0.0 0.0 0.0
0001b0 00 00 00 00 00 00 00 00 00 00 00 00 00 00 00 00
       0.0 0.0 0.0 0.0
0001c0 00 00 00 00 00 00 00 00 00 00 00 00 00 00 00 00
       0.0 0.0 0.0 0.0
0001d0 00 00 00 00 00 00 00 00 00 00 00 00 00 00 00 00
       0.0 0.0 0.0 0.0
0001e0 00 00 00 00 00 00 00 00 00 00 00 00 00 00 00 00
       0.0 0.0 0.0 0.0
0001f0 00 00 00 00 00 00 00 00 00 00 00 00 00 00 00 00
       0.0 0.0 0.0 0.0

layers.0.lin.weight f4 [128, 384]
000000 65 99 84 bd d6 ce 61 3d 5e d6 6f 3d c0 f1 0f bc
       -0.0647457 0.055128895 0.058554046 -0.008785665
000010 6c bc ab bd e8 7f cb bd e5 b7 b6 3d fb ac 9f bd
       -0.08385548 -0.099365056 0.08921794 -0.07796665
000020 6a c0 c4 bd e8 c4 39 bc 92 8d 30 3d 2b 93 ca 3d
       -0.096070126 -0.01133845 0.043103762 0.09891351
000030 9d 4a c5 3d cb d9 c7 3d a8 37 1e bd 94 86 77 bd
       0.09633372 0.097583376 -0.038627297 -0.060431078
000040 c8 34 7e 3c 24 ff c9 bc cc 8f 9d 3c 3a ce 17 3d
       0.015515514 -0.024657793 0.019233607 0.037061907
000050 8c c5 9b bc d2 d3 93 bd 00 18 2f bb f4 0e c2 3c
       -0.019015096 -0.07218136 -0.0026717186 0.02368877
000060 03 4a a3 bd 58 03 2e bd 98 bb 6a bd 44 d7 14 bd
       -0.07973101 -0.042483658 -0.05730781 -0.036338106
000070 37 20 86 bd 84 b9 0c bd 7e 89 32 3d 5d a8 b0 3d
       -0.06549113 -0.03435661 0.043588154 0.08625863
000080 71 70 81 3d 20 90 8e bd ae 65 65 3d a7 92 8a bd
       0.063202746 -0.069610834 0.056005172 -0.06766253
000090 a8 90 3b bc 98 d0 be bc fa 3c 48 bd 41 11 8c bd
       -0.011448063 -0.023292825 -0.048886277 -0.068392284
0000a0 19 94 8c 3d ea f4 a0 bd 67 31 ca 3d c7 27 c1 3d
       0.06864185 -0.07859214 0.09872704 0.09431415
0000b0 5d 1a bb bd b2 6d 86 bd 4a 88 b9 bd 14 56 c7 bd
       -0.09135888 -0.065638915 -0.09059198 -0.09733215
0000c0 df 31 87 3d ce f2 14 3d 06 62 79 3d d8 3c c9 bc
       0.06601309 0.03636437 0.060884498 -0.024565145
0000d0 88 ef 39 bc 63 58 ba bd f4 9a 48 bd 45 62 c5 3d
       -0.011348613 -0.0909889 -0.0489759 0.09637884
0000e0 88 c4 2d bd 23 08 58 bd 6a 04 d4 bd 90 bf 3f bc
       -0.042423755 -0.052742135 -0.103524044 -0.011703387
0000f0 00 d3 39 3a a0 ac 3c 3c b0 02 7a bc 72 70 7c 3d
       0.00070886314 0.011515766 -0.01525943 0.061630674
000100 32 d1 0b bd 00 b9 1a 3b d7 4d bb 3d 40 12 49 bd
       -0.03413505 0.0023608804 0.09145706 -0.04908967
000110 28 dd 66 bc b7 9c c6 bd 3c 6a a5 bd 86 78 bd bd
       -0.014090814 -0.0969786 -0.08076903 -0.09251504
000120 c7 59 a5 3d 1c 58 cc 3c e7 68 b0 bd 5d a6 50 bd
       0.08073764 0.024944358 -0.086137585 -0.050939906
000130 fc cc a1 bd 70 0b 82 bd 1b a8 c4 3d 98 1c 42 3c
       -0.07900426 -0.06349838 0.09602376 0.011847638
000140 5a e9 72 3d 3d 8f d8 3d dc 00 f0 3c ab 88 94 3d
       0.059304573 0.105741955 0.029297285 0.0725263
000150 30 09 27 3c 48 40 1d 3c b2 51 2f bd 39 3e 8a 3d
       0.010195062 0.009597845 -0.04280252 0.06750149
000160 f6 f5 73 bd e6 0f 95 bd ab 35 d4 3d be 82 48 3d
       -0.05956074 -0.07278423 0.10361799 0.04895281
000170 57 c4 59 bd c1 9f 91 3d 08 cb c7 bd 1e 17 95 bd
       -0.05316576 0.07110549 -0.09755522 -0.072798
000180 52 de 5c 3d 00 1f c9 bc 6e e5 36 bd 38 a3 7f 3c
       0.05392296 -0.024550915 -0.044652395 0.015602879
000190 35 2c b6 3d f3 f5 d6 3d 48 bb 8e bd c4 82 93 3c
       0.088951506 0.1049613 -0.06969315 0.01800669
0001a0 ea 7b 6b 3d c9 40 a2 3d 64 0e 8c bc 7c 22 c0 bc
       0.05749122 0.07922513 -0.017096706 -0.023453943
0001b0 f4 eb 85 bd ed 73 5f bd df 7b 85 3d dc cd 97 bc
       -0.06539145 -0.054553915 0.06517767 -0.018530779
0001c0 de ee 9e bd 2a f2 5d 3d 4c 5e b7 3c 15 75 b5 bd
       -0.07760404 0.054186024 0.022383831 -0.08860222
0001d0 4c 54 34 bd a9 aa c2 3d f7 46 d3 bd c5 df 42 bd
       -0.044025704 0.09505207 -0.1031627 -0.047576685
0001e0 c7 a2 89 3d ff 6f db bd a0 8e 2a 3b f6 ae 77 3d
       0.067205004 -0.10714721 0.0026024953 0.06046959
0001f0 58 79 01 bc ef c8 d8 3d fb e2 c9 3d 2d 62 c1 3d
       -0.007902466 0.105852 0.09857746 0.09442554
000200 02 81 5a 3d 08 8d 53 bd c0 0e 76 3c 98 1f 21 bc
       0.053345688 -0.05164817 0.015018165 -0.009834193
000210 40 0f 13 bc d4 00 48 bd 24 a7 9a 3c 8e d3 82 bd
       -0.008975804 -0.048828915 0.018878527 -0.06388007
000220 42 a3 4a 3d 80 54 0c 3a 7a 49 8a bd 10 4c 99 bd
       0.0494721 0.00053531677 -0.06752296 -0.07485211
000230 cb f2 c7 3d a4 10 db 3c 8e 38 b8 bd 63 cb 8f 3d
       0.09763106 0.026741333 -0.08995162 0.07021215
000240 f8 36 1e 3c 8c 51 d0 bd 10 00 e5 3b dc 38 97 bd
       0.00965666 -0.10171804 0.006988533 -0.07383892
000250 ae b3 ba bd 67 a3 8f 3d 40 46 e3 3a 7f 02 9b 3d
       -0.091163024 0.070135884 0.0017339662 0.075688355
000260 60 34 54 bc e1 42 d8 bd 12 a4 34 3d 70 71 e0 3b
       -0.01295194 -0.10559631 0.044101782 0.0068494603
000270 10 ec 83 bd 45 aa 92 3d 4a 32 86 bd d2 1d a4 bd
       -0.0644151 0.071613826 -0.065525606 -0.080135
000280 fd 8c 8c 3d 86 d3 03 3d 7e c1 89 bd 6d a3 be bd
       0.06862829 0.032184146 -0.06726359 -0.09308515
000290 86 66 48 3d d6 7d 10 bd 04 dd cb bd 6e 01 1a 3d
       0.0489259 -0.035276257 -0.09954265 0.03759902
0002a0 0b 39 d4 3d 8d 58 86 3d cc 29 8c 3c 3d 16 c6 bd
       0.103624426 0.065598585 0.017109774 -0.0967221
0002b0 90 e8 fe bc e6 85 cc bd 4f 87 92 3d 94 1b 9b 3c
       -0.031116754 -0.099864766 0.07154714 0.018934049
0002c0 a0 54 89 bb a1 52 d8 3d 5a d1 d8 bd 97 97 da bd
       -0.0041909963 0.10562635 -0.10586806 -0.10673445
0002d0 4b 3a 9b bd a7 73 b3 3d d0 1b ff bc ce e1 c0 bd
       -0.07579478 0.08762293 -0.031141192 -0.09418069
0002e0 c4 ca b9 3c 49 42 9f 3d 10 26 da bb 21 11 b7 3d
       0.022679694 0.07776315 -0.0066573694 0.08938814
0002f0 93 77 3c bd 46 bd 08 3d 48 d7 70 3c 60 44 39 bc
       -0.046012472 0.03338363 0.014699765 -0.011307806
000300 2e 3e 04 bd 90 6f c2 bc 37 51 a5 3d 0f 95 cc 3d
       -0.03228586 -0.023734838 0.08072131 0.09989368
000310 30 d3 89 bb b0 4c a4 bc c8 ba 1b 3c 2e db 53 bd
       -0.0042060837 -0.020056099 0.009504981 -0.051722698
000320 6e 27 53 3d 71 80 6e bd f8 00 5b bd d1 cd d0 3d
       0.051551275 -0.05822796 -0.05346772 0.10195506
000330 00 49 22 bb dc 78 e9 3c e6 85 88 bd cb f5 cb 3d
       -0.002476275 0.028500013 -0.06666164 0.09958991
000340 5c 0b b7 3c 40 c4 78 bb 9a e2 6c bd 4a ea 67 3d
       0.022344284 -0.003795877 -0.05783329 0.05661992
000350 c9 a1 d7 3d e1 0c 42 bd 5b c7 a0 3d fe 49 0d 3d
       0.10528905 -0.047375564 0.07850524 0.034494393
000360 b0 9e 9d bc 2c fb de 3c 9c 1c a2 bc a0 6b ba 3b
       -0.019240707 0.027219377 -0.019789033 0.0056890994
000370 80 45 2c 3a ae 12 d0 bd c0 11 02 bb 7b ce a1 bd
       0.00065716356 -0.10159813 -0.0019847006 -0.07900711
000380 05 81 ca 3d 39 21 cc bd 48 e7 8d bc f9 3d 9f bd
       0.0988789 -0.09967274 -0.017322198 -0.07775492
000390 78 cc 09 bc 64 3c a8 bc 7f 68 cd 3d 16 dc 73 3d
       -0.008410566 -0.020536609 0.10029697 0.059536062
0003a0 3a e1 4f 3d a2 40 b6 bd df 85 c7 3d ce 09 40 3d
       0.050751902 -0.088990465 0.09742331 0.04688435
0003b0 4a dd 11 3d d3 cc a1 bd aa d9 0b bd 76 70 33 3d
       0.03561143 -0.07900395 -0.034143128 0.043808423
0003c0 dc b9 f2 bc e1 07 80 3d f2 7c 4c 3d e5 66 4a bd
       -0.02962964 0.06251503 0.049923845 -0.049414534
0003d0 56 38 5f 3d 63 24 cc 3d f3 75 d2 bd 50 92 9a bb
       0.054497086 0.09967878 -0.10276403 -0.004717149
0003e0 63 03 aa 3d d8 05 03 bd 10 3c a2 3b 9b e1 ac 3d
       0.08301427 -0.031987995 0.0049510077 0.08441468
0003f0 d7 e5 9d 3d 64 b4 d9 bc 46 c0 93 bd 4c 49 df bc
       0.07709854 -0.026575275 -0.072144076 -0.02725663

layers.1.bias f4 [64]
000000 00 00 00 00 00 00 00 00 00 00 00 00 00 00 00 00
       0.0 0.0 0.0 0.0
000010 00 00 00 00 00 00 00 00 00 00 00 00 00 00 00 00
       0.0 0.0 0.0 0.0
000020 00 00 00 00 00 00 00 00 00 00 00 00 00 00 00 00
       0.0 0.0 0.0 0.0
000030 00 00 00 00 00 00 00 00 00 00 00 00 00 00 00 00
       0.0 0.0 0.0 0.0
000040 00 00 00 00 00 00 00 00 00 00 00 00 00 00 00 00
       0.0 0.0 0.0 0.0
000050 00 00 00 00 00 00 00 00 00 00 00 00 00 00 00 00
       0.0 0.0 0.0 0.0
000060 00 00 00 00 00 00 00 00 00 00 00 00 00 00 00 00
       0.0 0.0 0.0 0.0
000070 00 00 00 00 00 00 00 00 00 00 00 00 00 00 00 00
       0.0 0.0 0.0 0.0
000080 00 00 00 00 00 00 00 00 00 00 00 00 00 00 00 00
       0.0 0.0 0.0 0.0
000090 00 00 00 00 00 00 00 00 00 00 00 00 00 00 00 00
       0.0 0.0 0.0 0.0
0000a0 00 00 00 00 00 00 00 00 00 00 00 00 00 00 00 00
       0.0 0.0 0.0 0.0
0000b0 00 00 00 00 00 00 00 00 00 00 00 00 00 00 00 00
       0.0 0.0 0.0 0.0
0000c0 00 00 00 00 00 00 00 00 00 00 00 00 00 00 00 00
       0.0 0.0 0.0 0.0
0000d0 00 00 00 00 00 00 00 00 00 00 00 00 00 00 00 00
       0.0 0.0 0.0 0.0
0000e0 00 00 00 00 00 00 00 00 00 00 00 00 00 00 00 00
       0.0 0.0 0.0 0.0
0000f0 00 00 00 00 00 00 00 00 00 00 00 00 00 00 00 00
       0.0 0.0 0.0 0.0

layers.1.lin.weight f4 [64, 128]
000000 04 2c 7a 3d aa bb 13 be 98 82 86 3c 31 29 32 be
       0.061077133 -0.14427057 0.016419694 -0.17398526
000010 80 62 11 be 90 e5 4a bd 7d e0 16 3e 8f 45 0c 3e
       -0.14197731 -0.049535334 0.14734073 0.1369841
000020 80 7b 8d 3d 56 f2 20 be 96 1f 55 bd ea a8 b2 3d
       0.069083214 -0.15717444 -0.052032076 0.08723624
000030 f3 e5 a7 bd b2 9c e6 3d 88 a8 ed bc de 28 91 3d
       -0.08198156 0.11260356 -0.029011026 0.07087873
000040 a0 3b b6 bd 20 83 c9 bb c0 39 3d bc fa 39 ad 3d
       -0.08898091 -0.0061496645 -0.011549413 0.08458324
000050 15 5f 07 be 6f 52 ce bd 76 a5 02 be 16 52 f9 3d
       -0.13219865 -0.10074317 -0.12758431 0.1217386
000060 b0 ef 60 3d 77 02 2e 3e 16 01 e7 bd 92 84 6e bd
       0.054916084 0.16993128 -0.11279504 -0.058231898
000070 6c d3 06 be 96 c4 cb 3d b0 39 97 bd 6a 3e 93 3d
       -0.13166589 0.09949605 -0.0738405 0.07189639
000080 40 78 0a bc 13 7b 29 3e a6 9a f2 bd e9 07 02 3e
       -0.008451521 0.16550855 -0.11845903 0.1269833
000090 6e e0 33 be bc c6 72 3d 95 08 a7 bd 1a 98 bb 3d
       -0.17566082 0.05927156 -0.08155934 0.091598704
0000a0 d8 c7 ea bd 27 92 99 bd 90 82 d2 3c 44 7b 6e bd
       -0.114638984 -0.074985795 0.025697023 -0.058223024
0000b0 c0 2b b3 bb 1b f8 1a 3e 2c 70 05 bd 52 5d fe 3d
       -0.005467862 0.15133707 -0.03257768 0.12420143
0000c0 61 b1 2e 3e 6c 9b b9 bd 6a 33 f8 3d 92 4c b7 3d
       0.17059852 -0.090628475 0.121191815 0.089501515
0000d0 26 b2 6f bd 00 68 e8 b8 e0 bb e0 3c 7e 48 0c be
       -0.058519505 -0.000110819936 0.027433336 -0.13699529
0000e0 a6 02 e2 bd 89 20 23 3e 58 ba 2d 3d 91 b2 ca bd
       -0.110356614 0.1593038 0.04241404 -0.0989734
0000f0 70 9b 89 3d 44 10 02 3d ce e1 87 3d dc c2 0e bd
       0.067191005 0.031753793 0.06634866 -0.0348538
000100 0c dc 4d 3d b6 23 c1 3d d2 c6 f9 3d dc c4 03 be
       0.05025868 0.094306394 0.12196125 -0.12868065
000110 db d3 e3 bd ce 3b e1 3d bc b9 77 bd eb 3c c4 bd
       -0.111243926 0.10997735 -0.060479864 -0.09581932
000120 c0 b4 d1 bd 3d 32 21 3e e4 13 2c 3d 08 84 2d 3d
       -0.102395535 0.1574182 0.042011157 0.042362243
000130 96 af d9 3d 6a 57 fe 3d d2 ae fa 3d 20 23 80 3d
       0.106291935 0.12419017 0.122403756 0.062566996
000140 ac 08 54 3d f8 5c 01 be 00 67 15 be d0 c3 54 bc
       0.051766083 -0.12633121 -0.14590073 -0.012986138
000150 00 e0 fe 38 d0 07 23 be 4a 1c b2 bd e1 6d 01 be
       0.00012153387 -0.15920949 -0.08696802 -0.12639572
000160 f4 ff 1f be dc 82 7c bd e2 4c aa 3d 86 a0 87 bd
       -0.15624982 -0.061648235 0.083154455 -0.06622414
000170 61 6c 13 3e e2 0d 8c 3d c8 f1 b3 3c ac 9a 6c 3d
       0.14396812 0.068385854 0.021965876 0.057764694
000180 b0 41 87 bc 55 7f 09 be 1b 34 a6 bd 6e 90 af 3d
       -0.016510814 -0.1342748 -0.08115407 0.0857247
000190 fa 1f 9a 3d ec 2f 01 be 8a 16 80 3d a8 8b 56 3d
       0.0752563 -0.12615937 0.06254299 0.05237928
0001a0 3e c5 f5 3d f7 aa 11 be 00 3a ea ba b0 e3 48 bc
       0.120005116 -0.14225374 -0.0017870069 -0.012261316
0001b0 62 77 15 be 0b 83 cd bd 9c 43 48 3d 50 a9 12 be
       -0.14596322 -0.1003476 0.048892602 -0.143224
0001c0 3b e9 0f 3e 95 6a 10 3e 0e af de 3d 28 0d 82 bc
       0.14053814 0.14103158 0.10873233 -0.015875414
0001d0 73 83 27 3e dc 71 09 3d 35 5e 28 be ec bf 98 bd
       0.16358738 0.03355585 -0.16442187 -0.07458481
0001e0 70 22 f7 3c d4 26 2e be 8c 21 0e 3d ff 06 10 3e
       0.030167788 -0.17006999 0.03469996 0.14065169
0001f0 1c 33 52 3d 68 02 75 3d 67 0c 2a be 9d 4d 8b bd
       0.051318273 0.059816748 -0.16606294 -0.06801913
000200 5f 4d 01 3e da c2 f6 3d 02 76 9a 3d de a4 89 3d
       0.12627171 0.12048884 0.075420395 0.06720899
000210 93 72 91 bd e0 98 26 3c 78 d2 29 bd e7 b9 e5 bd
       -0.071019314 0.010168284 -0.041460484 -0.11217099
000220 20 ad 32 3d 3c fb 2f be e4 94 5b bd 2e 81 a8 bd
       0.043622136 -0.17185682 -0.05360879 -0.08227764
000230 64 ec 3b bd ad 13 ff bd 24 94 38 3d 8c 4a 42 3d
       -0.045879737 -0.12454925 0.045063153 0.047434375
000240 6a b1 11 be 07 f5 b4 bd 98 28 6a 3d 24 09 3b bd
       -0.14227834 -0.08835798 0.05716762 -0.045663014
000250 58 14 55 3d 85 be 18 be c5 7b 1f 3e 88 7f 6d 3d
       0.052021354 -0.14916427 0.15574558 0.05798295
000260 50 e5 16 3c 28 70 38 3d 00 51 c6 bc 67 00 08 3e
       0.009209946 0.045028836 -0.024208546 0.13281403
000270 81 25 24 be fe 63 9d bd 30 33 ec bc 4a 2e 10 be
       -0.16029932 -0.076850876 -0.028833002 -0.14080158
000280 9d d3 15 be 10 75 97 3c 77 10 eb bd 01 74 2d 3e
       -0.14631505 0.018488437 -0.1147775 0.16938783
000290 a2 4b 0b be 5c b7 15 3d 4f 5c 83 bd 00 01 5a bb
       -0.1360307 0.03655182 -0.06414091 -0.0033264756
0002a0 44 24 d4 bd c8 d9 61 bd 60 a2 d9 bb 6a e2 c5 3d
       -0.103584796 -0.055139333 -0.006641671 0.09662326
0002b0 5e 50 20 be fe fb ce 3d cd d2 29 be 81 6a 83 bd
       -0.15655658 0.101066574 -0.1658432 -0.064167984
0002c0 b9 1b b7 bd 0c 26 1a be 80 30 be bb 86 e8 ca 3d
       -0.089408346 -0.15053576 -0.0058041215 0.099076316
0002d0 80 32 e8 bc 92 4c ac 3d 68 97 d7 bd e8 30 8a bd
       -0.028344393 0.08413042 -0.10526925 -0.067476094
0002e0 15 bd 2d 3e f7 ae 10 3e d5 77 25 be fd 8e 13 3e
       0.1696666 0.14129244 -0.16158994 0.14410014
0002f0 a0 72 a7 bb b7 1d 2c 3e 85 26 26 3e 8c 2f 00 bd
       -0.0051101 0.1680821 0.16225632 -0.031295344
000300 08 1f 4c 3d f6 49 c9 3d 02 d5 17 be 10 94 8a bc
       0.04983428 0.0982856 -0.1482735 -0.016916305
000310 5a df 20 be 9b fc 0a 3e 68 63 2f bd ac 50 87 3d
       -0.15710202 0.13572924 -0.04281941 0.06607184
000320 12 88 22 be 09 b4 12 3e 43 91 00 be 7a 64 af 3d
       -0.15872219 0.1432649 -0.12555413 0.08564086
000330 9b 39 04 3e 56 11 7e bd 60 3d 7d bc 03 eb 07 be
       0.129126 -0.06202825 -0.0154565275 -0.13273244
000340 aa 77 9e 3d 72 b8 ca bd 91 4c 31 3e 72 f6 cf 3d
       0.07737668 -0.098984614 0.17314364 0.101544276
000350 f0 87 69 3c 85 ad 80 bd 7b 57 1e 3e 5d 65 1e be
       0.014253601 -0.06283096 0.15463059 -0.15468355
000360 c9 92 18 3e e6 a9 a9 3d 04 99 1d bd 00 2b 6f 3a
       0.14899744 0.08284359 -0.038476005 0.0009123534
000370 b2 a5 eb 3d 80 08 22 be d0 53 b4 bc fc 07 8e bd
       0.11506213 -0.15823555 -0.022012621 -0.06935117
000380 3d 28 25 be 38 23 f2 3c aa f8 0b be 29 63 d7 bd
       -0.16128631 0.02955781 -0.13669077 -0.1051696
000390 d1 8e 26 3e 26 11 9b 3d f4 f4 90 3d 99 bd 24 be
       0.16265418 0.0757163 0.07077971 -0.16087951
0003a0 70 a2 4d 3c 10 e0 10 be 90 08 21 be 88 ef fe 3c
       0.012550935 -0.14147973 -0.15725923 0.031120077
0003b0 86 9e d8 3d 40 59 b1 bd af fe 16 be 28 d0 da 3c
       0.10577111 -0.08659601 -0.14745592 0.026710585
0003c0 11 a3 aa bd ae 11 e2 3d 71 f3 dd bd f4 24 25 be
       -0.08331884 0.110385284 -0.108374484 -0.16127378
0003d0 1b 80 27 3e f4 65 a7 bd 37 03 1a 3e 1d 11 0f be
       0.16357462 -0.08173743 0.15040289 -0.13971372
0003e0 6f 99 34 3e f7 07 2a 3e d0 95 9b 3c 39 55 a1 bd
       0.17636655 0.16604601 0.018992335 -0.07877583
0003f0 f2 f6 b9 bd 18 1c ec bc a8 aa 3e 3d a5 6c 97 bd
       -0.09080304 -0.02882199 0.04654947 -0.07393769
