models/hybrid_recommender_20250428_104321/gnn_model.pt (torch, 232480 bytes, 4 tensors)

layers.0.bias f4 [128]
00000000: 0000 0000 0000 0000 0000 0000 0000 0000
00000010: 0000 0000 0000 0000 0000 0000 0000 0000
00000020: 0000 0000 0000 0000 0000 0000 0000 0000
00000030: 0000 0000 0000 0000 0000 0000 0000 0000
00000040: 0000 0000 0000 0000 0000 0000 0000 0000
00000050: 0000 0000 0000 0000 0000 0000 0000 0000
00000060: 0000 0000 0000 0000 0000 0000 0000 0000
00000070: 0000 0000 0000 0000 0000 0000 0000 0000
00000080: 0000 0000 0000 0000 0000 0000 0000 0000
00000090: 0000 0000 0000 0000 0000 0000 0000 0000
000000a0: 0000 0000 0000 0000 0000 0000 0000 0000
000000b0: 0000 0000 0000 0000 0000 0000 0000 0000
000000c0: 0000 0000 0000 0000 0000 0000 0000 0000
000000d0: 0000 0000 0000 0000 0000 0000 0000 0000
000000e0: 0000 0000 0000 0000 0000 0000 0000 0000
000000f0: 0000 0000 0000 0000 0000 0000 0000 0000
00000100: 0000 0000 0000 0000 0000 0000 0000 0000
00000110: 0000 0000 0000 0000 0000 0000 0000 0000
00000120: 0000 0000 0000 0000 0000 0000 0000 0000
00000130: 0000 0000 0000 0000 0000 0000 0000 0000
00000140: 0000 0000 0000 0000 0000 0000 0000 0000
00000150: 0000 0000 0000 0000 0000 0000 0000 0000
00000160: 0000 0000 0000 0000 0000 0000 0000 0000
00000170: 0000 0000 0000 0000 0000 0000 0000 0000
00000180: 0000 0000 0000 0000 0000 0000 0000 0000
00000190: 0000 0000 0000 0000 0000 0000 0000 0000
000001a0: 0000 0000 0000 0000 0000 0000 0000 0000
000001b0: 0000 0000 0000 0000 0000 0000 0000 0000
000001c0: 0000 0000 0000 0000 0000 0000 0000 0000
000001d0: 0000 0000 0000 0000 0000 0000 0000 0000
000001e0: 0000 0000 0000 0000 0000 0000 0000 0000
000001f0: 0000 0000 0000 0000 0000 0000 0000 0000
0.0 0.0 0.0 0.0 0.0 0.0 0.0 0.0
0.0 0.0 0.0 0.0 0.0 0.0 0.0 0.0
0.0 0.0 0.0 0.0 0.0 0.0 0.0 0.0
0.0 0.0 0.0 0.0 0.0 0.0 0.0 0.0
0.0 0.0 0.0 0.0 0.0 0.0 0.0 0.0
0.0 0.0 0.0 0.0 0.0 0.0 0.0 0.0
0.0 0.0 0.0 0.0 0.0 0.0 0.0 0.0
0.0 0.0 0.0 0.0 0.0 0.0 0.0 0.0
0.0 0.0 0.0 0.0 0.0 0.0 0.0 0.0
0.0 0.0 0.0 0.0 0.0 0.0 0.0 0.0
0.0 0.0 0.0 0.0 0.0 0.0 0.0 0.0
0.0 0.0 0.0 0.0 0.0 0.0 0.0 0.0
0.0 0.0 0.0 0.0 0.0 0.0 0.0 0.0
0.0 0.0 0.0 0.0 0.0 0.0 0.0 0.0
0.0 0.0 0.0 0.0 0.0 0.0 0.0 0.0
0.0 0.0 0.0 0.0 0.0 0.0 0.0 0.0

layers.0.lin.weight f4 [128, 384]
00000000: e0be d5bd 1462 bbbd e309 cb3d 5066 fcbc
00000010: 204a 26bb 12f8 353d aa22 1c3d 6b9a a6bd
00000020: f44e 87bc 07e5 dc3d 9e20 4a3d c2e5 623d
00000030: 3872 7b3c f360 a6bd 9619 47bd 1d69 7bbd
00000040: a693 a3bd ce6a 743d 7fb5 dc3d a69f b4bd
00000050: aae1 8ebd 4d60 73bd b6b6 3e3d 4231 7d3d
00000060: 003a f13b c4b2 a4bd fbf6 ad3d 684d 813c
00000070: 575e d9bd 1c9e d0bd e8a5 053c ce41 6e3d
00000080: ff3e b5bd 086d 22bc 0002 b4ba 0fd3 a83d
00000090: aebe 7b3d 4b2b 873d cce3 65bd f8b4 70bd
000000a0: 0869 4fbc d5ba d93d 8029 893a 6240 0f3d
000000b0: 07a1 a43d 581e 68bc 887b 2bbc e054 553c
000000c0: 7cb5 853c ad34 8abd c20d 6a3d 3846 5fbd
000000d0: 227f d5bd 9cc1 80bd 20a8 753b 25c5 d2bd
000000e0: 9562 50bd 260c 18bd 8004 0bbd ff25 a23d
000000f0: 5be6 8e3d bc54 0ebd 1dfd d03d d65b b6bd
00000100: d68a 94bd 9d10 b13d 2c56 f23c 1252 0f3d
00000110: 8840 b4bc 7e51 223d c477 37bd b442 e53c
00000120: 0870 a7bc ea7a 99bd 6c50 a23c 6802 dbbc
00000130: a0b0 383b 0c92 8d3c 57d1 b43d f7e9 cf3d
00000140: f796 943d c627 5dbd dc29 85bd 3623 393d
00000150: 8033 ffbc 7926 ac3d 62db 2cbd 0cef b2bd
00000160: a1a6 c03d a04a 063c 278f a83d da59 5d3d
00000170: 4490 bbbd 7702 d13d 562c 383d 5604 91bd
00000180: 0061 d6bb a085 87bd 85a9 aabd ccfb f8bc
00000190: f49b fe3c 9d57 953d e0ed 0d3c 3871 0fbc
000001a0: 451c 67bd 40ae 3ebd 7ab6 93bd eca2 bcbd
000001b0: 8a17 5f3d c144 7ebd ee61 153d 0645 0b3d
000001c0: e455 15bd 7dcb a73d c682 85bd 608e 3c3c
000001d0: 0c8e dc3c 8cfa 08bd 9a38 093d f860 c8bd
000001e0: d78a 4bbd 8399 70bd d845 733c a71c db3d
000001f0: 00bc c838 6cc1 a6bd 3844 1d3c 168b 293d
00000200: 7fbb 893d b0bb bc3b ed79 c6bd c817 5bbd
00000210: d207 773d b74b 50bd 4d4c 7dbd e06a 5a3b
00000220: d4b5 02bd 106c 9c3b b065 bbbd b127 8b3d
00000230: bc56 8e3c 644b 8cbd a832 cabc a950 903d
00000240: 0a4a 573d 2e68 14bd 60d2 acbc 141f 2fbd
00000250: 9502 db3d a4d4 a73c 3a42 373d c699 3f3d
00000260: bce7 58bd e8a5 853c 40fd e2bc 7840 a2bc
00000270: a344 873d c566 8ebd 60f1 333b 4841 34bc
00000280: cede b8bd 28e3 aabd 80a6 a33a 67b5 a83d
00000290: cee7 793d 34f3 a03c af01 60bd 8e19 093d
000002a0: 9d30 8e3d 6927 72bd 3994 ab3d 59fb 9bbd
000002b0: 80f9 04bb 00e3 b7bb 6279 373d df47 d03d
000002c0: 40d8 93ba f15c be3d 4cdf 01bd ce3c 1dbd
000002d0: f0bb 883c 3b30 933d 42e9 1b3d 0cd6 d6bd
000002e0: c001 9cba 1892 3c3c eeb7 593d 6c7f 2cbd
000002f0: 5530 a73d 6871 3cbc 2205 363d 857a 50bd
00000300: 3c68 c73c 7cde e33c b8f5 81bc ee0c 08bd
00000310: 44ed 8d3c a9cb c53d 1bbf 4abd 7b74 8e3d
00000320: 5dd2 a13d 30b3 e43b c07a 4fbc a44c b7bc
00000330: 999c 973d 7c4a c43c ac8e af3c 92b8 a7bd
00000340: bc51 02bd c47b f83c 1123 7abd 683d 19bd
00000350: 193b 81bd c77a aa3d f0b0 b6bb e96d ab3d
00000360: a4e6 65bd 1fae b53d 0e3b 1abd ea65 453d
00000370: acc2 ad3c 4c25 ccbd 9418 b0bd 8259 d9bd
00000380: c662 9abd 10e8 80bc 649c eb3c 3960 a63d
00000390: 9619 a7bd 8a0f 5dbd 7bbc db3d a02f 0d3c
000003a0: 6e21 043d 1837 29bd 1901 94bd 8603 2c3d
000003b0: 207d 30bc 7d0d b13d 6a6a 5b3d 6579 8b3d
000003c0: 28b2 cbbd fcd6 dabd 544e 8bbc 74b9 38bd
000003d0: 6515 c9bd 1978 58bd 4044 84ba 401a 6ebd
000003e0: 5c47 a23c 4057 d0bd 08f5 5c3c 19a2 963d
000003f0: 181a 96bd ab83 b5bd 7e3f 74bd 9608 7b3d
-0.10436797 -0.09149566 0.09913995 -0.030810505 -0.0025373772 0.04442603 0.038118996 -0.08134922
-0.01651714 0.10785871 0.049347512 0.055394895 0.015347056 -0.0812396 -0.048608385 -0.06137954
-0.07987146 0.05967217 0.10776805 -0.08819513 -0.06976636 -0.05941801 0.046560965 0.061814554
0.0073616505 -0.08041909 0.084943734 0.01578398 -0.10613697 -0.10186407 0.008157231 0.058168225
-0.08849906 -0.00991369 -0.0013733506 0.08243381 0.061461143 0.06600054 -0.056125447 -0.058766335
-0.012659319 0.106313385 0.0010464638 0.03497351 0.08038526 -0.014167391 -0.010466464 0.013020724
0.01632189 -0.06748328 0.057142027 -0.054510325 -0.10424639 -0.06286928 0.0037484244 -0.102915086
-0.050875265 -0.03712096 -0.03393984 0.079174034 0.069775306 -0.034748778 0.102045275 -0.08904235
-0.07253043 0.08645747 0.029582106 0.034990378 -0.022003427 0.0396285 -0.04479195 0.027985908
-0.020439163 -0.07494147 0.019813739 -0.026734546 0.0028181449 0.017281555 0.08828991 0.10152047
0.07255357 -0.05399301 -0.06502125 0.045199595 -0.031152487 0.084057756 -0.042201407 -0.08737001
0.09406782 0.008196503 0.08230429 0.054040767 -0.09158376 0.10205548 0.044964157 -0.07080905
-0.006542325 -0.06617284 -0.083331145 -0.030393504 0.031080224 0.072921015 0.008662671 -0.008755021
-0.056423444 -0.046552896 -0.07212539 -0.092107624 0.054465808 -0.062077288 0.036470346 0.034001373
-0.036458865 0.08193109 -0.06519084 0.011508554 0.026923202 -0.033442065 0.033501245 -0.0978412
-0.049692955 -0.05874015 0.014848195 0.106988244 9.571761e-05 -0.08142361 0.009598784 0.04139241
0.06725215 0.005759679 -0.09691224 -0.053489476 0.060310192 -0.050853457 -0.061840344 0.0033327863
-0.031911686 0.0047736242 -0.09150255 0.0679468 0.017375343 -0.06850317 -0.024682358 0.07046635
0.052560844 -0.036232166 -0.021096408 -0.042754248 0.10693852 0.020487137 0.044740893 0.04677751
-0.052955374 0.016314462 -0.02770865 -0.019806132 0.06604888 -0.069531955 0.0027457103 -0.011001892
-0.090268716 -0.08344108 0.0012485534 0.08237725 0.06101208 0.019647218 -0.054689106 0.033471636
0.06942866 -0.059119616 0.083778806 -0.076163 -0.0020290315 -0.0056117773 0.044793494 0.10169958
-0.0011279657 0.09295071 -0.031707093 -0.038388066 0.016691178 0.071869336 0.03806425 -0.10490045
-0.0011902377 0.011509441 0.053153925 -0.042113706 0.081635155 -0.0115016475 0.04443849 -0.050898094
0.024341695 0.02781605 -0.015864238 -0.033215456 0.017325051 0.09657986 -0.04949866 0.06955811
0.07901452 0.0069793686 -0.012663543 -0.022375412 0.074029155 0.023961298 0.021430336 -0.08189501
-0.03181623 0.030332454 -0.0610686 -0.037412077 -0.063101 0.08324199 -0.005575292 0.08370573
-0.05612816 0.088711016 -0.037653975 0.048192896 0.02121099 -0.09968051 -0.08598438 -0.106127754
-0.07538371 -0.015735656 0.028761096 0.08123822 -0.08159177 -0.053969897 0.10729309 0.008617312
0.032258444 -0.041312307 -0.07226772 0.041995548 -0.01077202 0.08645151 0.05356828 0.068102635
-0.0994609 -0.10685536 -0.017005123 -0.045098737 -0.09818534 -0.05284891 -0.0010091141 -0.058130503
0.019809417 -0.101728916 0.013486154 0.073551364 -0.07329196 -0.08863004 -0.059630863 0.061287485

layers.1.bias f4 [64]
00000000: 0000 0000 0000 0000 0000 0000 0000 0000
00000010: 0000 0000 0000 0000 0000 0000 0000 0000
00000020: 0000 0000 0000 0000 0000 0000 0000 0000
00000030: 0000 0000 0000 0000 0000 0000 0000 0000
00000040: 0000 0000 0000 0000 0000 0000 0000 0000
00000050: 0000 0000 0000 0000 0000 0000 0000 0000
00000060: 0000 0000 0000 0000 0000 0000 0000 0000
00000070: 0000 0000 0000 0000 0000 0000 0000 0000
00000080: 0000 0000 0000 0000 0000 0000 0000 0000
00000090: 0000 0000 0000 0000 0000 0000 0000 0000
000000a0: 0000 0000 0000 0000 0000 0000 0000 0000
000000b0: 0000 0000 0000 0000 0000 0000 0000 0000
000000c0: 0000 0000 0000 0000 0000 0000 0000 0000
000000d0: 0000 0000 0000 0000 0000 0000 0000 0000
000000e0: 0000 0000 0000 0000 0000 0000 0000 0000
000000f0: 0000 0000 0000 0000 0000 0000 0000 0000
0.0 0.0 0.0 0.0 0.0 0.0 0.0 0.0
0.0 0.0 0.0 0.0 0.0 0.0 0.0 0.0
0.0 0.0 0.0 0.0 0.0 0.0 0.0 0.0
0.0 0.0 0.0 0.0 0.0 0.0 0.0 0.0
0.0 0.0 0.0 0.0 0.0 0.0 0.0 0.0
0.0 0.0 0.0 0.0 0.0 0.0 0.0 0.0
0.0 0.0 0.0 0.0 0.0 0.0 0.0 0.0
0.0 0.0 0.0 0.0 0.0 0.0 0.0 0.0

layers.1.lin.weight f4 [64, 128]
00000000: 3979 0a3e 5013 5b3c f2dc ff3d ad74 d8bd
00000010: 8fc7 0f3e e829 333d 583e 4e3d def0 1ebe
00000020: ea27 8e3d 469e c5bd 4029 893d 80ea bfba
00000030: f695 ab3d 58e6 28bd 50a2 cabd 6064 e43b
00000040: 9445 b4bd 06cc f93d f8d3 89bc 7011 8d3d
00000050: c6d5 ec3d f33f b7bd 9a23 07be 389e e7bd
00000060: a0ad a53b 008c c73b 5e9f bc3d 1641 08be
00000070: 96cb f7bd d88e 3b3d 6485 42bd 6990 1fbe
00000080: e827 8e3c cf5c 1c3e 70d8 5a3d 5480 1fbd
00000090: aa25 f13d a682 bb3d 4867 3e3d 8d03 c9bd
000000a0: a7a0 1a3e fbff 233e fa31 d73d e27f ae3d
000000b0: 61e1 043e c41c a7bd d0ab 2ebc 44d9 743d
000000c0: 68e5 813d 161c fabd 612d bfbd be56 803d
000000d0: d4ae 28be cedf e4bd 148b 5fbd f626 f3bd
000000e0: e462 66bd bbcb 203e 0038 d7bb 2cce 22be
000000f0: bf5b d9bd c0c1 a63c 5656 bb3d 7b08 8abd
00000100: 0e71 b33d 02d1 fc3d 3822 d03c 48d8 90bc
00000110: ec45 733d 3c11 e1bd c3a7 bbbd 3147 2f3e
00000120: 66c7 ce3d 4ccb 88bd 05c7 e9bd 9121 053e
00000130: 6025 7b3d 9e4e b43d 0063 78bc 4524 9ebd
00000140: e2c8 c73d 8081 91bd 8226 f1bd 1cb0 313d
00000150: 40d2 b73b ce4c 34be d079 37bd bc51 1f3d
00000160: 67c0 2d3e 2ac0 c53d 5be2 04be ec1c 5a3d
00000170: 1a08 d23d 9ecb 0dbe b46f 4a3d 1d97 01be
00000180: 6777 b7bd 0648 ffbd 1c97 36bd 94e0 463d
00000190: b8e7 93bc 501a d8bc 31f9 acbd c1ce 333e
000001a0: c15d 2dbe 94fb 17be 1aed d23d 5c94 17bd
000001b0: 04a1 12be 2052 cbbc e650 2bbe 65dd 143e
000001c0: e0c7 6ebc e6f9 db3d de18 dbbd f318 2fbe
000001d0: 098f 073e d271 f53d 1c75 46bd 9d43 98bd
000001e0: 2310 b4bd 40b2 41bb ba38 f73d 02bb 20be
000001f0: 16e0 9cbd 4043 2fbd 40e1 f0bc 76d5 93bd
00000200: ed17 0cbe a8f8 0b3d a097 37bc 9d0e babd
00000210: 5891 06be 3859 04be 5a88 82bd 4fbe 313e
00000220: ac04 07be 5240 de3d 1971 2f3e 12ec f83d
00000230: a8fe c8bc 2cd1 35bd 58fb 493d a3da 293e
00000240: a47b fbbd 33b4 2c3e a0eb 0ebc b394 0a3e
00000250: 65f7 0c3e b8a0 d5bd 4306 0a3e c193 213e
00000260: 5045 9cbc e945 f5bd faf1 c03d 00f0 a6ba
00000270: b69d cd3d 2068 343d b6ad e73d 16c6 d9bd
00000280: 0040 293b 3891 953c 0cb3 243d 7859 25bd
00000290: 5a83 cc3d 3c87 823d 1412 e7bd 7a0c 02be
000002a0: 9848 cfbc 3f12 263e 4984 323e 10a7 ca3c
000002b0: 9a99 cc3d 00c6 9e3c f100 86bd c6f2 813d
000002c0: ffda 103e 59c1 18be 3601 35be 64dd 45bd
000002d0: 4e49 983d 40b7 65bb 5f4d 0e3e b185 233e
000002e0: e2ec 15be b99b 1dbe 00ae 993b 60c3 413c
000002f0: 2d9f 0d3e 79ee f4bd 859e 2b3e 6047 29be
00000300: f0b8 34bc b18c 183e 764b d9bd 52e4 54bd
00000310: 18ae f2bd f680 fd3d b8e4 fc3c 0358 323e
00000320: 34d5 223d 7fde 2c3e 5014 ebbd a2bf fd3d
00000330: 9e0f 27be 22be 913d eb24 213e 4050 523b
00000340: 9e83 77bd 3ab7 943d f224 da3d 6a94 06be
00000350: b793 233e 8248 943d 04df 53bd 50cf 743c
00000360: 3c6b 8bbd 003a 27bc 8c05 d2bd 08f6 a6bd
00000370: 3324 04be b082 88bc 98fa c83c c863 8ebc
00000380: 5693 c43d 9b75 133e a89e c6bd b021 1fbd
00000390: 2cd3 cabd 5531 253e 4eae 62bd 6849 d83c
000003a0: 1a77 57bd eee6 0cbe 63da c1bd 08c5 e3bc
000003b0: 5e10 e83d 20eb e3bd 1995 0f3e 7611 ae3d
000003c0: 16fd bd3d 2e8d 8f3d dc84 cabd 2a36 febd
000003d0: 98a8 423d 1098 aabc 59e1 acbd c455 0abd
000003e0: cfa9 053e 3c3f 84bd 9067 58bd e28b c03d
000003f0: 0fa3 063e fe3a ad3d 043b 14bd bd39 003e
0.13522805 0.013371304 0.12493314 -0.10569129 0.1404097 0.043741137 0.050352424 -0.15521571
0.06941207 -0.09649329 0.06697321 -0.001464203 0.08378212 -0.041235298 -0.0989424 0.0069699734
-0.088023335 0.121971175 -0.016824707 0.068880916 0.115642115 -0.08947744 -0.13197175 -0.11309475
0.005056098 0.0060896873 0.092100844 -0.13306078 -0.12099378 0.045790523 -0.047490492 -0.15582432
0.017353013 0.15269779 0.053429067 -0.038940743 0.11774762 0.091557786 0.046485215 -0.098151304
0.15100347 0.16015618 0.10507579 0.085204855 0.129766 -0.081597835 -0.0106610805 0.059777513
0.06342584 -0.12212388 -0.09334827 0.06266545 -0.16472942 -0.111755 -0.054575995 -0.118726656
-0.056246653 0.15702717 -0.006567955 -0.15898961 -0.10613202 0.02035606 0.09147327 -0.06739899
0.08761798 0.123445526 0.025406942 -0.017681256 0.059392855 -0.10989615 -0.091628574 0.17117001
0.10096626 -0.06679401 -0.11414913 0.13001086 0.06131494 0.088040575 -0.015160322 -0.077217616
0.09755112 -0.07104778 -0.11774923 0.04338084 0.0056097806 -0.17607424 -0.044793904 0.038896307
0.16967927 0.09655793 -0.12976973 0.05325024 0.102554515 -0.13847205 0.049422935 -0.12655301
-0.08958321 -0.12464909 -0.044577703 0.04855402 -0.018054828 -0.026379734 -0.08445967 0.17559339
-0.16930296 -0.14842063 0.1029913 -0.03700672 -0.14319235 -0.024819434 -0.16730079 0.1453758
-0.014574021 0.10741024 -0.106981024 -0.17099361 0.13238157 0.119846 -0.048451528 -0.07434771
-0.0879214 -0.0029555708 0.120713666 -0.15696338 -0.076599285 -0.042788744 -0.029404283 -0.07218449
-0.13681002 0.034172684 -0.011205584 -0.090848185 -0.13141382 -0.12924659 -0.06373663 0.17357753
-0.13185376 0.10852112 0.17132987 0.12154402 -0.024535492 -0.044388935 0.049311966 0.1658731
-0.12279442 0.16865616 -0.00872317 0.13533287 0.13766249 -0.10431045 0.13478951 0.1577902
-0.01907602 -0.11976225 0.09421153 -0.001273632 0.100398466 0.044044614 0.113124296 -0.10633485
0.00258255 0.018257722 0.040209815 -0.040368527 0.09985991 0.0637345 -0.11282745 -0.12700072
-0.02530317 0.16217898 0.17433275 0.024737865 0.09990235 0.019381523 -0.06543148 0.063451335
0.1414604 -0.14917506 -0.17676243 -0.048306838 0.07435857 -0.0035051852 0.13896702 0.15968968
-0.14641145 -0.15391435 0.004689932 0.011826366 0.13830252 -0.119595475 0.16759689 -0.16531134
-0.011030421 0.1489742 -0.10610096 -0.051975556 -0.11849612 0.12378113 0.03087078 0.17416386
0.039754108 0.1688175 -0.11478484 0.12390067 -0.16314551 0.07116343 0.1573674 0.003209129
-0.060428254 0.0726151 0.10651578 -0.13142553 0.15974317 0.07240392 -0.051726356 0.014942005
-0.06807563 -0.010206699 -0.10254964 -0.081523955 -0.12904434 -0.01666388 0.024533555 -0.017381564
0.095984146 0.14400332 -0.0969823 -0.038850486 -0.09903559 0.161321 -0.05534201 0.02640219
-0.05260382 -0.13759968 -0.09465482 -0.027803913 0.11331247 -0.11128831 0.1402172 0.08499424
0.09276788 0.0700935 -0.09888622 -0.12412675 0.047524065 -0.020824462 -0.08441419 -0.0337732
0.13053058 -0.064573735 -0.05283314 0.094016805 0.1314814 0.084585175 -0.036189094 0.12522025
