models/hybrid_recommender_20250428_103456/gnn_model.pt (torch, 232480 bytes, 4 tensors)

layers.0.bias f4 [128]
0.0 0.0 0.0 0.0 0.0 0.0 0.0 0.0
0.0 0.0 0.0 0.0 0.0 0.0 0.0 0.0
0.0 0.0 0.0 0.0 0.0 0.0 0.0 0.0
0.0 0.0 0.0 0.0 0.0 0.0 0.0 0.0
0.0 0.0 0.0 0.0 0.0 0.0 0.0 0.0
0.0 0.0 0.0 0.0 0.0 0.0 0.0 0.0
0.0 0.0 0.0 0.0 0.0 0.0 0.0 0.0
0.0 0.0 0.0 0.0 0.0 0.0 0.0 0.0
0.0 0.0 0.0 0.0 0.0 0.0 0.0 0.0
0.0 0.0 0.0 0.0 0.0 0.0 0.0 0.0
0.0 0.0 0.0 0.0 0.0 0.0 0.0 0.0
0.0 0.0 0.0 0.0 0.0 0.0 0.0 0.0
0.0 0.0 0.0 0.0 0.0 0.0 0.0 0.0
0.0 0.0 0.0 0.0 0.0 0.0 0.0 0.0
0.0 0.0 0.0 0.0 0.0 0.0 0.0 0.0
0.0 0.0 0.0 0.0 0.0 0.0 0.0 0.0
00000000: 0000 0000 0000 0000 0000 0000 0000 0000
00000010: 0000 0000 0000 0000 0000 0000 0000 0000
00000020: 0000 0000 0000 0000 0000 0000 0000 0000
00000030: 0000 0000 0000 0000 0000 0000 0000 0000
00000040: 0000 0000 0000 0000 0000 0000 0000 0000
00000050: 0000 0000 0000 0000 0000 0000 0000 0000
00000060: 0000 0000 0000 0000 0000 0000 0000 0000
00000070: 0000 0000 0000 0000 0000 0000 0000 0000
00000080: 0000 0000 0000 0000 0000 0000 0000 0000
00000090: 0000 0000 0000 0000 0000 0000 0000 0000
000000a0: 0000 0000 0000 0000 0000 0000 0000 0000
000000b0: 0000 0000 0000 0000 0000 0000 0000 0000
000000c0: 0000 0000 0000 0000 0000 0000 0000 0000
000000d0: 0000 0000 0000 0000 0000 0000 0000 0000
000000e0: 0000 0000 0000 0000 0000 0000 0000 0000
000000f0: 0000 0000 0000 0000 0000 0000 0000 0000
00000100: 0000 0000 0000 0000 0000 0000 0000 0000
00000110: 0000 0000 0000 0000 0000 0000 0000 0000
00000120: 0000 0000 0000 0000 0000 0000 0000 0000
00000130: 0000 0000 0000 0000 0000 0000 0000 0000
00000140: 0000 0000 0000 0000 0000 0000 0000 0000
00000150: 0000 0000 0000 0000 0000 0000 0000 0000
00000160: 0000 0000 0000 0000 0000 0000 0000 0000
00000170: 0000 0000 0000 0000 0000 0000 0000 0000
00000180: 0000 0000 0000 0000 0000 0000 0000 0000
00000190: 0000 0000 0000 0000 0000 0000 0000 0000
000001a0: 0000 0000 0000 0000 0000 0000 0000 0000
000001b0: 0000 0000 0000 0000 0000 0000 0000 0000
000001c0: 0000 0000 0000 0000 0000 0000 0000 0000
000001d0: 0000 0000 0000 0000 0000 0000 0000 0000
000001e0: 0000 0000 0000 0000 0000 0000 0000 0000
000001f0: 0000 0000 0000 0000 0000 0000 0000 0000

layers.0.lin.weight f4 [128, 384]
0.06899517 -0.10438525 0.052305542 -0.10103757 0.075750224 0.090766914 0.014185697 -0.09173817
-0.0421279 -0.0011556223 0.061220728 0.09968204 -0.099896565 -0.08571845 -0.105261765 -0.024872243
0.055022262 -0.046099268 0.010663614 -0.08480841 0.05349145 0.0739019 0.027186684 -0.02292189
0.038121603 -0.061214488 0.09509463 0.010364145 0.030965604 0.0006646365 0.008901343 -0.08861946
0.025190674 -0.10550112 -0.026270255 0.10355664 -0.031199016 0.045763187 0.046729274 -0.06409001
-0.079512194 -0.093941264 -0.073646605 0.012360938 0.06802332 0.10123708 0.052299656 -0.10437718
0.10412785 0.10814486 0.0046446025 -0.10631485 0.05555252 0.06405968 -0.09782967 -0.07488234
0.10672685 -0.081212796 0.05113917 -0.013393156 -0.06500752 0.09800912 -0.0368174 -0.02962368
-0.02733881 -0.00084376335 0.10246656 -0.05896148 -0.0038444623 -0.10078417 0.1067495 0.08642604
0.0702414 0.10709991 0.10496505 -0.035711586 0.09093196 0.040759005 0.07759971 -0.05716548
0.008160107 -0.0057902187 -0.10599632 -0.10039615 -0.10212681 0.012330845 0.10675318 -0.062356766
0.03426782 -0.01747287 0.1050623 -0.054071315 -0.03471329 0.09842908 -2.7358532e-05 0.09177365
0.038353883 0.0712026 -0.0806419 0.060636096 -0.0845901 0.039602213 -0.10111656 -0.073492646
0.024942614 -0.08279313 0.01749622 -0.021299556 -0.08909044 0.020524152 0.062672 -0.03558951
-0.03908561 0.090046115 0.09367769 0.09864808 -0.019463845 -0.07881087 0.09546081 -0.04837614
-0.034373403 -0.05263722 0.04498779 -0.08545135 -0.09222841 -0.065988444 -0.008235998 0.07214182
0.048349313 -0.0014122874 0.056357585 0.045255236 -0.08893502 -0.04875906 0.07249836 0.019138105
-0.031652942 -0.040733628 -0.0018606484 0.07795704 0.01111383 0.08791713 -0.08076806 0.015905753
-0.058734484 0.1048728 0.023800604 0.10696297 -0.059038315 -0.05314648 -0.07935206 -0.08314263
-0.041298345 0.016241364 0.00064655393 -0.0220372 0.067842074 0.08572819 0.08854794 -0.045606412
-0.03232523 0.06298875 -0.09341004 -0.082319826 0.07503892 0.07623268 0.019870453 0.030051835
-0.021760218 0.052256428 -0.09968108 0.06278745 -0.01517427 -0.0778889 0.1017411 0.08271306
-0.033888042 -0.09432223 -0.09026833 0.0041126534 -0.0145404935 -0.07891793 0.017723225 -0.08229637
0.052331932 0.056529723 -0.043586813 -0.064616114 -0.10172321 0.05391165 0.02771192 -0.03671354
-0.026429795 -0.07291829 -0.09710173 0.065528594 -0.064226836 -0.017198272 -0.014224209 -0.04061214
0.020902596 0.07305726 0.0982685 -0.06715268 0.073838 0.06774744 -0.06506973 0.052094363
-0.018559895 0.08543103 -0.07084587 0.030818604 -0.08592953 -0.10639233 0.07195283 0.07797406
0.08149239 -0.051963024 -0.06832625 0.05453398 -0.08697983 -0.05953648 -0.00497286 0.077439986
0.00376378 -0.10337714 -0.05900156 0.06747306 -0.06868233 -0.066183604 0.046267204 -0.09108837
-0.03310956 -0.018614441 -0.08125838 -0.048108544 -0.051795222 0.0057291836 -0.035270862 0.107830174
-0.020759746 0.024261527 0.07777675 0.012339555 -0.019754201 -0.0057632998 -0.044925205 -0.038061954
-0.050847933 -0.008199856 0.03313496 -0.010254115 -0.0045732334 -0.005858943 -0.09013375 0.06782576
00000000: 574d 8d3d efc7 d5bd 563e 563d c9ec cebd
00000010: ef22 9b3d 01e4 b93d 206b 683c 39e1 bbbd
00000020: 4e8e 2cbd 4078 97ba 96c2 7a3d 1926 cc3d
00000030: 9296 ccbd 288d afbd 7b93 d7bd e0c0 cbbc
00000040: 065f 613d 96d2 3cbd 70b6 2e3c 08b0 adbd
00000050: da19 5b3d e159 973d 9cb6 de3c b0c6 bbbc
00000060: 6625 1c3d 0bbc 7abd f9c0 c23d 60ce 293c
00000070: 94ab fd3c 003b 2e3a f0d6 113c 1f7e b5bd
00000080: ac5c ce3c f910 d8bd b834 d7bc 8115 d43d
00000090: 1495 ffbc 2e72 3b3d 3267 3f3d a041 83bd
000000a0: 4ad7 a2bd 4764 c0bd 08d4 96bd 8885 4a3c
000000b0: cf4f 8b3d 6355 cf3d 2a38 563d b4c3 d5bd
000000c0: fb40 d53d 0d7b dd3d c031 983b 9abb d9bd
000000d0: 0a8b 633d b931 833d ec5a c8bd ea5b 99bd
000000e0: 9b93 da3d e552 a6bd 4e77 513d f86e 5bbc
000000f0: aa22 85bd 01b9 c83d d8cd 16bd 5cad f2bc
00000100: a4f5 dfbc 0030 5dba fdd9 d13d 9881 71bd
00000110: 60f3 7bbb ee67 cebd 7b9f da3d 2300 b13d
00000120: b9da 8f3d 3357 db3d ebf7 d63d 5046 12bd
00000130: 893a ba3d eaf2 263d 99ec 9e3d 5a26 6abd
00000140: f8b1 053c e0bb bdbb 9914 d9bd 7f9c cdbd
00000150: dc27 d1bd 5007 4a3c 69a1 da3d cf69 7fbd
00000160: 6a5c 0c3d 4423 8fbc e72a d73d e279 5dbd
00000170: 862f 0ebd 2f95 c93d 0080 e5b7 d3f3 bb3d
00000180: f618 1d3d abd2 913d 9527 a5bd 8e5d 783d
00000190: 933d adbd ee35 223d 3316 cfbd 5083 96bd
000001a0: 7454 cc3c 728f a9bd 3c54 8f3c 687c aebc
000001b0: 0c75 b6bd 4422 a83c 2d5a 803d 4ec6 11bd
000001c0: 3c18 20bd 196a b83d 17da bf3d 0108 ca3d
000001d0: a472 9fbc 9867 a1bd f580 c33d 0f26 46bd
000001e0: 20cb 0cbd 209a 57bd 1e45 383d 1e01 afbd
000001f0: 40e2 bcbd f324 87bd 48f0 06bc 17bf 933d
00000200: ee09 463d 801c b9ba 36d7 663d 8e5d 393d
00000210: 9023 b6bd 95b7 47bd 057a 943d 84c7 9c3c
00000220: 84a6 01bd 4ed8 26bd 00e1 f3ba f1a7 9f3d
00000230: c816 363c e50d b43d ba69 a5bd c84c 823c
00000240: 9293 70bd 8dc7 d63d 7cf9 c23c 670f db3d
00000250: 29d2 71bd 20b0 59bd 5583 a2bd af46 aabd
00000260: 7428 29bd 9c0c 853c 807d 293a 5c87 b4bc
00000270: c9f0 8a3d 4392 af3d 9f58 b53d cacd 3abd
00000280: 7667 04bd 3f00 813d c34d bfbd 4c97 a8bd
00000290: 01ae 993d e11f 9c3d 5cc7 a23c 442f f63c
000002a0: 7c42 b2bc d60a 563d 9825 ccbd b596 803d
000002b0: 809d 78bc 3784 9fbd a35d d03d 7765 a93d
000002c0: 30ce 0abd 032c c1bd 9ade b8bd 70c3 863b
000002d0: 403b 6ebc b99f a1bd 4c30 913c 008b a8bd
000002e0: 025a 563d b68b 673d 1688 32bd 7455 84bd
000002f0: 4254 d0bd 76d2 5c3d 1c04 e33c f060 16bd
00000300: 4c83 d8bc 2f56 95bd 46dd c6bd db33 863d
00000310: 5c89 83bd 64e3 8cbc a80c 69bc ea58 26bd
00000320: ec3b ab3c 0b9f 953d ff40 c93d 5887 89bd
00000330: 6138 973d 2bbf 8a3d 4743 85bd e660 553d
00000340: ec0a 98bc 77f6 ae3d a417 91bd 4c77 fc3c
00000350: d2fb afbd 39e4 d9bd 015c 933d ddb0 9f3d
00000360: 7be5 a63d 2ed7 54bd a2ee 8bbd 065f 5f3d
00000370: 7b22 b2bd 86dc 73bd 60f3 a2bb db98 9e3d
00000380: c0a9 763b 65b7 d3bd 9fab 71bd 512f 8a3d
00000390: 52a9 8cbd 458b 87bd ae82 3d3d 8a8c babd
000003a0: e49d 07bd 507d 98bc cb6a a6bd 770d 45bd
000003b0: 3a27 54bd e0bb bb3b 2e78 10bd 11d6 dc3d
000003c0: 5810 aabc 1cc0 c63c 6b49 9f3d d82b 4a3c
000003d0: 90d3 a1bc 10da bcbb 7e03 38bd dae6 1bbd
000003e0: ec45 50bd b058 06bc 86b8 073d e000 28bc
000003f0: 10db 95bb 60fc bfbb 0b98 b8bd 3be8 8a3d

layers.1.bias f4 [64]
0.0 0.0 0.0 0.0 0.0 0.0 0.0 0.0
0.0 0.0 0.0 0.0 0.0 0.0 0.0 0.0
0.0 0.0 0.0 0.0 0.0 0.0 0.0 0.0
0.0 0.0 0.0 0.0 0.0 0.0 0.0 0.0
0.0 0.0 0.0 0.0 0.0 0.0 0.0 0.0
0.0 0.0 0.0 0.0 0.0 0.0 0.0 0.0
0.0 0.0 0.0 0.0 0.0 0.0 0.0 0.0
0.0 0.0 0.0 0.0 0.0 0.0 0.0 0.0
00000000: 0000 0000 0000 0000 0000 0000 0000 0000
00000010: 0000 0000 0000 0000 0000 0000 0000 0000
00000020: 0000 0000 0000 0000 0000 0000 0000 0000
00000030: 0000 0000 0000 0000 0000 0000 0000 0000
00000040: 0000 0000 0000 0000 0000 0000 0000 0000
00000050: 0000 0000 0000 0000 0000 0000 0000 0000
00000060: 0000 0000 0000 0000 0000 0000 0000 0000
00000070: 0000 0000 0000 0000 0000 0000 0000 0000
00000080: 0000 0000 0000 0000 0000 0000 0000 0000
00000090: 0000 0000 0000 0000 0000 0000 0000 0000
000000a0: 0000 0000 0000 0000 0000 0000 0000 0000
000000b0: 0000 0000 0000 0000 0000 0000 0000 0000
000000c0: 0000 0000 0000 0000 0000 0000 0000 0000
000000d0: 0000 0000 0000 0000 0000 0000 0000 0000
000000e0: 0000 0000 0000 0000 0000 0000 0000 0000
000000f0: 0000 0000 0000 0000 0000 0000 0000 0000

layers.1.lin.weight f4 [64, 128]
0.17401434 -0.036928773 -0.028262079 0.059697464 -0.010443836 -0.13137455 0.06740531 -0.1035979
-0.14272243 0.16510807 0.15991186 -0.15799977 0.11703901 0.09572001 0.0821958 -0.17672954
-0.051058456 -0.13218461 0.017738849 -0.09470551 0.10456847 0.14491759 0.10889067 0.10468106
0.15378277 0.12178443 0.046428844 -0.05103226 0.006851554 0.0037121922 0.094295576 -0.17644067
0.07626383 -0.0015667081 -0.055122703 -0.17497934 -0.11350852 0.06792262 -0.027994394 0.09988414
0.1307991 0.14941363 0.061706245 -0.060699068 0.06412198 -0.049013764 -0.12448023 0.16625021
-0.13140863 -0.106495075 -0.105590835 0.06763041 0.077871874 0.011791065 0.061066166 0.018497676
0.16007705 0.005436644 0.095741704 -0.09738891 0.017613024 0.0574207 -0.1606888 0.11858116
-0.13664229 0.15220825 0.044348747 -0.03058055 -0.09102546 0.16562934 0.12588336 0.07989727
-0.045025453 0.09083317 -0.083474636 0.10352807 -0.0704835 0.013186842 -0.034334376 0.17614527
0.15625443 0.07387613 0.033434972 0.12889023 -0.13684866 -0.16957006 -0.14784417 -0.00796479
0.013089195 -0.032638416 0.15171792 -0.14178233 -0.09193888 -0.15763438 0.06881918 0.0143028945
-0.09073993 0.12954427 0.1282169 0.14902695 0.15475897 0.024949253 -0.040550306 -0.17538856
-0.13755092 0.030019403 -0.1075365 -0.11385153 0.10310437 0.16820286 0.15416922 -0.06291699
-0.06420906 0.11559807 -0.047978178 -0.11316534 0.14498608 0.17187382 0.042718753 0.111775294
-0.047991976 -0.025972262 -0.04435429 -0.12656161 -0.10473233 -0.13666368 -0.048043385 0.002115056
-0.14616674 0.08306201 0.03779383 -0.06211921 0.079891846 -0.027290046 0.01399231 0.15595378
0.16292508 0.0438464 0.088366315 -0.15742391 -0.0513746 -0.09597482 -0.101729386 -0.16791561
-0.050119683 0.11492254 -0.04838513 -0.0945814 -0.15015733 -0.094987676 0.09932463 -0.044645876
-0.15612318 0.12962253 0.11071889 0.021580935 0.049614653 -0.089748554 0.011256143 0.17073594
-0.01626712 -0.140084 0.16397114 -0.16391008 -0.029098392 -0.15026367 0.048164517 -0.09389563
-0.0038529634 0.035364285 0.08756091 -0.12297462 -0.04852055 0.12107445 -0.12785839 0.07678671
-0.037056208 0.03398031 0.14082493 0.0119621605 -0.075697444 -0.07167137 0.0847926 -0.17231259
0.105236724 -0.083715506 0.13960649 -0.122865014 -0.11777566 -0.119695045 -0.039734304 0.031197771
0.06425983 0.09625892 0.048217252 0.16077624 -0.17199926 -0.07921479 -0.0029626042 -0.03469187
0.10719629 0.022970498 0.0025709718 -0.08006373 0.011215016 -0.0713665 0.11326577 -0.13944322
-0.02542016 -0.0874349 0.06043215 0.050859407 0.16127945 0.12509193 0.03991507 -0.04820618
0.09845327 -0.05824981 0.10438688 -0.13339296 -0.028390259 -0.09551607 0.114959106 -0.123869464
-0.08360244 -0.030847088 -0.10987302 0.17001073 -0.008766592 -0.035948694 0.13665451 -0.03645639
-0.102863446 -0.064169526 -0.035584703 0.019946262 0.14274828 0.08257832 -0.044916376 0.04792811
0.17167084 0.06559597 0.12703769 -0.010396823 -0.15561095 0.12447314 0.16913055 0.00810577
0.15492947 0.06831366 -0.15458484 -0.060197227 -0.114315 -0.029180437 -0.09806642 -0.064391635
00000000: d130 323e a042 17bd e085 e7bc 5485 743d
00000010: a01c 2bbc 0d87 06be cc0b 8a3d 232b d4bd
00000020: d425 12be 1712 293e efbf 233e b1ca 21be
00000030: 26b2 ef3d da08 c43d 4656 a83d 97f8 34be
00000040: ac22 51bd 675b 07be 1051 913c f6f4 c1bd
00000050: fe27 d63d 4765 143e 1202 df3d 0663 d63d
00000060: 3b79 1d3e 1e6a f93d 2c2c 3e3d 3407 51bd
00000070: 0083 e03b 4048 733b 0a1e c13d ddac 34be
00000080: 3630 9c3d 005a cdba 58c8 61bd c92d 33be
00000090: 2877 e8bd 041b 8b3d 8054 e5bc 0e90 cc3d
000000a0: 33f0 053e e3ff 183e b0bf 7c3d 969f 78bd
000000b0: 6252 833d a8c2 48bd 7eef febd 7f3d 2a3e
000000c0: fc8f 06be 171a dabd 0240 d8bd d081 8a3d
000000d0: 4a7b 9f3d 502f 413c 8420 7a3d 7088 973c
000000e0: 3deb 233e e025 b23b 3a14 c43d d673 c7bd
000000f0: 3049 903c f831 6b3d 9b8b 24be aeda f23d
00000100: f5eb 0bbe 7bdc 1b3e 08a7 353d 1084 fabc
00000110: 8e6b babd bd9a 293e 91e7 003e 2ea1 a33d
00000120: 9c6c 38bd be06 ba3d c0f4 aabd 8606 d43d
00000130: a759 90bd a00d 583c 34a2 0cbd 6d5f 343e
00000140: 2901 203e 5e4c 973d 1cf3 083d cdfb 033e
00000150: 0e22 0cbe c6a3 2dbe 7664 17be c07e 02bc
00000160: 1074 563c dcaf 05bd f15b 1b3e 632f 11be
00000170: 744a bcbd e86a 21be 12f1 8c3d b056 6a3c
00000180: dbd5 b9bd 41a7 043e 4b4b 033e 859a 183e
00000190: 2379 1e3e 6062 cc3c 1418 26bd 0f99 33be
000001a0: 26da 0cbe 40eb f53c 193c dcbd fe2a e9bd
000001b0: 6228 d33d 5f3d 2c3e 89de 1d3e 9fda 80bd
000001c0: 0a80 83bd aebe ec3d c484 44bd 3bc3 e7bd
000001d0: 3b77 143e b1ff 2f3e dcf9 2e3d 72ea e43d
000001e0: 3c93 44bd c8c3 d4bc d8ac 35bd 5e99 01be
000001f0: e77d d6bd 90f1 0bbe 24c9 44bd c09c 0a3b
00000200: bcac 15be 6a1c aa3d b4cd 1a3d b670 7ebd
00000210: 569e a33d 608f dfbc 0040 653c 59b2 1f3e
00000220: d5d5 263e 4898 333d 66f9 b43d bc33 21be
00000230: 2c6e 52bd 728e c4bd 7f57 d0bd 12f2 2bbe
00000240: 4c4a 4dbd 825c eb3d 7c2f 46bd e5b3 c1bd
00000250: d8c2 19be e688 c2bd b66a cb3d 98de 36bd
00000260: c1de 1fbe c5bb 043e 96c0 e23d 80ca b03c
00000270: bc38 4b3d 17ce b7bd b06b 383c 67d5 2e3e
00000280: a042 85bc 2e72 0fbe 0de8 273e 0bd8 27be
00000290: c05f eebc b8de 19be 2848 453d 5a4c c0bd
000002a0: 0082 7cbb 24da 103d 2253 b33d 1eda fbbd
000002b0: 7cbd 46bd e2f5 f73d 4fed 02be 5a42 9d3d
000002c0: 40c8 17bd f02e 0b3d 6934 103e f0fc 433c
000002d0: 4307 9bbd 70c8 92bd bea7 ad3d b672 30be
000002e0: 5a86 d73d 0973 abbd 01f5 0e3e a7a0 fbbd
000002f0: 5d34 f1bd ad22 f5bd 70c0 22bd 7892 ff3c
00000300: a89a 833d 6623 c53d 747f 453d 87a2 243e
00000310: 9320 30be 5d3b a2bd 4028 42bb 1019 0ebd
00000320: ba89 db3d a02c bc3c c07d 283b 74f8 a3bd
00000330: 30bf 373c 9928 92bd e2f7 e73d 34ca 0ebe
00000340: f03d d0bc 1211 b3bd b487 773d f451 503d
00000350: 7126 253e 1918 003e fc7d 233d d873 45bd
00000360: dea1 c93d 5a97 6ebd cac8 d53d 2a98 08be
00000370: b092 e8bc ee9d c3bd ae6f eb3d 46af fdbd
00000380: c237 abbd 08b3 fcbc 1b05 e1bd 4b17 2e3e
00000390: c0a1 0fbc f03e 13bd 29ef 0b3e 4c53 15bd
000003a0: 12aa d2bd 506b 83bd 44c1 11bd 5866 a33c
000003b0: 9b2c 123e d21e a93d 3cfa 37bd 4450 443d
000003c0: 7bca 2f3e 2e57 863d 2b16 023e 7057 2abc
000003d0: 7a58 1fbe c6eb fe3d 8f30 2d3e 10ce 043c
000003e0: d5a5 1e3e 08e8 8b3d 7d4b 1ebe 5e91 76bd
000003f0: fc1d eabd d00b efbc 0cd7 c8bd c3df 83bd
