models/hybrid_recommender_20250428_111737/gnn_model.pt (torch, 232480 bytes, 4 tensors)

layers.0.bias f4 [128]
00000000: 0000 0000 0000 0000 0000 0000 0000 0000
00000010: 0000 0000 0000 0000 0000 0000 0000 0000
00000020: 0000 0000 0000 0000 0000 0000 0000 0000
00000030: 0000 0000 0000 0000 0000 0000 0000 0000
00000040: 0000 0000 0000 0000 0000 0000 0000 0000
00000050: 0000 0000 0000 0000 0000 0000 0000 0000
00000060: 0000 0000 0000 0000 0000 0000 0000 0000
00000070: 0000 0000 0000 0000 0000 0000 0000 0000
00000080: 0000 0000 0000 0000 0000 0000 0000 0000
00000090: 0000 0000 0000 0000 0000 0000 0000 0000
000000a0: 0000 0000 0000 0000 0000 0000 0000 0000
000000b0: 0000 0000 0000 0000 0000 0000 0000 0000
000000c0: 0000 0000 0000 0000 0000 0000 0000 0000
000000d0: 0000 0000 0000 0000 0000 0000 0000 0000
000000e0: 0000 0000 0000 0000 0000 0000 0000 0000
000000f0: 0000 0000 0000 0000 0000 0000 0000 0000
00000100: 0000 0000 0000 0000 0000 0000 0000 0000
00000110: 0000 0000 0000 0000 0000 0000 0000 0000
00000120: 0000 0000 0000 0000 0000 0000 0000 0000
00000130: 0000 0000 0000 0000 0000 0000 0000 0000
00000140: 0000 0000 0000 0000 0000 0000 0000 0000
00000150: 0000 0000 0000 0000 0000 0000 0000 0000
00000160: 0000 0000 0000 0000 0000 0000 0000 0000
00000170: 0000 0000 0000 0000 0000 0000 0000 0000
00000180: 0000 0000 0000 0000 0000 0000 0000 0000
00000190: 0000 0000 0000 0000 0000 0000 0000 0000
000001a0: 0000 0000 0000 0000 0000 0000 0000 0000
000001b0: 0000 0000 0000 0000 0000 0000 0000 0000
000001c0: 0000 0000 0000 0000 0000 0000 0000 0000
000001d0: 0000 0000 0000 0000 0000 0000 0000 0000
000001e0: 0000 0000 0000 0000 0000 0000 0000 0000
000001f0: 0000 0000 0000 0000 0000 0000 0000 0000
0.0 0.0 0.0 0.0 0.0 0.0 0.0 0.0
0.0 0.0 0.0 0.0 0.0 0.0 0.0 0.0
0.0 0.0 0.0 0.0 0.0 0.0 0.0 0.0
0.0 0.0 0.0 0.0 0.0 0.0 0.0 0.0
0.0 0.0 0.0 0.0 0.0 0.0 0.0 0.0
0.0 0.0 0.0 0.0 0.0 0.0 0.0 0.0
0.0 0.0 0.0 0.0 0.0 0.0 0.0 0.0
0.0 0.0 0.0 0.0 0.0 0.0 0.0 0.0
0.0 0.0 0.0 0.0 0.0 0.0 0.0 0.0
0.0 0.0 0.0 0.0 0.0 0.0 0.0 0.0
0.0 0.0 0.0 0.0 0.0 0.0 0.0 0.0
0.0 0.0 0.0 0.0 0.0 0.0 0.0 0.0
0.0 0.0 0.0 0.0 0.0 0.0 0.0 0.0
0.0 0.0 0.0 0.0 0.0 0.0 0.0 0.0
0.0 0.0 0.0 0.0 0.0 0.0 0.0 0.0
0.0 0.0 0.0 0.0 0.0 0.0 0.0 0.0

layers.0.lin.weight f4 [128, 384]
00000000: 3d1b c53d 0cc8 35bd 1266 9dbd a0d8 25bc
00000010: 6070 3dbb f6c8 95bd 32a8 183d 4de0 c63d
00000020: dfe3 76bd 0e39 783d 7fa7 dabd a33f 92bd
00000030: c9b5 833d 000b f439 0003 6b3c df95 cdbd
00000040: 1898 86bc 2cb7 81bc 1488 55bd 3450 a7bd
00000050: f919 893d dc99 05bd 2454 0fbd c048 fdbb
00000060: c20f d7bd 635b 68bd 6a58 1b3d 666f 443d
00000070: 2016 29bd 1407 813c a794 c03d dc8b bbbd
00000080: 000a 93bb 2540 c33d 7e7e 643d d927 d73d
00000090: 78a7 a6bc 5859 3a3c fc04 34bd 82f3 633d
000000a0: 2214 073d 94ef d53c 1eee 89bd 2d36 b93d
000000b0: ade3 4ebd 2cec 31bd 106b 9ebd 2cbf cabc
000000c0: 3e98 1dbd 0405 953c 181b c2bd abdd 9abd
000000d0: 22cc 1e3d 94ab a23c a132 d6bd 5af8 91bd
000000e0: 6e5e b1bd b6de 06bd aeb3 503d 68c0 c9bd
000000f0: 0ed5 9bbd d26a 373d 601c c9bd 2e0a 58bd
00000100: f498 87bc 7f8d d5bd 48a2 4a3c 4a5a 6f3d
00000110: f3c9 a83d 9091 423c c376 a1bd d061 93bb
00000120: 7be2 c5bd a181 a03d 2be7 863d 36b2 583d
00000130: e14d acbd 601b 2abc 9cbc d9bd 3c81 d03c
00000140: 3bd1 8c3d ba9c 1abd 2003 d5bc 82ff 4e3d
00000150: 8229 89bd 809d 83bb 484e bdbd b46a 84bc
00000160: 2469 93bc 2c49 80bd 0c37 93bc 22e6 80bd
00000170: 242c af3c e083 b53b 48b5 8abc 261e 793d
00000180: 5601 663d 9273 20bd 8601 3d3d 8c41 d23c
00000190: b0e3 aabd 90e1 773c 4e70 473d 9252 2c3d
000001a0: decb 5d3d d2f8 4e3d f0a0 593c 3eb1 4b3d
000001b0: 328b c3bd 42d4 45bd bb15 acbd b523 42bd
000001c0: a0c1 60bb 175c dbbd 3892 493c 7316 52bd
000001d0: e3f2 d03d 1f06 943d 2e7a 483d 791e 89bd
000001e0: d0e0 f1bb 64a1 92bc 205a 17bd e026 45bb
000001f0: 9ad5 7b3d b3b4 5cbd 6be0 d43d 9a29 c3bd
00000200: f177 933d 9f5b 57bd c2fa 253d a44d 88bd
00000210: 657b 863d bd33 9c3d 7072 19bd 46bf 523d
00000220: e019 95bb 1ff3 ac3d 72f7 bebd 1219 03bd
00000230: b8cb 773c ae81 15bd 2d59 d83d 6a3b 9bbd
00000240: 2c0f c9bd e035 a8bd 202a 7fbc ce45 95bd
00000250: de78 3d3d d0a6 cabd 4f7d 9fbd e6a2 77bd
00000260: afd0 943d 81c8 5bbd 1e4c 3bbd a851 103c
00000270: f0d7 b83b b09c 9cbd a750 4bbd c01d 343c
00000280: f87c 9cbd e04d f5bc 9895 3bbd 5a0b 103d
00000290: dd6d dbbd f2eb 39bd dac7 633d f482 bbbd
000002a0: f015 e53b 6dfe b6bd 98a1 91bd aa41 d5bd
000002b0: 5d86 af3d efbd d33d ecaf ee3c 5e62 1fbd
000002c0: 641e b23c aa0c 1a3d 3575 8f3d 0c2c fa3c
000002d0: f0b9 453c 743e adbc 8645 6ebd d883 61bc
000002e0: fa8c 363d 8c44 e33c 70e8 b6bd 9ade 60bd
000002f0: f95b bf3d 41d7 d4bd b6af d5bd e50f d1bd
00000300: 4b13 c13d 4b5c abbd 60be 33bd dd68 9abd
00000310: 525b 1a3d 61dd 8a3d e315 863d 3011 773c
00000320: 68ad 38bd 24df 0dbd 818c 853d 6780 cfbd
00000330: 641a fc3c b691 0a3d 7e81 53bd 3cc8 9abd
00000340: 81a5 943d 60e2 babd f368 6bbd d0ec 163c
00000350: 1777 af3d 8ef6 31bd a281 84bd 8edd 553d
00000360: 5ec6 2fbd ed58 933d 373f be3d a940 8dbd
00000370: 4169 963d 4864 bbbd cacf 59bd b539 dbbd
00000380: 4395 c33d 4b0d b73d db54 cc3d da3c c9bd
00000390: feb5 d8bd f42e 8c3c e420 6bbd 4421 c3bc
000003a0: c623 89bd 18f4 54bc 79dd af3d a4cb b33c
000003b0: 8087 efbb 9035 dabb fc4a aa3c 8079 e93b
000003c0: 4127 61bd cf8b 9f3d e1ce d63d 8c6d fb3c
000003d0: 4066 f03b 7668 023d d714 ab3d 7700 46bd
000003e0: e004 58bb 809e 67bd 3443 afbc 2b54 8cbd
000003f0: c26a 2fbd 4050 82bb 8eae 37bd f0a5 44bc
0.09624336 -0.044380233 -0.07685484 -0.010122448 -0.0028906092 -0.07313721 0.03726978 0.09710751
-0.06027591 0.060601287 -0.106764786 -0.07141044 0.06431157 0.00046547502 0.014343977 -0.10038351
-0.016429946 -0.015834413 -0.052131727 -0.081695944 0.06694407 -0.032617435 -0.034992352 -0.0077296197
-0.105010524 -0.05672778 0.037926115 0.0479578 -0.041280866 0.015750445 0.09403353 -0.091575354
-0.004487276 0.09533719 0.055784695 0.10505647 -0.020343527 0.01137384 -0.043950066 0.05565215
0.032978185 0.026115216 -0.067348704 0.09043536 -0.050510097 -0.04343812 -0.07735264 -0.024749361
-0.038475268 0.018190868 -0.09477824 -0.07561811 0.038768895 0.019857205 -0.104588754 -0.071274474
-0.08660589 -0.032927237 0.050952606 -0.09851152 -0.07608996 0.044779606 -0.09819865 -0.052744083
-0.016552426 -0.10427379 0.012367792 0.058435716 0.08241644 0.011875525 -0.0788398 -0.004497744
-0.09662338 0.07837225 0.065870605 0.05290433 -0.08413292 -0.010382503 -0.106316775 0.025452249
0.06875845 -0.037747122 -0.026002467 0.05053664 -0.0669737 -0.004016578 -0.092434466 -0.016164161
-0.01799447 -0.062639564 -0.017970584 -0.06293894 0.021383353 0.0055394024 -0.016932145 0.060819767
0.056153618 -0.039172716 0.04614403 0.02566602 -0.08344209 0.015129462 0.048691086 0.042070933
0.0541495 0.050530262 0.013282999 0.04972958 -0.09548034 -0.048298128 -0.08402582 -0.047397334
-0.0034295097 -0.10710924 0.012302928 -0.05129094 0.10202577 0.0722773 0.048944645 -0.06695265
-0.007381536 -0.017899223 -0.036951184 -0.0030082986 0.061483003 -0.053883266 0.10394367 -0.09529419
0.072006114 -0.05257761 0.040522344 -0.06655434 0.065665044 0.07627056 -0.03746265 0.051451944
-0.0045502037 0.08444809 -0.0932454 -0.03200633 0.015124254 -0.036500625 0.10563884 -0.07579692
-0.09817347 -0.08213401 -0.015574008 -0.07288705 0.046257846 -0.09895098 -0.077875726 -0.060458086
0.07266366 -0.053658012 -0.045726888 0.008808531 0.005640976 -0.07647073 -0.049637463 0.010993421
-0.076410234 -0.02994436 -0.04579696 0.035167076 -0.10714314 -0.04539103 0.055610515 -0.09155837
0.0069911405 -0.089352466 -0.071109 -0.10412915 0.0857055 0.10338961 0.02913662 -0.03891217
0.021743007 0.037609734 0.07004777 0.030538581 0.012068257 -0.021147944 -0.05817177 -0.013764344
0.04456804 0.027742647 -0.08931053 -0.05489979 0.09343714 -0.10392619 -0.10433905 -0.1020811
0.09427508 -0.08367213 -0.043882728 -0.07539532 0.037684746 0.06780506 0.06547143 0.015079781
-0.045087248 -0.03463663 0.065209396 -0.10131913 0.030774303 0.033830367 -0.051637165 -0.07557723
0.0725813 -0.09125209 -0.057473134 0.009211734 0.085676365 -0.043448023 -0.06470038 0.052213244
-0.042913787 0.071946956 0.09289401 -0.068970986 0.07344294 -0.091499865 -0.05317668 -0.10704366
0.09549954 0.08938082 0.099771224 -0.0982606 -0.10581587 0.017112233 -0.057404414 -0.023819573
-0.06696276 -0.01299765 0.085871644 0.02194769 -0.007309854 -0.006659217 0.020787708 0.0071250796
-0.054969076 0.07790338 0.10488678 0.030691884 0.007336408 0.031837903 0.08353584 -0.048340287
-0.003296189 -0.05654764 -0.02139435 -0.06851991 -0.04282642 -0.0039768517 -0.044844203 -0.012002453

layers.1.bias f4 [64]
00000000: 0000 0000 0000 0000 0000 0000 0000 0000
00000010: 0000 0000 0000 0000 0000 0000 0000 0000
00000020: 0000 0000 0000 0000 0000 0000 0000 0000
00000030: 0000 0000 0000 0000 0000 0000 0000 0000
00000040: 0000 0000 0000 0000 0000 0000 0000 0000
00000050: 0000 0000 0000 0000 0000 0000 0000 0000
00000060: 0000 0000 0000 0000 0000 0000 0000 0000
00000070: 0000 0000 0000 0000 0000 0000 0000 0000
00000080: 0000 0000 0000 0000 0000 0000 0000 0000
00000090: 0000 0000 0000 0000 0000 0000 0000 0000
000000a0: 0000 0000 0000 0000 0000 0000 0000 0000
000000b0: 0000 0000 0000 0000 0000 0000 0000 0000
000000c0: 0000 0000 0000 0000 0000 0000 0000 0000
000000d0: 0000 0000 0000 0000 0000 0000 0000 0000
000000e0: 0000 0000 0000 0000 0000 0000 0000 0000
000000f0: 0000 0000 0000 0000 0000 0000 0000 0000
0.0 0.0 0.0 0.0 0.0 0.0 0.0 0.0
0.0 0.0 0.0 0.0 0.0 0.0 0.0 0.0
0.0 0.0 0.0 0.0 0.0 0.0 0.0 0.0
0.0 0.0 0.0 0.0 0.0 0.0 0.0 0.0
0.0 0.0 0.0 0.0 0.0 0.0 0.0 0.0
0.0 0.0 0.0 0.0 0.0 0.0 0.0 0.0
0.0 0.0 0.0 0.0 0.0 0.0 0.0 0.0
0.0 0.0 0.0 0.0 0.0 0.0 0.0 0.0

layers.1.lin.weight f4 [64, 128]
00000000: 3f34 05be f6b6 bb3d 189f ac3c 25b9 183e
00000010: 04fb acbd a83d dbbc c688 fd3d 1aee 7cbd
00000020: f751 2e3e 88e0 77bd 7dc6 0a3e c364 8bbd
00000030: e397 203e 50c6 5c3d e652 d13d ee9f da3d
00000040: 824f af3d e372 013e 4445 82bd 0d57 0dbe
00000050: b51d 1bbe c641 20be 8e52 5bbd 089b d43c
00000060: 31ee bcbd b60f f73d 2841 a9bc 506d 30be
00000070: e41b 4a3d 82ab c73d fe9c debd 9008 b5bd
00000080: c121 23be cd35 c5bd 40f9 f1bc 5081 e43c
00000090: 8a14 e83d 6067 a1bc 7a49 a23d 6039 083c
000000a0: 3c89 4fbd 20de d53c 8853 08be de1e de3d
000000b0: 2667 00be 569d 8e3d e248 f53d 2bbe 073e
000000c0: f314 0f3e 732c 25be 1289 0fbe c882 6abd
000000d0: 2734 e7bd de51 9e3d 880b c0bd 9143 1c3e
000000e0: 80ce fdbb 4f38 debd 9606 e9bd 9892 ea3c
000000f0: ccb5 593d 78d6 d73c 455a 183e 90af 20bc
00000100: 6e5b 11be 4a88 23be c071 643d 071e 07be
00000110: 99c0 2c3e 88d8 1abe 7a17 7fbd c6fd 8fbd
00000120: c4e4 353d 92a2 09be d803 e93c 5ead ab3d
00000130: 915b 1e3e 984e 09be 7a80 f9bd 20b9 a7bb
00000140: 44a8 10bd 3279 933d 885c 8dbc e3ff 0e3e
00000150: b045 f5bd a779 96bd d691 9fbd 2049 00bd
00000160: d801 d13c d42e 13bd 4764 10be 4326 82bd
00000170: 2247 843d 9a1b a13d 023f e33d 002b fa3c
00000180: 7033 703c 3802 16be 42bc e43d 940e 3abd
00000190: 0f1c e2bd c80f 9dbc c913 adbd e9c4 dabd
000001a0: da23 34be 6008 e13b 9013 cbbc 2387 1b3e
000001b0: ca9a 24be abfa a4bd 30d8 ec3c ea7c 5bbd
000001c0: a642 d53d 4e9d f03d 7711 2dbe 38ff c2bd
000001d0: 3873 c5bc a76d 17be 30a1 b43c e40c 28bd
000001e0: 11d4 0d3e 88e8 01be e560 b5bd 7731 cabd
000001f0: 59a5 2f3e 5fd7 b7bd 5ff9 34be f594 1c3e
00000200: ec55 3c3d e80b 96bd e07f b5bd 758b acbd
00000210: 8d30 273e 39fd 343e 80ec a2ba 262f 22be
00000220: 9e55 d73d d565 1c3e fc93 523d 0309 96bd
00000230: da61 21be 911b 2f3e 8043 b6bd cc5a 23be
00000240: 4488 0b3d e8a8 a5bc 643f 32be 96ed c13d
00000250: 1eb0 b23d 4dd4 103e 1677 62bd 7088 15bc
00000260: 2b4e a4bd 58d5 dbbc 17f1 163e 0d26 013e
00000270: e286 963d bb3c d1bd 028a d53d bbde 33be
00000280: 7c96 4e3d 887c 03be f0ce 02bd 3bf0 88bd
00000290: e765 093e 6318 b2bd b92c 073e ccde 153d
000002a0: 60e1 f13c ccb5 90bd 3429 44bd f0e2 70bd
000002b0: 3cff 733d 8cbd f9bd ac34 723d 15dd 8bbd
000002c0: cac9 b23d a459 36bd 5740 1bbe a42a 7dbd
000002d0: 0084 e8b9 18a9 4dbd 2ca0 373d f01b 1abc
000002e0: a24e ef3d 0b85 b8bd 8680 f83d 68bc d3bc
000002f0: b8e4 9cbc 9040 32be 2928 19be 9200 b13d
00000300: e2d0 1fbe e007 11bd ea94 01be 17a1 14be
00000310: 4aa7 913d 740e 633d 9897 94bc 2426 47bd
00000320: 4fba 243e 80cf 203b b68f 8a3d 981f 92bd
00000330: b073 a2bd e06a ed3c 9818 46bd 21a6 263e
00000340: a057 07be 0f5f 123e 2477 7ebd 19e4 203e
00000350: 14a2 323d e360 1bbe 54f8 82bd cacd 22be
00000360: b082 09be 60cf 9b3c bd9e 2ebe 79c4 333e
00000370: 90b3 d0bd 5c1e 0bbd 8f80 1cbe 90e6 34bc
00000380: e552 073e 70df 923c 1bcc 263e 9479 c8bd
00000390: d01d 1ebd 2582 aebd 4ea5 bf3d 6468 8abd
000003a0: ccbf 50bd 10d7 2fbd c04a 793c dbf2 233e
000003b0: 956b 80bd 1841 06be 149e 4c3d ed40 f1bd
000003c0: 80a4 e33c d428 aebd 6349 31be 80f4 803b
000003d0: ba41 87bd 28db 34be a8d3 87bd 2143 0bbe
000003e0: 9ca7 b2bd 35f8 1e3e 2e6c 943d 206a 2fbe
000003f0: 7fdb b2bd a6af 8fbd 2e64 ff3d 1db8 053e
-0.13008212 0.091657564 0.021071956 0.14914377 -0.08446315 -0.026762798 0.12379603 -0.06175051
0.17023455 -0.060516864 0.1355228 -0.06806328 0.1568294 0.053900063 0.1022089 0.106750354
0.08560087 0.12641482 -0.063608676 -0.13802738 -0.15148051 -0.1565009 -0.053545527 0.02595283
-0.09225119 0.120635435 -0.020660952 -0.172292 0.049343005 0.097495094 -0.10869788 -0.08839524
-0.15930845 -0.09629402 -0.029537797 0.027893692 0.113320425 -0.019702613 0.07924171 0.0083144605
-0.050667986 0.026106894 -0.13313115 0.10845731 -0.12539348 0.06963603 0.11976792 0.13256137
0.13972835 -0.16130237 -0.14017132 -0.05725363 -0.11289244 0.07730459 -0.093771994 0.1526015
-0.007745564 -0.10850584 -0.11378209 0.028634354 0.05315189 0.026347384 0.14878185 -0.009807482
-0.14195034 -0.15969959 0.055772543 -0.13195048 0.16870345 -0.15121663 -0.06227825 -0.07030825
0.04440762 -0.13440922 0.028444216 0.083826765 0.15464617 -0.13408887 -0.12182708 -0.005118504
-0.03531672 0.072008505 -0.017256036 0.139648 -0.119761825 -0.07347422 -0.07791488 -0.031319737
0.025513574 -0.03593333 -0.14100753 -0.06354954 0.0645888 0.07866593 0.11096002 0.030538082
0.014660701 -0.14649284 0.1116872 -0.04542406 -0.11040508 -0.019172564 -0.08451039 -0.10682089
-0.17591801 0.0068674535 -0.024789602 0.1518827 -0.16074672 -0.080556236 0.02891168 -0.053585924
0.10413103 0.117487535 -0.16901194 -0.09521335 -0.024102792 -0.14787923 0.022049516 -0.04102792
0.13850428 -0.1268636 -0.08856372 -0.09872716 0.17152919 -0.08976626 -0.17673253 0.15291198
0.04598038 -0.0732649 -0.08862281 -0.08425037 0.16327114 0.17674722 -0.0012430102 -0.15838298
0.10514377 0.15273221 0.05141066 -0.073259376 -0.15759984 0.1710036 -0.08899593 -0.15952605
0.0340655 -0.020222142 -0.17406994 0.09469144 0.08724998 0.14143486 -0.05528935 -0.0091267675
-0.08022722 -0.026835129 0.14740406 0.12612171 0.073499456 -0.102166615 0.104267135 -0.17565434
0.05043648 -0.12840474 -0.031935632 -0.06686445 0.13417779 -0.08696058 0.13200654 0.03658943
0.029526412 -0.07065925 -0.047890857 -0.058810174 0.059569582 -0.12194356 0.059132263 -0.068292774
0.087298945 -0.04451908 -0.15161262 -0.061808243 -0.00044348836 -0.05021009 0.044830486 -0.009406075
0.1168492 -0.09009751 0.12133889 -0.025846675 -0.01915203 -0.17407441 -0.14956726 0.08642687
-0.15607026 -0.0354079 -0.12654462 -0.14514576 0.07111986 0.055433705 -0.018138692 -0.048620358
0.16086696 0.0024537742 0.06765692 -0.07134932 -0.07932222 0.028981626 -0.0483633 0.1627431
-0.1321702 0.14294074 -0.06212534 0.15712012 0.0436116 -0.15173678 -0.06395021 -0.15898815
-0.1342876 0.019019783 -0.17052741 0.17555417 -0.10190499 -0.0339645 -0.15283416 -0.0110412985
0.13215216 0.017928809 0.16288798 -0.09788814 -0.03860265 -0.08520917 0.09357701 -0.06758192
-0.05096416 -0.04292971 0.015215576 0.16010611 -0.0627052 -0.13110769 0.049955443 -0.11779962
0.0277884 -0.08503881 -0.17313151 0.0039353967 -0.06604333 -0.17661726 -0.06632167 -0.13599826
-0.08723375 0.15524371 0.07247196 -0.17130327 -0.08733272 -0.07015924 0.1247028 0.13058515
