models/hybrid_recommender_20250428_111033/gnn_model.pt (torch, 232480 bytes, 4 tensors)

layers.0.bias f4 [128]
0	0x00000000	0.0
1	0x00000000	0.0
2	0x00000000	0.0
3	0x00000000	0.0
4	0x00000000	0.0
5	0x00000000	0.0
6	0x00000000	0.0
7	0x00000000	0.0
8	0x00000000	0.0
9	0x00000000	0.0
10	0x00000000	0.0
11	0x00000000	0.0
12	0x00000000	0.0
13	0x00000000	0.0
14	0x00000000	0.0
15	0x00000000	0.0
16	0x00000000	0.0
17	0x00000000	0.0
18	0x00000000	0.0
19	0x00000000	0.0
20	0x00000000	0.0
21	0x00000000	0.0
22	0x00000000	0.0
23	0x00000000	0.0
24	0x00000000	0.0
25	0x00000000	0.0
26	0x00000000	0.0
27	0x00000000	0.0
28	0x00000000	0.0
29	0x00000000	0.0
30	0x00000000	0.0
31	0x00000000	0.0
32	0x00000000	0.0
33	0x00000000	0.0
34	0x00000000	0.0
35	0x00000000	0.0
36	0x00000000	0.0
37	0x00000000	0.0
38	0x00000000	0.0
39	0x00000000	0.0
40	0x00000000	0.0
41	0x00000000	0.0
42	0x00000000	0.0
43	0x00000000	0.0
44	0x00000000	0.0
45	0x00000000	0.0
46	0x00000000	0.0
47	0x00000000	0.0
48	0x00000000	0.0
49	0x00000000	0.0
50	0x00000000	0.0
51	0x00000000	0.0
52	0x00000000	0.0
53	0x00000000	0.0
54	0x00000000	0.0
55	0x00000000	0.0
56	0x00000000	0.0
57	0x00000000	0.0
58	0x00000000	0.0
59	0x00000000	0.0
60	0x00000000	0.0
61	0x00000000	0.0
62	0x00000000	0.0
63	0x00000000	0.0
64	0x00000000	0.0
65	0x00000000	0.0
66	0x00000000	0.0
67	0x00000000	0.0
68	0x00000000	0.0
69	0x00000000	0.0
70	0x00000000	0.0
71	0x00000000	0.0
72	0x00000000	0.0
73	0x00000000	0.0
74	0x00000000	0.0
75	0x00000000	0.0
76	0x00000000	0.0
77	0x00000000	0.0
78	0x00000000	0.0
79	0x00000000	0.0
80	0x00000000	0.0
81	0x00000000	0.0
82	0x00000000	0.0
83	0x00000000	0.0
84	0x00000000	0.0
85	0x00000000	0.0
86	0x00000000	0.0
87	0x00000000	0.0
88	0x00000000	0.0
89	0x00000000	0.0
90	0x00000000	0.0
91	0x00000000	0.0
92	0x00000000	0.0
93	0x00000000	0.0
94	0x00000000	0.0
95	0x00000000	0.0
96	0x00000000	0.0
97	0x00000000	0.0
98	0x00000000	0.0
99	0x00000000	0.0
100	0x00000000	0.0
101	0x00000000	0.0
102	0x00000000	0.0
103	0x00000000	0.0
104	0x00000000	0.0
105	0x00000000	0.0
106	0x00000000	0.0
107	0x00000000	0.0
108	0x00000000	0.0
109	0x00000000	0.0
110	0x00000000	0.0
111	0x00000000	0.0
112	0x00000000	0.0
113	0x00000000	0.0
114	0x00000000	0.0
115	0x00000000	0.0
116	0x00000000	0.0
117	0x00000000	0.0
118	0x00000000	0.0
119	0x00000000	0.0
120	0x00000000	0.0
121	0x00000000	0.0
122	0x00000000	0.0
123	0x00000000	0.0
124	0x00000000	0.0
125	0x00000000	0.0
126	0x00000000	0.0
127	0x00000000	0.0

layers.0.lin.weight f4 [128, 384]
0	0xbd5a21b9	-0.053254817
1	0x3d23d6ae	0.039999656
2	0xbdbac103	-0.09118845
3	0xbc958d78	-0.018255934
4	0xbda0ecf0	-0.07857692
5	0x3d6452a6	0.055742882
6	0x3da24945	0.07924131
7	0x3dc69a93	0.096974514
8	0xbd5dc85e	-0.054146163
9	0x3d03bfd6	0.03216537
10	0x3d7d2f66	0.06181278
11	0x3dd7963d	0.105267026
12	0xbcbb29d4	-0.022847094
13	0xbc09d450	-0.008412436
14	0x3db0cbbd	0.0863261
15	0x3d37a33a	0.0448334
16	0x3c987c8c	0.018614076
17	0xbd6b22d7	-0.057406273
18	0xbd079d22	-0.033108838
19	0x3d528e06	0.051404975
20	0xbd94215a	-0.07232924
21	0x3d5184fe	0.05115222
22	0xbcdcebb0	-0.026967853
23	0xbd7c19f5	-0.061548192
24	0x3dbff021	0.09371973
25	0xbd0ae422	-0.03390897
26	0x3d805743	0.06266644
27	0xbcb33a24	-0.02187831
28	0xbd8561be	-0.065127835
29	0x3d4b8bba	0.0496938
30	0xbc842ab0	-0.016133636
31	0x3da6ff65	0.081541814
32	0xbce1ec14	-0.027578391
33	0xbd7d278c	-0.061805293
34	0xbdd07b24	-0.10179737
35	0xbd2f8288	-0.042849094
36	0x3da8d467	0.082436375
37	0x3d61e696	0.055151545
38	0xbcb73e60	-0.02236861
39	0xbd5f2f10	-0.05448824
40	0x3d8e94af	0.06961953
41	0x3dd727a7	0.1050561
42	0xbdc03098	-0.093842685
43	0x3d64f596	0.05589827
44	0x3cbaa6a4	0.022784539
45	0x3d03888a	0.032112636
46	0xbd8e9250	-0.06961501
47	0x3b4bd8c0	0.0031104535
48	0x3cee4824	0.029087134
49	0xbdbcb688	-0.092145026
50	0xbd44a002	-0.048004158
51	0x3c67dfb8	0.01415246
52	0x3d2925d2	0.041295834
53	0xbd5a00ae	-0.053223304
54	0x3ddbbd1d	0.1072943
55	0x3cf365a4	0.029711552
56	0x3d12fc8a	0.03588537
57	0x3d5e63d2	0.054294415
58	0x3dc3820f	0.09546291
59	0x3d3b6206	0.04574778
60	0xbb5ca0a0	-0.0033665076
61	0x3dc33631	0.095318206
62	0x3d785362	0.060626395
63	0x3dd14021	0.1021731
64	0xbdbec2f6	-0.093145296
65	0x3c882ccc	0.016622923
66	0x3d4b6e6e	0.04966586
67	0x3d53445e	0.051578872
68	0x3d56ab8a	0.052409686
69	0xbdb1dc50	-0.086845994
70	0xbd5ac517	-0.053410616
71	0x3da95e81	0.08269978
72	0xbdb503fa	-0.08838649
73	0xbd4ff457	-0.05077013
74	0x3d52bc2a	0.05144898
75	0x3d836f63	0.0641773
76	0xbd464bc5	-0.048412103
77	0x3d2a03b6	0.041507445
78	0xbd5ea587	-0.054357078
79	0x3d772596	0.06033858
80	0xbc118468	-0.008881666
81	0xbbe2ba20	-0.0069191605
82	0xbddcfc53	-0.107903145
83	0xbcb26910	-0.021778613
84	0xbc6f7df0	-0.014617428
85	0xbd7b06c0	-0.061285734
86	0xbd7e21f4	-0.0620441
87	0xbd576db3	-0.05259485
88	0x3d824f89	0.063628264
89	0xbd1c7b6c	-0.03820364
90	0xbd20d85e	-0.039268844
91	0xbd439f65	-0.047759432
92	0xbdc154c1	-0.09439994
93	0xbc057218	-0.008144878
94	0xbd2e5de2	-0.042570002
95	0x3bb445a0	0.005501464
96	0xbcc21604	-0.023692138
97	0xbd70174f	-0.05861598
98	0xbc735e50	-0.014854029
99	0xbc4456a8	-0.011983551
100	0xbc8f37ec	-0.01748272
101	0xbdbdb89b	-0.09263726
102	0x3d118696	0.03552874
103	0x3d7326be	0.05936312
104	0xbd6497ad	-0.05580871
105	0xbd74d2b8	-0.05977127
106	0xbd643384	-0.05571319
107	0x3dccc451	0.09998382
108	0x3d02ae0a	0.031904258
109	0x3d21d786	0.03951218
110	0x3d3904de	0.045170657
111	0x3d1d32aa	0.038378395
112	0xbb892840	-0.0041857064
113	0x3da8dbfb	0.08245083
114	0xbd34b138	-0.04411432
115	0x3c385298	0.011250161
116	0xbd8df15e	-0.06930803
117	0x3d37aa5e	0.04484021
118	0xbc986894	-0.018604554
119	0x3d59cf0e	0.05317598
120	0x3d908525	0.07056645
121	0xbddd6fc7	-0.108123355
122	0x3c85b9d8	0.016323969
123	0x3d3e4afa	0.046458222
124	0x3a9baf00	0.0011877716
125	0xbbad1310	-0.0052818134
126	0xbc9efa30	-0.019406408
127	0xbcf42fc4	-0.029807933
128	0xbd8c2e3e	-0.068447575
129	0x3db25243	0.087070964
130	0xbbd45610	-0.006479986
131	0x3d02329e	0.031786554
132	0x3d13f98a	0.03612665
133	0xbd41dfc8	-0.047332555
134	0xbda975bc	-0.08274409
135	0x3cffbc1c	0.031217627
136	0xbdd5da74	-0.10442057
137	0xbdb7070d	-0.08936892
138	0xbd277fc2	-0.040893324
139	0x3cfe9b5c	0.03107994
140	0x3cf9a8d4	0.030476011
141	0x3bac8f50	0.0052661076
142	0xbd605784	-0.05477096
143	0x3db7e41d	0.08979056
144	0xbd80e81c	-0.06294271
145	0xbdc3a486	-0.09552865
146	0x3c3c7508	0.011502512
147	0xbd238640	-0.039922953
148	0xbb8788e0	-0.00413619
149	0xbcc044e0	-0.023470342
150	0x3d32e0d6	0.04367145
151	0x3d9c1fdd	0.07623265
152	0xbda3b16b	-0.07992824
153	0x3c4508d8	0.012026034
154	0xbdc04941	-0.09388972
155	0x3cd87b2c	0.02642592
156	0xbc8af450	-0.0169622
157	0x3d6bcb26	0.057566784
158	0x3dd6a931	0.104814894
159	0x3ae5d380	0.0017534345
160	0xbdaf8e0b	-0.085720144
161	0xbd0bdef4	-0.03414817
162	0x3ce7f7ec	0.02831646
163	0xbdd67497	-0.104714565
164	0x3d1e2866	0.038612746
165	0x3dd8fcd9	0.10595102
166	0xbdbf65a0	-0.09345555
167	0x3daa8351	0.08325828
168	0x3bb885b0	0.005631171
169	0x3ca1bd3c	0.019743554
170	0xbd22ff80	-0.039794445
171	0xbd6f37d6	-0.05840286
172	0xbc4fcfa0	-0.012683779
173	0x3d1cfb06	0.038325332
174	0xbdcade71	-0.099057086
175	0xbccb1148	-0.024788514
176	0x3cf4b764	0.029872604
177	0xbd0eb722	-0.034842618
178	0x3dbe035f	0.09277987
179	0xbc5d5768	-0.013509609
180	0xbca080fc	-0.019592755
181	0x3c2e1088	0.010624059
182	0x3dcb9541	0.09940577
183	0x3c3e6938	0.011621766
184	0xbc3e9cb0	-0.011634037
185	0x3d207e5e	0.039183013
186	0xbbef9d50	-0.0073124543
187	0xbdcd0940	-0.1001153
188	0x3ddd3d7d	0.108027436
189	0x3da6a319	0.08136577
190	0xbd8dfde8	-0.069331944
191	0x3da17787	0.07884126
192	0xbd8de6c1	-0.069287784
193	0x3dbfa3c1	0.093574055
194	0xbab63180	-0.001390025
195	0x3c7a2068	0.015266515
196	0x3d17acce	0.037030034
197	0x3dbc2df7	0.091884546
198	0x3d94185b	0.07231208
199	0xbcb99560	-0.022654235
200	0x3d742536	0.0596058
201	0xbc594f50	-0.0132635385
202	0xbd60b0fd	-0.05485629
203	0x3ddb5531	0.10709608
204	0xbda013ba	-0.078162625
205	0x3c155888	0.009115346
206	0x3da489c3	0.080340885
207	0x3d9391f9	0.072055764
208	0xbd7b0123	-0.06128038
209	0x3d37ddda	0.04488931
210	0x3d2a9fb6	0.04165622
211	0x3d748fa6	0.059707306
212	0x3dd8df9b	0.10589524
213	0x3d85afe7	0.06527691
214	0xbd9f6e6e	-0.07784735
215	0xbdcf05fb	-0.101085626
216	0xbdd11c87	-0.10210519
217	0xbd0f9ace	-0.035059743
218	0x3dc06a45	0.09395269
219	0x3d46c29e	0.048525445
220	0xbdd3c1fd	-0.10339735
221	0xbca2e6ac	-0.019885384
222	0x3dab9e6d	0.08379827
223	0x3d9f815b	0.077883445
224	0x3dcb9237	0.09939998
225	0xbbc19c80	-0.005908549
226	0x3cf49a8c	0.02985885
227	0xbc3f9cf0	-0.011695132
228	0x3d75503e	0.059890978
229	0x3dad411f	0.084596865
230	0xbcb0b9c8	-0.021572962
231	0x3aa14c00	0.0012305975
232	0x3d71d626	0.05904212
233	0x3b1aebe0	0.0023639128
234	0x3d5ba492	0.053623743
235	0xbc6728b8	-0.014108829
236	0xbd4b1cde	-0.049588077
237	0xbdb29ed6	-0.08721702
238	0xbd9c3ee8	-0.07629186
239	0x3d656de6	0.05601301
240	0xbd92469e	-0.071423754
241	0xbdac63de	-0.08417486
242	0xbbb69710	-0.0055722073
243	0x3d47d466	0.048786543
244	0x3d1b8dbe	0.037976973
245	0x3dd4b25d	0.103855826
246	0x3d834971	0.06410492
247	0xbd057770	-0.032584608
248	0xbc7ef9c8	-0.015562482
249	0xbc8506c0	-0.01623857
250	0x3d0b5d32	0.034024425
251	0xbdcc77ac	-0.09983763
252	0xbcacb75c	-0.021083526
253	0xbd6017cc	-0.054710194
254	0xbd1f680c	-0.038917586
255	0xbd493bb2	-0.049129196

layers.1.bias f4 [64]
0	0x00000000	0.0
1	0x00000000	0.0
2	0x00000000	0.0
3	0x00000000	0.0
4	0x00000000	0.0
5	0x00000000	0.0
6	0x00000000	0.0
7	0x00000000	0.0
8	0x00000000	0.0
9	0x00000000	0.0
10	0x00000000	0.0
11	0x00000000	0.0
12	0x00000000	0.0
13	0x00000000	0.0
14	0x00000000	0.0
15	0x00000000	0.0
16	0x00000000	0.0
17	0x00000000	0.0
18	0x00000000	0.0
19	0x00000000	0.0
20	0x00000000	0.0
21	0x00000000	0.0
22	0x00000000	0.0
23	0x00000000	0.0
24	0x00000000	0.0
25	0x00000000	0.0
26	0x00000000	0.0
27	0x00000000	0.0
28	0x00000000	0.0
29	0x00000000	0.0
30	0x00000000	0.0
31	0x00000000	0.0
32	0x00000000	0.0
33	0x00000000	0.0
34	0x00000000	0.0
35	0x00000000	0.0
36	0x00000000	0.0
37	0x00000000	0.0
38	0x00000000	0.0
39	0x00000000	0.0
40	0x00000000	0.0
41	0x00000000	0.0
42	0x00000000	0.0
43	0x00000000	0.0
44	0x00000000	0.0
45	0x00000000	0.0
46	0x00000000	0.0
47	0x00000000	0.0
48	0x00000000	0.0
49	0x00000000	0.0
50	0x00000000	0.0
51	0x00000000	0.0
52	0x00000000	0.0
53	0x00000000	0.0
54	0x00000000	0.0
55	0x00000000	0.0
56	0x00000000	0.0
57	0x00000000	0.0
58	0x00000000	0.0
59	0x00000000	0.0
60	0x00000000	0.0
61	0x00000000	0.0
62	0x00000000	0.0
63	0x00000000	0.0

layers.1.lin.weight f4 [64, 128]
0	0xbd297944	-0.041375414
1	0x3e32d841	0.17465307
2	0x3d25a528	0.04044071
3	0xbe10a534	-0.1412552
4	0xbdf84b60	-0.12123752
5	0x3dfb208e	0.12262069
6	0x3ca64a58	0.020299122
7	0xbe237a49	-0.15964617
8	0xbe1cb0d7	-0.15301834
9	0xbd81ff5a	-0.063475326
10	0xbdc417c3	-0.09574845
11	0xbe27f2dc	-0.16401237
12	0x3e150c77	0.14555536
13	0x3d4e0ad8	0.05030331
14	0x3e24672f	0.16054986
15	0x3d22af10	0.039717734
16	0xbd810325	-0.06299428
17	0x3d549f68	0.051909834
18	0x3ca96948	0.020680085
19	0x3e21b469	0.15791477
20	0x3e2e458b	0.17018716
21	0x3dafee26	0.08590345
22	0x3c4183d0	0.011811212
23	0x3d6d9588	0.058003932
24	0x3d964c1e	0.07338737
25	0x3e349fab	0.17639033
26	0x3e1f5a95	0.15561898
27	0xbd758d00	-0.05994892
28	0xbd020cb0	-0.03175038
29	0xbde1bf40	-0.11022806
30	0x3dc5827a	0.09644027
31	0x3c8bb518	0.017054126
32	0x3dc676fe	0.09690665
33	0xbc8d1228	-0.017220572
34	0x3ce13de8	0.02749534
35	0xbdafc8a4	-0.08583191
36	0x3d651fc8	0.055938512
37	0xbe00d7a3	-0.12582259
38	0x3e279541	0.1636553
39	0xbd666e08	-0.056257278
40	0x3de15cf6	0.11004059
41	0xbdf65026	-0.12027006
42	0x3e2bcd11	0.16777445
43	0x3dad2e5e	0.084561095
44	0xbe12ebca	-0.14347759
45	0xbd523f00	-0.051329613
46	0x3dd67ca6	0.104729936
47	0xbd10df54	-0.035369232
48	0xbc65b230	-0.014019534
49	0x3dfee162	0.12445332
50	0x3d8d9254	0.069126755
51	0x3a3b8700	0.00071536005
52	0x3cfd45b8	0.030917034
53	0x3df64186	0.12024216
54	0xbddff6a3	-0.10935714
55	0xbd8f98b7	-0.0701155
56	0xbd90c51a	-0.07068844
57	0xbdcfa7b4	-0.10139409
58	0x3d32d350	0.043658555
59	0x3d465eec	0.04843037
60	0xbe05aa5a	-0.13053265
61	0xbce4e230	-0.027939886
62	0x3bbf91e0	0.005846247
63	0x3e2e6f37	0.17034613
64	0x3e21e9e7	0.15811883
65	0x3e08d14b	0.13361089
66	0xbdd1878a	-0.1023093
67	0x3b868c00	0.004106045
68	0xbe25fae8	-0.16208994
69	0xbbe7aa40	-0.007069856
70	0xbd0a8a54	-0.033823326
71	0x3da92cd2	0.08260502
72	0x3dbf3852	0.09336914
73	0x3d156774	0.036475614
74	0x3d9114c6	0.0708404
75	0x3ce5f190	0.028069288
76	0xbdca42b9	-0.098760076
77	0xbe18a965	-0.14908369
78	0x3e0195d9	0.12654819
79	0xbe11dd19	-0.14244498
80	0xbe1c23f9	-0.15248097
81	0x3dc03b76	0.09386341
82	0x3c93d168	0.018044189
83	0x3dfbcb6e	0.122946605
84	0xbda11c96	-0.078667805
85	0xbdc3fe60	-0.095700026
86	0x3dad3062	0.08456494
87	0x3e33026d	0.17481394
88	0x3d2b68d0	0.041848004
89	0x3da8ca7e	0.08241747
90	0x3d49cd10	0.04926783
91	0xbbe83f00	-0.0070875883
92	0x3e0c97cf	0.13729785
93	0xbdb297bf	-0.087203495
94	0x3d856bf4	0.06514731
95	0x3df51b0e	0.11968051
96	0x3dcbbf0a	0.09948547
97	0xbe262da6	-0.16228351
98	0xbc6dc9c0	-0.014513433
99	0x3cc25db8	0.02372633
100	0x3d3a2dc4	0.0454538
101	0xbe132291	-0.14368655
102	0xbd3b91d4	-0.04579337
103	0xbcc3d4b0	-0.023905128
104	0xbda8b38d	-0.082373716
105	0x3d841efc	0.06451222
106	0x3e281d9d	0.16417547
107	0xbdaa7603	-0.0832329
108	0xbdb3284e	-0.08747922
109	0x3e086651	0.1332028
110	0x3d9f9166	0.077914044
111	0x3c1a5e30	0.00942187
112	0x3d5e5740	0.054282427
113	0x3e2a75cf	0.16646503
114	0x3dd073aa	0.10178311
115	0x3e088605	0.13332374
116	0xbe29d5c6	-0.16585454
117	0x3c944c60	0.018102825
118	0xbe2f664f	-0.17128871
119	0xbdce1263	-0.10062101
120	0x3d38f220	0.045152783
121	0x3db7b922	0.08970858
122	0x3e032443	0.12806801
123	0x3df26842	0.11836292
124	0xbd8225be	-0.06354855
125	0xbc016a10	-0.007898822
126	0x3b3f1440	0.0029156357
127	0x3c160510	0.00915648
128	0x3bdc43c0	0.0067219436
129	0xbaf66780	-0.0018799156
130	0x3c994110	0.018707782
131	0x3dffc40a	0.12488563
132	0xbe21f2e0	-0.15815306
133	0xbdc8c334	-0.09802857
134	0xbe109717	-0.14120136
135	0xbd9dfd75	-0.07714359
136	0xbcb4b888	-0.022060648
137	0x3ceaa1f0	0.028641671
138	0xbdf0a8b0	-0.117509246
139	0xbdd09221	-0.10184122
140	0x3d02d744	0.031943575
141	0xbe2cac87	-0.16862689
142	0xbc44ad20	-0.012004167
143	0xbc1b5710	-0.009481207
144	0xbdc3310f	-0.095308416
145	0x3db0869a	0.08619423
146	0xbd2faa48	-0.042887002
147	0xbd8eab4d	-0.06966267
148	0x3c2a34b0	0.010388538
149	0xbcfe21d0	-0.031021982
150	0xbe0feb87	-0.1405469
151	0x3df5dc82	0.12004949
152	0xbd7f2b14	-0.062296942
153	0xbda7fa53	-0.082020424
154	0x3d9db8ae	0.077012405
155	0xbda60f31	-0.08108366
156	0x3e2d2843	0.1690989
157	0x3e09f057	0.13470589
158	0xbca6eab0	-0.02037558
159	0x3dc6add6	0.09701125
160	0xbb170000	-0.0023040771
161	0x3dc11056	0.09426944
162	0xbc1a40d0	-0.009414867
163	0x3d4e1ff0	0.050323427
164	0xbdc6745a	-0.09690161
165	0xbe034521	-0.1281934
166	0xbda48953	-0.08034005
167	0x3c551cc0	0.013007343
168	0x3e1db8c7	0.15402518
169	0x3e039d7b	0.12853043
170	0xbd6a6888	-0.057228595
171	0xbe2d41a3	-0.1691957
172	0xbdf87c6b	-0.12133106
173	0x3e2aa431	0.16664197
174	0x3e16fc55	0.14744695
175	0x3cb9b978	0.022671446
176	0xbd06392c	-0.032769367
177	0x3d6ca408	0.05777362
178	0x3d7d3a44	0.061823145
179	0xbddd718e	-0.108126745
180	0x3e1c714d	0.15277596
181	0x3d852ae0	0.065023184
182	0x3e2c15df	0.16805218
183	0x3dd5429a	0.10413094
184	0x3c2e2a30	0.0106301755
185	0xbdda0e31	-0.10647238
186	0xbca97130	-0.020683855
187	0xbcda3ec0	-0.02664125
188	0xbdbe0051	-0.09277404
189	0x3e301945	0.1719714
190	0x3d033974	0.032037213
191	0x3db0b566	0.08628349
192	0xbd8e2d04	-0.0694218
193	0x3e0fb859	0.14035167
194	0xbd29c8f8	-0.041451424
195	0x3d4563b0	0.048190773
196	0x3dbdc0b6	0.09265272
197	0x3d578200	0.052614212
198	0xbdabafb9	-0.08383126
199	0x3e25425b	0.16138594
200	0xbc8ebc80	-0.017423868
201	0xbe04bfce	-0.12963793
202	0xbe28f2d9	-0.16498889
203	0xbd0b4cec	-0.034008905
204	0x3e049fab	0.12951533
205	0x3da8ef46	0.08248763
206	0x3e12a377	0.1432017
207	0x3d10f268	0.035387427
208	0x3e2cdb47	0.16880523
209	0x3bdadba0	0.0066790134
210	0x3e18fb4b	0.1493961
211	0xbb0ce3c0	-0.0021498054
212	0x3df68b3a	0.12038274
213	0xbd871b9c	-0.06597063
214	0xbd9b7702	-0.07591058
215	0xbdf5a58c	-0.11994466
216	0x3e16ce5f	0.14727162
217	0xbb602540	-0.003420189
218	0x3e063655	0.13106664
219	0xbd9a73fc	-0.075416535
220	0x3e1870b7	0.14886747
221	0xbc2252e0	-0.009907454
222	0x3d2bd738	0.041953295
223	0x3ca019c0	0.019543529
224	0xbe0089a8	-0.12552512
225	0x3e233d0d	0.15941258
226	0xbde99175	-0.11404697
227	0xbc817fb0	-0.015807956
228	0x3d46e6c4	0.04855992
229	0xbd2b30ac	-0.041794464
230	0x3ccfdbc8	0.025373355
231	0x3d122c18	0.035686582
232	0x3d5aff60	0.0534662
233	0xbb9c7f20	-0.0047758967
234	0xbbe6a5c0	-0.007038802
235	0xbd9a5307	-0.075353675
236	0x3d9bc2b6	0.076054975
237	0xbd431af8	-0.04763314
238	0xbd8ee8b6	-0.0697798
239	0xbdcb94eb	-0.09940513
240	0xbd8525ce	-0.06501351
241	0x3e273b3b	0.16331188
242	0x3d95742a	0.07297547
243	0xbdc721d6	-0.097232506
244	0xbe27e794	-0.16396934
245	0x3d42f0e8	0.047593027
246	0x3d947a1a	0.072498515
247	0xbdf2cf5e	-0.118559584
248	0x3d38044c	0.044925973
249	0xbdff4ea4	-0.124661714
250	0xbd62a666	-0.05533447
251	0xbd1ca734	-0.038245395
252	0x3e0a8c4f	0.13530086
253	0xbdd9e53c	-0.10639426
254	0x3c8c8a20	0.017155707
255	0xbdb397f6	-0.087692186
