models/hybrid_recommender_20250428_110122/gnn_model.pt (torch, 232480 bytes, 4 tensors)

layers.0.bias f4 [128]
0	0x00000000	0.0
1	0x00000000	0.0
2	0x00000000	0.0
3	0x00000000	0.0
4	0x00000000	0.0
5	0x00000000	0.0
6	0x00000000	0.0
7	0x00000000	0.0
8	0x00000000	0.0
9	0x00000000	0.0
10	0x00000000	0.0
11	0x00000000	0.0
12	0x00000000	0.0
13	0x00000000	0.0
14	0x00000000	0.0
15	0x00000000	0.0
16	0x00000000	0.0
17	0x00000000	0.0
18	0x00000000	0.0
19	0x00000000	0.0
20	0x00000000	0.0
21	0x00000000	0.0
22	0x00000000	0.0
23	0x00000000	0.0
24	0x00000000	0.0
25	0x00000000	0.0
26	0x00000000	0.0
27	0x00000000	0.0
28	0x00000000	0.0
29	0x00000000	0.0
30	0x00000000	0.0
31	0x00000000	0.0
32	0x00000000	0.0
33	0x00000000	0.0
34	0x00000000	0.0
35	0x00000000	0.0
36	0x00000000	0.0
37	0x00000000	0.0
38	0x00000000	0.0
39	0x00000000	0.0
40	0x00000000	0.0
41	0x00000000	0.0
42	0x00000000	0.0
43	0x00000000	0.0
44	0x00000000	0.0
45	0x00000000	0.0
46	0x00000000	0.0
47	0x00000000	0.0
48	0x00000000	0.0
49	0x00000000	0.0
50	0x00000000	0.0
51	0x00000000	0.0
52	0x00000000	0.0
53	0x00000000	0.0
54	0x00000000	0.0
55	0x00000000	0.0
56	0x00000000	0.0
57	0x00000000	0.0
58	0x00000000	0.0
59	0x00000000	0.0
60	0x00000000	0.0
61	0x00000000	0.0
62	0x00000000	0.0
63	0x00000000	0.0
64	0x00000000	0.0
65	0x00000000	0.0
66	0x00000000	0.0
67	0x00000000	0.0
68	0x00000000	0.0
69	0x00000000	0.0
70	0x00000000	0.0
71	0x00000000	0.0
72	0x00000000	0.0
73	0x00000000	0.0
74	0x00000000	0.0
75	0x00000000	0.0
76	0x00000000	0.0
77	0x00000000	0.0
78	0x00000000	0.0
79	0x00000000	0.0
80	0x00000000	0.0
81	0x00000000	0.0
82	0x00000000	0.0
83	0x00000000	0.0
84	0x00000000	0.0
85	0x00000000	0.0
86	0x00000000	0.0
87	0x00000000	0.0
88	0x00000000	0.0
89	0x00000000	0.0
90	0x00000000	0.0
91	0x00000000	0.0
92	0x00000000	0.0
93	0x00000000	0.0
94	0x00000000	0.0
95	0x00000000	0.0
96	0x00000000	0.0
97	0x00000000	0.0
98	0x00000000	0.0
99	0x00000000	0.0
100	0x00000000	0.0
101	0x00000000	0.0
102	0x00000000	0.0
103	0x00000000	0.0
104	0x00000000	0.0
105	0x00000000	0.0
106	0x00000000	0.0
107	0x00000000	0.0
108	0x00000000	0.0
109	0x00000000	0.0
110	0x00000000	0.0
111	0x00000000	0.0
112	0x00000000	0.0
113	0x00000000	0.0
114	0x00000000	0.0
115	0x00000000	0.0
116	0x00000000	0.0
117	0x00000000	0.0
118	0x00000000	0.0
119	0x00000000	0.0
120	0x00000000	0.0
121	0x00000000	0.0
122	0x00000000	0.0
123	0x00000000	0.0
124	0x00000000	0.0
125	0x00000000	0.0
126	0x00000000	0.0
127	0x00000000	0.0

layers.0.lin.weight f4 [128, 384]
0	0xbd9b1dee	-0.07574068
1	0xbdbc1880	-0.091843605
2	0xbd1cb256	-0.038256012
3	0xbdceff18	-0.10107249
4	0x3c8595c4	0.016306765
5	0x3db325f5	0.08747474
6	0x3db25ae5	0.08708743
7	0x3d15bf32	0.03655929
8	0x3c83c934	0.016087152
9	0xbcc1dc7c	-0.023664705
10	0xbdbccd3a	-0.09218831
11	0xbda8f952	-0.08250679
12	0xbd0ce90a	-0.03440193
13	0xbcf44628	-0.02981861
14	0xbd4a3365	-0.04936542
15	0x3cd113cc	0.025522135
16	0x3d351fe6	0.044219874
17	0x3da701d3	0.08154645
18	0xbdb76bee	-0.08956133
19	0x3d1b9932	0.037987895
20	0x3d045962	0.032311805
21	0x3c3193d8	0.010838471
22	0x3dc60b1b	0.09670087
23	0xbce83f98	-0.028350636
24	0xbd5b2982	-0.05350638
25	0x3b521020	0.0032053068
26	0x3cc15494	0.0235999
27	0xbd55eef2	-0.05222983
28	0x3da2b1e9	0.0794409
29	0x3c57c4a8	0.013169445
30	0xbdc980f2	-0.098390475
31	0xbd8bb20d	-0.0682107
32	0x3d114d3a	0.03547404
33	0xbc44a288	-0.012001641
34	0x3da10511	0.078622945
35	0x3d3289e2	0.043588527
36	0xbdad95e2	-0.084758535
37	0xbdb5dcd6	-0.08880012
38	0x3afdc800	0.0019361973
39	0xbd8b2300	-0.06793785
40	0xbc813c94	-0.015775956
41	0x3d885729	0.066572495
42	0xbd82f75a	-0.06394835
43	0xbc64c2b0	-0.013962433
44	0xbdcaf722	-0.09910418
45	0x3d92a423	0.07160213
46	0xbdac2cd2	-0.08406986
47	0xbb9c48e0	-0.0047694296
48	0x3d2ce5d2	0.04221136
49	0x3cdf7a84	0.0272801
50	0x3dda9215	0.10672394
51	0x3d10347a	0.035206296
52	0xbdc1fcdc	-0.09472057
53	0xbc9c80e8	-0.019104436
54	0xbc564d68	-0.0130799785
55	0xbca66d48	-0.020315781
56	0xbdc8d54d	-0.09806309
57	0x3dd16edf	0.10226225
58	0xbda39a3c	-0.07988402
59	0xbd965124	-0.07339695
60	0xbdd4dcea	-0.103936985
61	0xbddb7a71	-0.10716713
62	0xbdd6827b	-0.10474106
63	0x3d83c7eb	0.06434616
64	0xbdda2c10	-0.106529355
65	0x3d53ed7a	0.051740147
66	0x3d8875ad	0.0666307
67	0xbdbd4030	-0.092407584
68	0xbb5071e0	-0.0031806156
69	0xbdb161b0	-0.086612105
70	0x3c9cbb34	0.019132234
71	0x3c641538	0.013921075
72	0x3ca21004	0.019783027
73	0xbd258d0a	-0.04041771
74	0x3d9d49eb	0.07680114
75	0x3d4d08de	0.050057285
76	0x3cbe8a84	0.023259409
77	0x3da208cb	0.079118334
78	0x3d7f9a56	0.062403046
79	0xbd90ed5c	-0.07076523
80	0xbd8c1c3a	-0.06841321
81	0x3db164e1	0.08661819
82	0x3db91d09	0.09038741
83	0xbd060c1e	-0.0327264
84	0x3d02e666	0.031958006
85	0x3cd183c4	0.025575526
86	0xbdca0a61	-0.09865261
87	0x3d85e93d	0.06538627
88	0xbdd4aa73	-0.10384073
89	0x3ba9ad00	0.005178094
90	0x3cad2c64	0.021139331
91	0x3d9de0a3	0.07708862
92	0xbdd96b1a	-0.10616131
93	0xb9bc8800	-0.00035959482
94	0x3cce5f7c	0.025192015
95	0xbcc02544	-0.02345527
96	0xbdd09c85	-0.10186104
97	0x3ca9b7f4	0.020717598
98	0x3b739200	0.003716588
99	0xbd23eb2a	-0.04001919
100	0xbd1e29a6	-0.038613938
101	0xbd736d3a	-0.05943034
102	0xbdd5ee12	-0.10445799
103	0xbd056ce8	-0.032574564
104	0xbdba618a	-0.09100635
105	0x3cb13a5c	0.021634273
106	0xbd00b9c4	-0.03142716
107	0xbd891233	-0.06692924
108	0xbcfac414	-0.030611075
109	0x3dc9fa7d	0.0986223
110	0xbc7b5508	-0.015340097
111	0x3bfd22d0	0.0077250972
112	0xbdc81d63	-0.0977123
113	0x3cd2cb4c	0.025731705
114	0x3dccaaa3	0.09993484
115	0xbdcbfbba	-0.099601224
116	0xbdce1291	-0.10062135
117	0x3ce5f694	0.02807168
118	0xbd093ac0	-0.033503294
119	0x3b5e0ec0	0.0033883303
120	0xbd8c6e8e	-0.06857024
121	0x3d83427b	0.064091645
122	0x3d898bd3	0.067161225
123	0x3d51285a	0.051063873
124	0xbd91eae6	-0.071248814
125	0xbdd6649a	-0.10468407
126	0xbcb3886c	-0.021915637
127	0xbd20c782	-0.039252765
128	0xbc3a4da8	-0.011371054
129	0xbd02ee1a	-0.031965353
130	0xbc9543d4	-0.01822082
131	0xbd9b6ae4	-0.07588747
132	0x3cb99164	0.022652335
133	0x3d089a66	0.03335037
134	0x3da1ab33	0.07893982
135	0x3d9a25a3	0.0752671
136	0xbcd4b080	-0.025963068
137	0xbcd6195c	-0.02613514
138	0x3d63781a	0.05553446
139	0x3db69a73	0.089161776
140	0x3d13411a	0.035950758
141	0x3d08e9fa	0.033426262
142	0xbc4c9540	-0.012486756
143	0xbd35326e	-0.044237547
144	0x3cae0fd4	0.021247782
145	0x3d1d7146	0.038438104
146	0xbbeafe70	-0.0071714446
147	0x3d42ef82	0.047591694
148	0x3d922f7f	0.071379654
149	0xbcf9914c	-0.03046479
150	0xbdad6b91	-0.08467782
151	0x3d116fc6	0.035506986
152	0xbda794b6	-0.08182661
153	0xbc97fda0	-0.018553555
154	0xbd86f798	-0.065901935
155	0xbd9b817d	-0.07593057
156	0x3ccab1d4	0.024742998
157	0x3d501672	0.050802656
158	0x3db167cf	0.08662378
159	0xbb8f5220	-0.0043738037
160	0xbd824dfc	-0.063625306
161	0xbd5de75b	-0.054175716
162	0xbdbcb2de	-0.09213804
163	0xbd684064	-0.056702033
164	0xbcafaa58	-0.02144353
165	0xbb2e78a0	-0.002662219
166	0xbce88acc	-0.028386496
167	0x3dd09e1d	0.10186408
168	0x3b83b580	0.004019439
169	0xbd8e22b5	-0.069402136
170	0x3d9879fb	0.07445141
171	0xbc8e47a0	-0.017368138
172	0x3d9ce98d	0.07661734
173	0x3d6ee262	0.058321364
174	0x3c84234c	0.016130112
175	0x3dbe4073	0.092896365
176	0x3d38fb9e	0.045161836
177	0x3d85bc81	0.06530095
178	0xbd000bb6	-0.03126117
179	0x3db89c75	0.09014217
180	0xbda7442c	-0.081673
181	0x3d431352	0.047625847
182	0x3d87e0f9	0.06634707
183	0x3dab97f5	0.08378593
184	0x3a689880	0.0008872822
185	0xbdbeeabb	-0.09322115
186	0xbd84d33c	-0.06485602
187	0x3d8f2795	0.069899715
188	0xbc915e48	-0.017745152
189	0x3a42dc00	0.0007433295
190	0xbd78e011	-0.06076056
191	0xbdd2e894	-0.10298267
192	0xbc315bf0	-0.010825142
193	0x3d082e42	0.03324724
194	0xbd338e2e	-0.043836765
195	0xbbe70d70	-0.0070511624
196	0x3ca26adc	0.019826345
197	0x3dd6e13f	0.10492181
198	0xbd9dc127	-0.077028565
199	0x3d94909b	0.07254144
200	0x3d3d8506	0.04626944
201	0x3d99892b	0.07496866
202	0x3dd4da1b	0.10393163
203	0xbd97d4b0	-0.07413614
204	0xbdb04a5d	-0.08607934
205	0xbd5d9d37	-0.05410501
206	0x3d537646	0.051626466
207	0xbd94ad52	-0.07259621
208	0x3d5c3b7a	0.05376766
209	0x3baafb00	0.00521791
210	0x3d24ebbe	0.040263884
211	0x3daf1215	0.08548371
212	0xbd823de0	-0.06359458
213	0xbae0a4c0	-0.0017138943
214	0x38ea2000	0.0001116395
215	0xbd53c479	-0.051701043
216	0x3cb1c504	0.02170039
217	0xbd1d2fec	-0.03837578
218	0x3dc44cc3	0.09584954
219	0x3dbff3b9	0.09372658
220	0xbce1a170	-0.0275428
221	0xbc1c4100	-0.009536982
222	0xbbc5e980	-0.0060397983
223	0xbda70fbd	-0.08157299
224	0x3dd36aad	0.10323081
225	0x3d15221e	0.03640949
226	0xbd6055dd	-0.054769386
227	0xbda9ef36	-0.08297579
228	0x3dc92b09	0.098226614
229	0x3d802277	0.06256574
230	0xbd7e8e1c	-0.062147245
231	0x3d3a72d2	0.045519657
232	0xbdaac92c	-0.08339152
233	0x3daf1f2b	0.08550867
234	0x3ddcacf3	0.10775175
235	0xbd2fe998	-0.04294738
236	0xbc6dfca8	-0.01452557
237	0xbc9fbce8	-0.019499257
238	0xbdaf6e0c	-0.08565912
239	0xbda284ea	-0.079355076
240	0xbd946c22	-0.07247187
241	0xbd762012	-0.06008918
242	0xbdc91e40	-0.09820223
243	0xbd2bd226	-0.04194846
244	0xbd40cd77	-0.047070947
245	0xbd8341f1	-0.06409062
246	0xbdb54b3e	-0.08852242
247	0x3c16ce10	0.009204403
248	0x3dcc849b	0.0998623
249	0x3c412f58	0.011791073
250	0xbdba95bb	-0.0911059
251	0xbdc10e37	-0.094265394
252	0x3d825e27	0.063656144
253	0x3d6e4bc6	0.058177732
254	0xbda4c1ed	-0.08044801
255	0xbb46b460	-0.0030319914

layers.1.bias f4 [64]
0	0x00000000	0.0
1	0x00000000	0.0
2	0x00000000	0.0
3	0x00000000	0.0
4	0x00000000	0.0
5	0x00000000	0.0
6	0x00000000	0.0
7	0x00000000	0.0
8	0x00000000	0.0
9	0x00000000	0.0
10	0x00000000	0.0
11	0x00000000	0.0
12	0x00000000	0.0
13	0x00000000	0.0
14	0x00000000	0.0
15	0x00000000	0.0
16	0x00000000	0.0
17	0x00000000	0.0
18	0x00000000	0.0
19	0x00000000	0.0
20	0x00000000	0.0
21	0x00000000	0.0
22	0x00000000	0.0
23	0x00000000	0.0
24	0x00000000	0.0
25	0x00000000	0.0
26	0x00000000	0.0
27	0x00000000	0.0
28	0x00000000	0.0
29	0x00000000	0.0
30	0x00000000	0.0
31	0x00000000	0.0
32	0x00000000	0.0
33	0x00000000	0.0
34	0x00000000	0.0
35	0x00000000	0.0
36	0x00000000	0.0
37	0x00000000	0.0
38	0x00000000	0.0
39	0x00000000	0.0
40	0x00000000	0.0
41	0x00000000	0.0
42	0x00000000	0.0
43	0x00000000	0.0
44	0x00000000	0.0
45	0x00000000	0.0
46	0x00000000	0.0
47	0x00000000	0.0
48	0x00000000	0.0
49	0x00000000	0.0
50	0x00000000	0.0
51	0x00000000	0.0
52	0x00000000	0.0
53	0x00000000	0.0
54	0x00000000	0.0
55	0x00000000	0.0
56	0x00000000	0.0
57	0x00000000	0.0
58	0x00000000	0.0
59	0x00000000	0.0
60	0x00000000	0.0
61	0x00000000	0.0
62	0x00000000	0.0
63	0x00000000	0.0

layers.1.lin.weight f4 [64, 128]
0	0xbcf6df90	-0.0301359
1	0xbc98ef18	-0.018668696
2	0x3cef1e28	0.029189184
3	0xbcf78870	-0.030216426
4	0xbd9fbdb2	-0.077998534
5	0x3c6baf30	0.01438503
6	0xbcc7a268	-0.024369434
7	0x3c81b198	0.015831754
8	0x3e1e2a61	0.15445854
9	0xbd89e76f	-0.067335956
10	0xbd9ebb3a	-0.077505544
11	0xbd8ac563	-0.0677593
12	0xbdc99485	-0.09842781
13	0xbcb604c0	-0.022219062
14	0xbd6a04c8	-0.057133466
15	0x3d304494	0.04303415
16	0x3dfd2252	0.12360062
17	0xbd00102c	-0.031265423
18	0xbe0bcd5c	-0.13652557
19	0xbd1fcaa8	-0.039011627
20	0x3b36c480	0.002788812
21	0xbe2a21fb	-0.16614525
22	0xbdd4ef2c	-0.10397181
23	0xb9836a00	-0.00025065243
24	0xbdbf7bfd	-0.09349821
25	0xbd8c66ef	-0.068555705
26	0xbdcee671	-0.10102547
27	0xbd137cf4	-0.036007836
28	0xbe1fc712	-0.15603283
29	0xbd55a572	-0.052159734
30	0xbb1d87c0	-0.0024037212
31	0xbdc0c4e7	-0.09412556
32	0xbe1548df	-0.1457858
33	0x3db4d83e	0.088303074
34	0x3e2c8c33	0.16850357
35	0x3b18edc0	0.002333507
36	0xbd1e29a0	-0.038613915
37	0xbd0544e8	-0.032536417
38	0xbe05f9a0	-0.13083506
39	0x3e0be6a1	0.13662197
40	0x3dd0ee92	0.10201754
41	0x3ce6f3c0	0.028192401
42	0xbd402488	-0.04690984
43	0x3e078789	0.13235296
44	0xbdff2ce9	-0.12459738
45	0x3d770ba0	0.06031382
46	0xbdf27a54	-0.118397385
47	0xbdb758eb	-0.08952507
48	0xbdbeffb4	-0.09326115
49	0x3de0fe76	0.109860346
50	0xbda17d7c	-0.07885262
51	0xbe19d8f0	-0.15024161
52	0x3d682764	0.05667819
53	0x3db3c692	0.08778109
54	0x3de9479a	0.1139061
55	0x3dcd0b3a	0.10011907
56	0xbd443834	-0.047905162
57	0xbd9b2d50	-0.07577002
58	0x3e0d7c65	0.13816984
59	0x3d780f38	0.06056139
60	0xbe222bca	-0.15837017
61	0xbe3009d2	-0.17191246
62	0x3e1360e5	0.14392431
63	0x3e078a41	0.13236333
64	0x3e12e3a7	0.14344655
65	0x3decb176	0.115572855
66	0x39198400	0.00014640391
67	0xbde94b82	-0.11391355
68	0xbda0d093	-0.078522824
69	0xbd791388	-0.060809642
70	0x3d0ee418	0.034885496
71	0xbddf0bd2	-0.108909264
72	0x3ccce0c0	0.025009513
73	0x3e0461ab	0.12927882
74	0xbe0e0c61	-0.1387191
75	0x3af0b200	0.0018363595
76	0x3daa1016	0.083038494
77	0x3da645de	0.08118795
78	0x3e0b609d	0.13611074
79	0x3cc810d0	0.02442208
80	0x3de13f36	0.10998385
81	0xbddd9bbd	-0.1082072
82	0xbcd6b360	-0.02620858
83	0xbc92d5a0	-0.01792413
84	0x3e1d4a07	0.1536027
85	0x3d523b38	0.051326007
86	0xbdd1ca0d	-0.10243616
87	0x3c7d7c50	0.015471533
88	0xbe23f1f1	-0.16010262
89	0x3da0f07a	0.07858367
90	0x3e16b655	0.14717992
91	0xbe112d99	-0.1417755
92	0xbd4c4434	-0.04986973
93	0x3d333270	0.043749273
94	0xbdf48002	-0.11938478
95	0x3d245bc0	0.040126562
96	0xbe1cf822	-0.1532903
97	0x3e17c3cb	0.14820783
98	0xbd833da6	-0.06408243
99	0x3de40bd6	0.1113507
100	0x3d95a73e	0.073072895
101	0xbe1f5fc9	-0.15563883
102	0xbcd2b980	-0.025723219
103	0xbdcc5291	-0.09976686
104	0x3d944898	0.07240409
105	0xbe10bee4	-0.14135319
106	0x3dff5bae	0.124686584
107	0xbda2c496	-0.07947652
108	0xbd7744f8	-0.060368508
109	0xbe1f4578	-0.15553844
110	0xbd9376d7	-0.07200401
111	0x3cc75ff0	0.024337739
112	0x3dd2df3a	0.10296483
113	0x3e11e7ab	0.1424853
114	0xbd804c04	-0.06264499
115	0xbe1fd7ed	-0.15609713
116	0x3d98e746	0.07465987
117	0x3cfc9690	0.030833513
118	0xbd31dfc8	-0.043426305
119	0x3e2eccb9	0.17070283
120	0x3de5644e	0.11200772
121	0x3dbba74a	0.09162767
122	0x3d4209f8	0.04737279
123	0x3db10e2e	0.08645283
124	0x3cf20230	0.029542059
125	0xbd683458	-0.056690544
126	0xbd1da954	-0.038491562
127	0xbb0359c0	-0.002004251
128	0xbd1558bc	-0.036461577
129	0x3de96afe	0.1139736
130	0xbdb1117a	-0.086459115
131	0x3b167240	0.0022956282
132	0x3d0cbe88	0.034361392
133	0x3d7de344	0.061984316
134	0x3dbfa4aa	0.09357579
135	0x3e26b359	0.16279353
136	0xbdf8409d	-0.12121699
137	0xbd6059c0	-0.054773092
138	0x3d30cd7c	0.043164715
139	0x3da3d85a	0.0800025
140	0x3d8fe4c8	0.070260584
141	0xbdf29c89	-0.11846263
142	0x3e33617d	0.17517658
143	0xbd4bbb34	-0.049739078
144	0xbd06398c	-0.032769725
145	0xbe09903e	-0.1343393
146	0x3dd0c162	0.10193135
147	0x3c9cb2c8	0.019128218
148	0x3e018207	0.12647258
149	0xbd8bc11b	-0.06823941
150	0xbc817430	-0.015802473
151	0x3d57b198	0.0526596
152	0xbe0d856a	-0.13820425
153	0xbdb5d6fb	-0.08878895
154	0xbe18039c	-0.14845127
155	0xbd8f8095	-0.07006947
156	0x3db376ca	0.087628916
157	0x3e0b92b5	0.13630183
158	0x3bff7aa0	0.0077966005
159	0xbda0c956	-0.07850902
160	0x3dce8f6e	0.10085951
161	0x3d94bd7a	0.07262702
162	0x3bbad560	0.005701706
163	0x3cc8dcc0	0.024519324
164	0xbe090127	-0.13379346
165	0x3d81e35a	0.06342192
166	0xbe2173b7	-0.15766798
167	0x39284000	0.0001604557
168	0xbe06a781	-0.13149835
169	0xbe241ea8	-0.1602732
170	0x3b7a1f40	0.00381656
171	0xbe04768a	-0.12935844
172	0xbd92f23c	-0.07175109
173	0xbc761700	-0.015020132
174	0xbe0bf7ec	-0.13668793
175	0xbc98cad8	-0.018651411
176	0x3e2329cb	0.15933912
177	0x3d9a897e	0.07545756
178	0x3b4424c0	0.0029929131
179	0xbd1b07cc	-0.037849233
180	0xbe0790c0	-0.13238811
181	0x3ddd23f2	0.10797872
182	0xbdb2856d	-0.08716855
183	0x3caf18c0	0.021374106
184	0x3df04df6	0.1173362
185	0xbd071b24	-0.032984868
186	0xbe15bb5e	-0.14622256
187	0xbdc688d9	-0.0969407
188	0x3db3c902	0.087785736
189	0x3e0da1d9	0.13831271
190	0x3dd0d806	0.10197453
191	0x3d83b7cc	0.06431541
192	0xbdd9f344	-0.10642102
193	0xbe1a19d7	-0.1504892
194	0xbdad9cf7	-0.08477204
195	0xbe0abbc9	-0.13548197
196	0xbd51a338	-0.05118105
197	0xbdac85e6	-0.084239766
198	0x3db0f1ee	0.086398944
199	0x3e1d0c15	0.1533664
200	0x3e1c15a1	0.15242626
201	0x3c6f4d30	0.014605805
202	0xbbe38fe0	-0.0069446415
203	0x3e19b949	0.15012087
204	0x3dd62be2	0.10457589
205	0x3d7ec8a4	0.062203065
206	0x3a303b00	0.0006722659
207	0xbe155513	-0.14583234
208	0x3e1429f7	0.14469133
209	0xbc1264b0	-0.008935139
210	0xbdfcac8a	-0.12337597
211	0xbda8082d	-0.082046844
212	0x3d1aa654	0.03775628
213	0xbe1e34ce	-0.15449831
214	0xbdfe7716	-0.124250576
215	0xbe047aad	-0.12937422
216	0x3e0bf727	0.136685
217	0xbcc39478	-0.023874506
218	0xbde55ac7	-0.11198955
219	0xbdb4a2b2	-0.08820094
220	0xbe08f10d	-0.13373204
221	0xbd5717ba	-0.05251286
222	0x3e03b6cf	0.12862705
223	0xbe09fb59	-0.13474788
224	0xbd3e5368	-0.04646626
225	0xbdd07099	-0.10177726
226	0xbe2bf6f6	-0.16793427
227	0xbdc0a90a	-0.09407242
228	0x3e021b17	0.12705646
229	0x3d894198	0.06701964
230	0xbe03207c	-0.1280536
231	0xbde93f36	-0.1138901
232	0xbd8b4212	-0.06799711
233	0xbd61f490	-0.055164874
234	0x3e123827	0.14279233
235	0x3e12e47d	0.14344974
236	0x3d277b78	0.040889233
237	0xbdce824c	-0.10083446
238	0xbd17ff6c	-0.037108824
239	0xbe1a0842	-0.15042213
240	0xbe32d7d4	-0.17465144
241	0x3da6dfc6	0.0814815
242	0xbe2cf5a6	-0.16890582
243	0xbdc388eb	-0.095475994
244	0x3caeefa0	0.021354496
245	0xbc4af440	-0.012387335
246	0x3e21e32b	0.15809314
247	0x3e16e2bd	0.14734931
248	0xbcf39378	-0.029733405
249	0xbe1c87a6	-0.15286121
250	0x3d8c4588	0.068491995
251	0xbd8c45a5	-0.06849221
252	0xbd787266	-0.060655974
253	0x3e07848b	0.13234155
254	0xbdc15eb9	-0.09441895
255	0xbd14e5d0	-0.03635198
