models/hybrid_recommender_20250428_105722/gnn_model.pt (torch, 232480 bytes, 4 tensors)

layers.0.bias f4 [128]
0.0 0.0 0.0 0.0 0.0 0.0 0.0 0.0
0.0 0.0 0.0 0.0 0.0 0.0 0.0 0.0
0.0 0.0 0.0 0.0 0.0 0.0 0.0 0.0
0.0 0.0 0.0 0.0 0.0 0.0 0.0 0.0
0.0 0.0 0.0 0.0 0.0 0.0 0.0 0.0
0.0 0.0 0.0 0.0 0.0 0.0 0.0 0.0
0.0 0.0 0.0 0.0 0.0 0.0 0.0 0.0
0.0 0.0 0.0 0.0 0.0 0.0 0.0 0.0
0.0 0.0 0.0 0.0 0.0 0.0 0.0 0.0
0.0 0.0 0.0 0.0 0.0 0.0 0.0 0.0
0.0 0.0 0.0 0.0 0.0 0.0 0.0 0.0
0.0 0.0 0.0 0.0 0.0 0.0 0.0 0.0
0.0 0.0 0.0 0.0 0.0 0.0 0.0 0.0
0.0 0.0 0.0 0.0 0.0 0.0 0.0 0.0
0.0 0.0 0.0 0.0 0.0 0.0 0.0 0.0
0.0 0.0 0.0 0.0 0.0 0.0 0.0 0.0
00000000: 0000 0000 0000 0000 0000 0000 0000 0000
00000010: 0000 0000 0000 0000 0000 0000 0000 0000
00000020: 0000 0000 0000 0000 0000 0000 0000 0000
00000030: 0000 0000 0000 0000 0000 0000 0000 0000
00000040: 0000 0000 0000 0000 0000 0000 0000 0000
00000050: 0000 0000 0000 0000 0000 0000 0000 0000
00000060: 0000 0000 0000 0000 0000 0000 0000 0000
00000070: 0000 0000 0000 0000 0000 0000 0000 0000
00000080: 0000 0000 0000 0000 0000 0000 0000 0000
00000090: 0000 0000 0000 0000 0000 0000 0000 0000
000000a0: 0000 0000 0000 0000 0000 0000 0000 0000
000000b0: 0000 0000 0000 0000 0000 0000 0000 0000
000000c0: 0000 0000 0000 0000 0000 0000 0000 0000
000000d0: 0000 0000 0000 0000 0000 0000 0000 0000
000000e0: 0000 0000 0000 0000 0000 0000 0000 0000
000000f0: 0000 0000 0000 0000 0000 0000 0000 0000
00000100: 0000 0000 0000 0000 0000 0000 0000 0000
00000110: 0000 0000 0000 0000 0000 0000 0000 0000
00000120: 0000 0000 0000 0000 0000 0000 0000 0000
00000130: 0000 0000 0000 0000 0000 0000 0000 0000
00000140: 0000 0000 0000 0000 0000 0000 0000 0000
00000150: 0000 0000 0000 0000 0000 0000 0000 0000
00000160: 0000 0000 0000 0000 0000 0000 0000 0000
00000170: 0000 0000 0000 0000 0000 0000 0000 0000
00000180: 0000 0000 0000 0000 0000 0000 0000 0000
00000190: 0000 0000 0000 0000 0000 0000 0000 0000
000001a0: 0000 0000 0000 0000 0000 0000 0000 0000
000001b0: 0000 0000 0000 0000 0000 0000 0000 0000
000001c0: 0000 0000 0000 0000 0000 0000 0000 0000
000001d0: 0000 0000 0000 0000 0000 0000 0000 0000
000001e0: 0000 0000 0000 0000 0000 0000 0000 0000
000001f0: 0000 0000 0000 0000 0000 0000 0000 0000

layers.0.lin.weight f4 [128, 384]
-0.06556457 -0.090176746 0.04287406 -0.08647524 0.08621519 0.036312602 0.090037264 -0.04627257
0.020598598 -0.08799514 0.05695527 -0.016181633 -0.08073346 0.09478571 -0.046875775 0.071046
-0.09421147 -0.10148981 0.052469276 -0.08824871 0.08957816 -0.03881897 0.00076378137 -0.08230625
-0.05632408 0.072500415 -0.065344006 -0.08673848 -0.033191115 -0.023931675 -0.08073132 0.039959274
-0.012105368 -0.06592041 0.005700819 -0.107109554 0.038997687 0.051745437 -0.07775466 0.10430207
0.081930794 -0.03587485 0.010710865 -0.04123152 0.06205844 0.023907803 0.076972224 0.068075545
0.016302831 0.104338504 0.029159479 -0.03867306 -0.10790096 -0.05122279 -0.052371033 -0.048317317
0.061337434 0.024306037 -0.02193427 0.030273505 -0.041309968 -0.09822794 0.06877827 0.042795055
-0.10549458 -0.092898585 0.089947484 -0.054968458 0.04664988 -0.07803698 0.08426014 0.051939674
0.023962937 0.0043934733 -0.012489416 -0.0860835 -0.0013890341 -0.0010761842 -0.064585 -0.0925911
-0.10753722 -0.020442508 -0.107629165 -0.10238985 -0.07979535 0.065584905 -0.10746854 -0.09051964
-0.008844189 0.03185048 0.10036097 0.040557854 -0.061287414 0.09355474 0.037997715 0.09000518
0.012801729 0.07320174 -0.019669533 -0.03551235 -0.03745748 0.088519864 -0.0040301606 0.021151341
-0.030850276 0.05832077 -0.026475064 -0.039169967 -0.018111996 -0.024575442 -0.09752141 0.10283341
-0.014792614 0.08505989 0.06744129 -0.0662172 0.06967919 0.1078384 -0.0013834089 0.05527065
0.0436581 0.06585913 0.01622916 0.037184097 -0.02337356 -0.10259187 0.012996495 0.037660845
-0.041019432 0.08781833 0.00050166994 -0.10098862 0.033284344 0.072295226 -0.04259383 -0.04468497
0.048541196 0.009656325 0.099643 -0.052668642 -0.055187903 -0.06765099 0.011846423 -0.011480227
0.0772235 0.069433875 0.08796763 -0.102455646 -0.0010480657 -0.08163272 -0.058287 -0.0071557686
-0.0614532 -0.106673755 0.069555245 0.10525412 -0.019573398 0.08323077 0.07465435 0.042089514
0.09216999 -0.023664184 -0.040773824 0.06928576 -0.04000306 -0.08281929 0.027919881 0.08255882
-0.08989919 -0.075689316 0.10131217 0.023941852 0.012845576 0.07460543 0.09672495 0.0790249
-0.09454198 0.02838131 0.08038161 0.09551955 -0.052679922 0.100836344 0.08576488 0.08328078
0.04365634 0.033619948 0.07775984 -0.014332339 -0.018149465 0.0057454035 -0.035881817 0.09218196
-0.019511707 -0.019424021 0.072449945 0.085970454 0.009677105 -0.054885413 0.101330005 -0.018072635
0.093924485 0.007165082 0.07881173 -0.09869674 0.03064195 0.07011079 -0.046491303 0.020618208
0.06952643 0.0634614 -0.074021965 0.018817268 -0.08459738 0.035618134 0.044449188 0.021867357
-0.056651358 0.03465555 -0.05935164 0.0070812777 -0.07332124 0.07850113 -0.039921746 0.0057536885
-0.018388592 0.08538126 -0.023345552 -0.022343934 -0.0067628697 -0.03509759 0.06199258 0.08878296
0.07906409 0.018332966 -0.018100105 -0.07899471 -0.017032132 -0.087692365 -0.10613942 0.051271074
-0.009354778 0.06079609 -0.047540475 0.09747269 -0.030092523 -0.08736704 -0.0041718557 -0.03229665
0.008061968 -0.029676512 -0.08183052 0.038880818 0.09689518 0.09495481 0.07156924 -0.008892141
00000000: b846 86bd 96ae b8bd b69c 2f3d ee19 b1bd
00000010: 9791 b03d 86bc 143d 7565 b83d 4e88 3dbd
00000020: 64be a83c cc36 b4bd ee49 693d 588f 84bc
00000030: 9657 a5bd 031f c23d d000 40bd 9180 913d
00000040: f1f1 c0bd e4d9 cfbd 06ea 563d bdbb b4bd
00000050: c174 b73d a400 1fbd 8038 483a 2e90 a8bd
00000060: 14b4 66bd 197b 943d 14d3 85bd f2a3 b1bd
00000070: 68f3 07bd 5c0c c4bc 7656 a5bd 56ac 233d
00000080: 9855 46bc 4801 87bd f0cd ba3b 415c dbbd
00000090: 0abc 1f3d 06f3 533d d63d 9fbd 539c d53d
000000a0: 55cb a73d 82f1 12bd a07c 2f3c 62e2 28bd
000000b0: fe30 7e3d 4cda c33c 9da3 9d3d 316b 8b3d
000000c0: 848d 853c 6daf d53d dcdf ee3c a467 1ebd
000000d0: 2efb dcbd fdce 51bd 0283 56bd 61e8 45bd
000000e0: f63c 7b3d 741d c73c 80af b3bc 2400 f83c
000000f0: a434 29bd bb2b c9bd 9fdb 8c3d de49 2f3d
00000100: 8b0d d8bd 9d41 bebd 6336 b83d 9b26 61bd
00000110: f213 3f3d dad1 9fbd 9590 ac3d b2be 543d
00000120: ec4d c43c 20f7 8f3b 68a0 4cbc 8c4c b0bd
00000130: 4010 b6ba c00e 8dba 2445 84bd 67a0 bdbd
00000140: 793c dcbd 0c77 a7bc ae6c dcbd c5b1 d1bd
00000150: bf6b a3bd 6151 863d 7718 dcbd 5c62 b9bd
00000160: 38e7 10bc a675 023d 0d8a cd3d fe1f 263d
00000170: 8308 7bbd a199 bf3d 7ea3 1b3d a354 b83d
00000180: 58be 513c cbea 953d 0022 a1bc 6675 11bd
00000190: 046d 19bd e749 b53d 700f 84bb 9445 ad3c
000001a0: b8b9 fcbc c2e1 6e3d 3ce2 d8bc b070 20bd
000001b0: 9c5f 94bc 7052 c9bc 4eb9 c7bd 539a d23d
000001c0: b85c 72bc e133 ae3d a91e 8a3d e29c 87bd
000001d0: f7b3 8e3d 61da dc3d 8053 b5ba 7a63 623d
000001e0: d6d2 323d 27e1 863d 04f3 843c 5a4e 183d
000001f0: e879 bfbc b01b d2bd 40ef 543c 4242 1a3d
00000200: fe03 28bd 19da b33d 8082 033a 1fd3 cebd
00000210: 2a55 083d 850f 943d de76 2ebd 9607 37bd
00000220: 22d3 463d 9035 1e3c a111 cc3d 13bb 57bd
00000230: b60c 62bd 9a8c 8abd 8017 423c 9017 3cbc
00000240: 5b27 9e3d 5933 8e3d 5f28 b43d 44d4 d1bd
00000250: 405f 89ba 0e2f a7bd 59be 6ebd f07a eabb
00000260: 5ab6 7bbd c577 dabd fb72 8e3d 798f d73d
00000270: 6458 a0bc e574 aa3d 61e4 983d 0e66 2c3d
00000280: 9fc3 bc3d 64db c1bc 7402 27bd b1e5 8d3d
00000290: 40da 23bd 299d a9bd 3cb8 e43c 9914 a93d
000002a0: 111d b8bd 0003 9bbd c17c cf3d b421 c43c
000002b0: 4076 523c bbca 983d bb17 c63d cfd7 a13d
000002c0: 3a9f c1bd ec7f e83c 1d9f a43d c19f c33d
000002d0: e7c6 57bd 4983 ce3d 7fa5 af3d 1d8f aa3d
000002e0: fed0 323d 12b5 093d 8d40 9f3d 30d2 6abc
000002f0: 30ae 94bc f043 bc3b d0f8 12bd e5c9 bc3d
00000300: 04d7 9fbc 201f 9fbc a360 943d 4711 b03d
00000310: b88c 1e3c 87cf 60bd 1b86 cf3d 100d 94bc
00000320: 7b5b c03d 10c9 ea3b 0b68 a13d 8421 cabd
00000330: d404 fb3c 3f96 8f3d aa6d 3ebd 84e7 a83c
00000340: df63 8e3d 0df8 813d d498 97bd ac26 9a3c
00000350: 6441 adbd 52e4 113d 5a10 363d 2c23 b33c
00000360: 410b 68bd faf2 0d3d b51a 73bd 100a e83b
00000370: 7229 96bd 33c5 a03d fc84 23bd 7089 bc3b
00000380: aca3 96bc 5fdc ae3d 2c3f bfbc a00a b7bc
00000390: 109b ddbb 7ec2 0fbd eeeb 7d3d d7d3 b53d
000003a0: 5bec a13d 042f 963c ac46 94bc fbc7 a1bd
000003b0: f886 8bbc 0e98 b3bd a05f d9bd 9e01 523d
000003c0: c844 19bc 5205 793d cdb9 42bd c39f c73d
000003d0: 9884 f6bc 7eed b2bd 10b4 88bb 7e49 04bd
000003e0: 5816 043c 281c f3bc c296 a7bd 7e41 1f3d
000003f0: fb70 c63d ab77 c23d e592 923d 58b0 11bc

layers.1.bias f4 [64]
0.0 0.0 0.0 0.0 0.0 0.0 0.0 0.0
0.0 0.0 0.0 0.0 0.0 0.0 0.0 0.0
0.0 0.0 0.0 0.0 0.0 0.0 0.0 0.0
0.0 0.0 0.0 0.0 0.0 0.0 0.0 0.0
0.0 0.0 0.0 0.0 0.0 0.0 0.0 0.0
0.0 0.0 0.0 0.0 0.0 0.0 0.0 0.0
0.0 0.0 0.0 0.0 0.0 0.0 0.0 0.0
0.0 0.0 0.0 0.0 0.0 0.0 0.0 0.0
00000000: 0000 0000 0000 0000 0000 0000 0000 0000
00000010: 0000 0000 0000 0000 0000 0000 0000 0000
00000020: 0000 0000 0000 0000 0000 0000 0000 0000
00000030: 0000 0000 0000 0000 0000 0000 0000 0000
00000040: 0000 0000 0000 0000 0000 0000 0000 0000
00000050: 0000 0000 0000 0000 0000 0000 0000 0000
00000060: 0000 0000 0000 0000 0000 0000 0000 0000
00000070: 0000 0000 0000 0000 0000 0000 0000 0000
00000080: 0000 0000 0000 0000 0000 0000 0000 0000
00000090: 0000 0000 0000 0000 0000 0000 0000 0000
000000a0: 0000 0000 0000 0000 0000 0000 0000 0000
000000b0: 0000 0000 0000 0000 0000 0000 0000 0000
000000c0: 0000 0000 0000 0000 0000 0000 0000 0000
000000d0: 0000 0000 0000 0000 0000 0000 0000 0000
000000e0: 0000 0000 0000 0000 0000 0000 0000 0000
000000f0: 0000 0000 0000 0000 0000 0000 0000 0000

layers.1.lin.weight f4 [64, 128]
0.017506346 0.17371355 -0.10323946 0.06451619 -0.08947169 -0.15231036 -0.05507967 0.035554007
0.048618734 -0.15856837 -0.1670784 0.12105326 -0.018797457 -0.09184215 0.11958687 0.09799875
-0.08075467 0.12059431 -0.1573799 0.03925447 -0.13179593 0.061290383 0.047688648 0.032845274
-0.061315782 0.039426118 -0.11508308 0.16161762 0.12837334 0.1411687 0.1066093 0.11764024
0.10989942 -0.11283228 -0.009212226 0.16531383 -0.09424537 0.05627641 -0.16931398 -0.02922155
-0.14237757 -0.1452233 0.0738595 0.065791994 -0.050611943 -0.1021078 0.10102384 0.14501376
0.004847482 -0.15533271 0.15365885 0.15918632 -0.061065853 0.00996916 0.08344047 0.025725633
-0.15933673 -0.15315458 0.009626612 -0.16483973 0.015496075 0.111102626 0.094324574 0.028033063
0.05258873 -0.14807469 0.1535211 0.14098935 -0.087773465 0.17654125 -0.04161337 -0.03776546
-0.05505883 -0.043323144 0.08412756 0.063318536 0.10666542 -0.16469344 -0.03017971 0.15568517
0.021003693 -0.028097793 -0.026414067 -0.018424347 0.15412079 -0.07427145 0.055707052 0.03893882
-0.09924576 -0.05565089 -0.13194518 0.0047412217 -0.07233682 -0.0763837 -0.13222954 -0.15770352
-0.07705265 -0.101623066 0.10953073 0.17115043 -0.060308702 -0.0071910173 0.031373054 -0.1205011
0.07983385 0.037096933 0.1512719 -0.02348359 -0.06735186 0.12201901 -0.08096936 -0.1218843
-0.10974637 0.14140444 -0.010603368 -0.055204086 0.028860167 0.10585676 -0.17514868 -0.11826444
0.104720876 0.118040726 0.16025706 -0.09945529 0.0031317472 -0.043824658 -0.058446042 0.0069046915
0.1272748 -0.1381455 0.009461075 0.06762573 -0.01846923 0.115278795 0.11369108 -0.12713686
-0.09551304 -0.14667946 -0.027247429 0.09710415 -0.026468277 0.058768466 0.045352638 0.11388029
0.15480493 0.037449077 -0.056484617 -0.027368352 -0.03925851 -0.081224814 0.17555757 -0.13704146
0.1636331 0.11750163 -0.17406994 0.17075886 0.17181985 -0.12950167 -0.06505769 0.17194073
0.109186485 -0.11248138 -0.13881536 0.103584066 0.1678349 0.05389996 0.12635101 -0.1677257
-0.1397452 0.09199719 0.17076294 -0.041415796 -0.07130532 -0.15827785 -0.08722882 0.14085035
0.07263531 -0.111756645 -0.1581328 0.033379585 -0.16040349 0.15009953 -0.004399687 0.032724082
-0.08249525 0.020963311 0.062248707 -0.05261364 0.0025548935 -0.085303135 -0.004312277 -0.13586971
-0.07986501 -0.005237207 -0.102741875 -0.13134703 0.15670978 -0.13901716 0.051045656 -0.06346091
-0.15250528 0.13730235 0.012671575 -0.063922755 0.1579216 0.12942891 -0.05440945 0.0953853
0.038110316 -0.053901352 0.03661588 0.09034006 -0.042677283 -0.16354705 -0.0707351 0.10656662
-0.08199193 -0.11333844 -0.03147316 -0.041971922 0.06537677 -0.15223016 -0.05163665 -0.17376283
0.1385478 -0.07432822 0.030666366 -0.11997486 -0.077057146 0.09961052 0.0719053 -0.11441141
-0.15057214 -0.17633095 0.17026602 0.15323178 -0.08763908 -0.11114916 0.10952397 -0.09030984
-0.0064611733 -0.14027122 0.14223094 0.09339665 -0.11151251 0.12967335 0.11816834 -0.07429943
0.021288842 0.10188888 0.11820622 0.0053851455 -0.03794284 0.030064985 -0.17563793 0.15518485
00000000: 7869 8f3c f7e1 313e 366f d3bd 1021 843d
00000010: ef3c b7bd 3ff7 1bbe 389b 61bd 14a1 113d
00000020: 7024 473d bf5f 22be 9a16 2bbe c6ea f73d
00000030: 20fd 99bc bd17 bcbd f6e9 f43d 92b3 c83d
00000040: b462 a5bd 26fa f63d 3228 21be 4cc9 203d
00000050: 83f5 06be a00b 7b3d 2c55 433d c488 063d
00000060: 4226 7bbd 487d 213d aeb0 ebbd 177f 253e
00000070: 4d74 033e 878e 103e fa55 da3d 5eed f03d
00000080: f212 e13d 9c14 e7bd e0ee 16bc 0748 293e
00000090: b703 c1bd 1882 663d a560 2dbe 0862 efbc
000000a0: 6dcb 11be 6bb5 14be a643 973d f4bd 863d
000000b0: 784e 4fbd e51d d1bd 96e5 ce3d 7d7e 143e
000000c0: a0d7 9e3b 8a0f 1fbe bf58 1d3e bd01 233e
000000d0: 3020 7abd b055 233c d6e2 aa3d 90be d23c
000000e0: 2b29 23be 8ed4 1cbe f0b8 1d3c bfcb 28be
000000f0: 40e3 7d3c c689 e33d 3e2d c13d 98a5 e53c
00000100: 4867 573d e4a0 17be a334 1d3e 835f 103e
00000110: 93c2 b3bd 3bc7 343e c872 2abd f4af 1abd
00000120: 5e85 61bd 9c73 31bd 124b ac3d 26ad 813d
00000130: 6673 da3d 66a5 28be 703b f7bc ef6b 1f3e
00000140: f00f ac3c 582d e6bc 5062 d8bc a8ee 96bc
00000150: d7d1 1d3e a11b 98bd 142d 643d 507e 1f3d
00000160: 5c41 cbbd 30f2 63bd a31c 07be 405c 9b3b
00000170: 5425 94bd 0f6f 9cbd 2e67 07be 087d 21be
00000180: c8cd 9dbd c11f d0bd a651 e03d 0f42 2f3e
00000190: 4206 77bd a0a2 ebbb 0881 003d 48c9 f6bd
000001a0: ee7f a33d f4f2 173d 05e7 1a3e a860 c0bc
000001b0: c6ef 89bd 1ae5 f93d 44d3 a5bd 7a9e f9bd
000001c0: b4c2 e0bd 53cc 103e c0b9 2dbc ae1d 62bd
000001d0: 286c ec3c 6ecb d83d 2d5a 33be a034 f2bd
000001e0: e677 d63d 56bf f13d 6d1a 243e 37af cbbd
000001f0: 003e 4d3b 7c81 33bd 1e65 6fbd c040 e23b
00000200: 5354 023e 0476 0dbe a002 1b3c 5c7f 8a3d
00000210: c84c 97bc 4a17 ec3d ded6 e83d 2a30 02be
00000220: 579c c3bd 2433 16be 0036 dfbc 8ade c63d
00000230: 00d4 d8bc 34b7 703d b0c3 393d 123a e93d
00000240: 2f85 1e3e 3464 193d 6a5c 67bd 9833 e0bc
00000250: 88cd 20bd 3259 a6bd 5dc5 333e 9954 0cbe
00000260: 6f8f 273e b2a4 f03d 643f 32be 69db 2e3e
00000270: 8bf1 2f3e 169c 04be f73c 85bd 3b11 303e
00000280: 2a9d df3d a35c e6bd 9d25 0ebe e223 d43d
00000290: e9dc 2b3e 34c6 5c3d 2962 013e 49c0 2bbe
000002a0: 5e19 0fbe 0669 bc3d 7bdc 2e3e 9ca3 29bd
000002b0: 8608 92bd 9713 22be 06a5 b2bd 133b 103e
000002c0: d2c1 943d abe0 e4bd 91ed 21be 08b9 083d
000002d0: d040 24be b1b3 193e 402b 90bb b009 063d
000002e0: 45f3 a8bd 40bb ab3c 80f8 7e3d 6681 57bd
000002f0: 0070 273b 69b3 aebd 004e 8dbb 6e21 0bbe
00000300: 4490 a3bd e09c abbb 556a d2bd d67f 06be
00000310: 8778 203e 845a 0ebe 4015 513d cbf7 81bd
00000320: 582a 1cbe fd98 0c3e 709c 4f3c efe9 82bd
00000330: 33b6 213e 0389 043e 72dc 5ebd 5e59 c33d
00000340: 9019 1c3d aac7 5cbd 88fa 153d 3604 b93d
00000350: 60ce 2ebd e178 27be 90dd 90bd 9a3f da3d
00000360: 63eb a7bd fc1d e8bd 00ea 00bd c0ea 2bbd
00000370: 42e4 853d 39e2 1bbe f480 53bd e2ee 31be
00000380: 79df 0d3e 6539 98bd 0838 fb3c 61b5 f5bd
00000390: 23d0 9dbd 9a00 cc3d 1643 933d 8850 eabd
000003a0: 952f 1abe 1a90 34be 375a 2e3e cbe8 1c3e
000003b0: 1e7c b3bd 2ca2 e3bd 1a4e e03d 5ef4 b8bd
000003c0: 40b8 d3bb 42a3 0fbe fda4 113e be46 bf3d
000003d0: ac60 e4bd 17c9 043e 3e02 f23d 4d2a 98bd
000003e0: f065 ae3c 1eab d03d 1a16 f23d e075 b03b
000003f0: f469 1bbd d84a f63c 6eda 33be c7e8 1e3e
