models/hybrid_recommender_20250428_104756/gnn_model.pt (torch, 232480 bytes, 4 tensors)

layers.0.bias f4 [128]
0.0 0.0 0.0 0.0 0.0 0.0 0.0 0.0
0.0 0.0 0.0 0.0 0.0 0.0 0.0 0.0
0.0 0.0 0.0 0.0 0.0 0.0 0.0 0.0
0.0 0.0 0.0 0.0 0.0 0.0 0.0 0.0
0.0 0.0 0.0 0.0 0.0 0.0 0.0 0.0
0.0 0.0 0.0 0.0 0.0 0.0 0.0 0.0
0.0 0.0 0.0 0.0 0.0 0.0 0.0 0.0
0.0 0.0 0.0 0.0 0.0 0.0 0.0 0.0
0.0 0.0 0.0 0.0 0.0 0.0 0.0 0.0
0.0 0.0 0.0 0.0 0.0 0.0 0.0 0.0
0.0 0.0 0.0 0.0 0.0 0.0 0.0 0.0
0.0 0.0 0.0 0.0 0.0 0.0 0.0 0.0
0.0 0.0 0.0 0.0 0.0 0.0 0.0 0.0
0.0 0.0 0.0 0.0 0.0 0.0 0.0 0.0
0.0 0.0 0.0 0.0 0.0 0.0 0.0 0.0
0.0 0.0 0.0 0.0 0.0 0.0 0.0 0.0
00000000: 0000 0000 0000 0000 0000 0000 0000 0000
00000010: 0000 0000 0000 0000 0000 0000 0000 0000
00000020: 0000 0000 0000 0000 0000 0000 0000 0000
00000030: 0000 0000 0000 0000 0000 0000 0000 0000
00000040: 0000 0000 0000 0000 0000 0000 0000 0000
00000050: 0000 0000 0000 0000 0000 0000 0000 0000
00000060: 0000 0000 0000 0000 0000 0000 0000 0000
00000070: 0000 0000 0000 0000 0000 0000 0000 0000
00000080: 0000 0000 0000 0000 0000 0000 0000 0000
00000090: 0000 0000 0000 0000 0000 0000 0000 0000
000000a0: 0000 0000 0000 0000 0000 0000 0000 0000
000000b0: 0000 0000 0000 0000 0000 0000 0000 0000
000000c0: 0000 0000 0000 0000 0000 0000 0000 0000
000000d0: 0000 0000 0000 0000 0000 0000 0000 0000
000000e0: 0000 0000 0000 0000 0000 0000 0000 0000
000000f0: 0000 0000 0000 0000 0000 0000 0000 0000
00000100: 0000 0000 0000 0000 0000 0000 0000 0000
00000110: 0000 0000 0000 0000 0000 0000 0000 0000
00000120: 0000 0000 0000 0000 0000 0000 0000 0000
00000130: 0000 0000 0000 0000 0000 0000 0000 0000
00000140: 0000 0000 0000 0000 0000 0000 0000 0000
00000150: 0000 0000 0000 0000 0000 0000 0000 0000
00000160: 0000 0000 0000 0000 0000 0000 0000 0000
00000170: 0000 0000 0000 0000 0000 0000 0000 0000
00000180: 0000 0000 0000 0000 0000 0000 0000 0000
00000190: 0000 0000 0000 0000 0000 0000 0000 0000
000001a0: 0000 0000 0000 0000 0000 0000 0000 0000
000001b0: 0000 0000 0000 0000 0000 0000 0000 0000
000001c0: 0000 0000 0000 0000 0000 0000 0000 0000
000001d0: 0000 0000 0000 0000 0000 0000 0000 0000
000001e0: 0000 0000 0000 0000 0000 0000 0000 0000
000001f0: 0000 0000 0000 0000 0000 0000 0000 0000

layers.0.lin.weight f4 [128, 384]
0.012126267 0.08250541 0.044968 0.10393848 -0.094024785 -0.013110496 0.033994935 0.026393749
0.104700394 -0.008335821 -0.032288812 -0.016349971 0.06650508 -0.018675193 -0.029860444 0.037492
0.10394546 -0.016619235 0.004075177 -0.040124886 -0.01085832 0.068550475 -0.08235992 0.037967287
-0.090152666 0.065324076 -0.08966698 -0.08465365 -0.04533118 -0.056251116 -0.010810673 0.018226944
0.07226803 -0.046668913 0.100865744 0.02510377 0.08734053 0.004627794 -0.0049925223 -0.038896322
0.013950281 -0.07172567 0.047134362 0.07432597 0.0063291267 0.0027104914 -0.08807886 0.008730061
0.00588163 0.105919994 -0.08324391 0.084776126 -0.045620747 0.09828823 -0.0466765 -0.03915059
0.08736669 0.0660971 -0.05655088 -0.07864568 0.1014973 0.10438282 -0.006207198 -0.10767874
-0.10737973 0.08133834 -0.07132107 -0.003993824 -0.09428203 0.031110443 -0.10357329 0.09261254
0.0661088 -0.0073293895 0.04141628 -0.050246507 -0.09669069 -0.048350133 0.059181087 -0.10231365
0.058699377 -0.008774713 0.07646566 -0.056438245 0.008504137 -0.022826098 0.07581199 -0.01197698
-0.031244263 -0.07681644 0.040813453 -0.067156285 0.008195505 -0.072243795 -0.06463145 0.03659288
-0.066924185 -0.013650864 -0.06089615 -0.01898998 0.01757387 -0.042090088 -0.05199847 0.023609899
-0.1025973 -0.08679275 0.0408997 0.041897483 0.099316396 -0.039673008 -0.046396945 0.013635531
0.08372008 0.09769555 0.020657845 0.092907734 0.010419577 -0.106305815 0.013569377 0.014021896
-0.066620156 -0.06846558 -0.08700754 -0.0004704073 0.056575947 0.0031181052 -0.05014239 -0.10029599
-0.05717076 0.1080311 -0.04100854 0.0032129064 -0.09658647 0.043339454 0.10049046 -0.044435956
-0.07422963 -0.019821182 0.08569429 0.032141335 0.052720867 -0.0730331 0.010360293 -0.024297528
0.09183865 -0.10456544 0.1006997 0.017196871 0.10098288 -0.092444 -0.0992846 -0.079503275
-0.06421426 0.067372285 0.047229864 -0.014136314 0.040706255 -0.06006257 0.05687406 -0.024783015
0.040481932 0.108168684 -0.042320132 -0.0036711916 -0.061005894 0.08956375 -0.029163279 -0.10539928
0.106291525 -0.046394635 -0.052579857 0.035975046 0.03159582 0.07977869 -0.068963304 -0.014463916
-0.008158006 -0.08478611 -0.008020051 0.09825071 -0.017574757 -0.019765548 -0.08232769 -0.084003106
0.09550444 -0.09139256 -0.011930384 -0.08369122 -0.102777004 -0.02326367 -0.047801204 -0.02676399
0.07794189 0.039964728 0.046135135 -0.052205246 -0.039638475 0.06271335 -0.0009807497 0.00013998151
0.029860564 -0.003976129 -0.01168704 0.040965818 0.036144234 0.033741616 0.009058617 0.09517703
0.036648907 0.03778071 0.04424066 -0.07343553 -0.04362359 -0.03199184 -0.05168682 -0.07737449
0.07964993 -0.058860578 0.08267032 -0.036085516 0.08884101 0.105035745 -0.06690468 -0.058664165
0.008410394 0.048568793 -0.049239933 0.06395138 -0.051467273 0.04461045 0.015661411 -0.014083341
-0.058184057 -0.009371005 -0.057361983 -0.046592515 0.01777064 0.07598648 -0.014964864 -0.021522544
-0.099908344 0.0143528655 0.08537149 0.07575799 0.0942317 0.012036927 -0.08988444 0.07798391
0.10130929 0.08100472 0.05557663 -0.010731295 0.013322346 -0.044984646 -0.06967386 0.044971503
00000000: 40ad 463c 99f8 a83d 5e30 383d b3dd d43d
00000010: 1190 c0bd 68cd 56bc 463e 0b3d b437 d83c
00000020: 296d d63d f892 08bc 4641 04bd 60f0 85bc
00000030: d133 883d b8fc 98bc e49d f4bc 3691 193d
00000040: 5be1 d43d 1025 88bc 1089 853b fe59 24bd
00000050: 18e7 31bc 3164 8c3d 51ac a8bd 9683 1b3d
00000060: f6a1 b8bd a1c8 853d 52a3 b7bd e55e adbd
00000070: 30ad 39bd 9267 66bd 401f 31bc ac50 953c
00000080: 4301 943d e727 3fbd b392 ce3d 6ca6 cd3c
00000090: 97df b23d c0a4 973b 5098 a3bb c051 1fbd
000000a0: b88f 643c e8e4 92bd f60f 413d 3738 983d
000000b0: 9064 cf3b 80a2 313b b062 b4bd 8808 0f3c
000000c0: b0ba c03b 95ec d83d c87b aabd 1b9f ad3d
000000d0: d2dc 3abd 574b c93d dc2f 3fbd 5e5c 20bd
000000e0: 4fed b23d eb5d 873d e5a1 67bd fc10 a1bd
000000f0: d1dd cf3d a9c6 d53d c065 cbbb ac86 dcbd
00000100: e7e9 dbbd b794 a63d c810 92bd a0de 82bb
00000110: f016 c1bd 54db fe3c 3c1e d4bd a5ab bd3d
00000120: 0d64 873d 602b f0bb 1ea4 293d 48cf 4dbd
00000130: c505 c6bd ca0a 46bd de67 723d d289 d1bd
00000140: c26e 703d d0c3 0fbc 079a 9c3d ca2b 67bd
00000150: f054 0b3c ccfd babc 5143 9b3d 183b 44bc
00000160: f8f3 ffbc f051 9dbd 022c 273d 3c89 89bd
00000170: 7046 063c 8ef4 93bd 7e5d 84bd 6ae2 153d
00000180: 8c0f 89bd e0a7 5fbc 3e6e 79bd e090 9bbc
00000190: 14f7 8f3c a866 2cbd 59fc 54bd 8c69 c13c
000001a0: 891e d2bd 66c0 b1bd 7286 273d b29c 2b3d
000001b0: 6566 cb3d 2a80 22bd b90a 3ebd 9067 5f3c
000001c0: 6f75 ab3d 9b14 c83d a43a a93c 6946 be3d
000001d0: e0b6 2a3c ddb6 d9bd 1852 5e3c 18bc 653c
000001e0: 2670 88bd af37 8cbd 0231 b2bd 00a1 f6b9
000001f0: 2ebc 673d 2059 4c3b 1b62 4dbd fc67 cdbd
00000200: e32b 6abd 693f dd3d 92f8 27bd a08f 523b
00000210: 21cf c5bd b684 313d f1cd cd3d 7a02 36bd
00000220: b405 98bd 0860 a2bc 7d80 af3d a2a6 033d
00000230: d6f1 573d 6192 95bd 38be 293c 9c0b c7bc
00000240: e715 bc3d 6826 d6bd a53b ce3d 74e0 8c3c
00000250: 1dd0 ce3d 4853 bdbd b955 cbbd 9dd2 a2bd
00000260: c482 83bd 7bfa 893d 1a74 413d 009c 67bc
00000270: 9abb 263d 2b04 76bd c6f4 683d c005 cbbc
00000280: 62d0 253d 8b87 dd3d e057 2dbd 6098 70bb
00000290: 51e1 79bd 336d b73d d4e7 eebc 94db d7bd
000002a0: 5faf d93d 4d08 3ebd fa5d 57bd 925a 133d
000002b0: 9e6a 013d 0363 a33d a23c 8dbd 10fa 6cbc
000002c0: 28a9 05bc 57a4 adbd 8866 03bc ab37 c93d
000002d0: f0f8 8fbc 5ceb a1bc 6c9b a8bd d209 acbd
000002e0: d597 c33d 062c bbbd a877 43bc 4d66 abbd
000002f0: c07c d2bd 7493 bebc 32cb 43bd 2840 dbbc
00000300: ff9f 9f3d 0eb2 233d 32f8 3c3d 2bd5 55bd
00000310: f45b 22bd db6f 803d 808c 80ba 00c8 1239
00000320: 249e f43c 304a 82bb 007b 3fbc c6cb 273d
00000330: fa0b 143d a634 0a3d 986a 143c 2dec c23d
00000340: 2a1d 163d f2bf 1a3d b235 353d 5e65 96bd
00000350: a6ae 32bd e009 03bd 8fb5 53bd 8476 9ebd
00000360: 811f a33d ca17 71bd 0f4f a93d 68ce 13bd
00000370: 47f2 b53d fb1c d73d 5205 89bd d649 70bd
00000380: c0cb 093c 12f0 463d d0af 49bd f1f8 823d
00000390: 59cf 52bd 72b9 363d 5c4c 803c d0bd 66bc
000003a0: 6852 6ebd d888 19bc 66f4 6abd cbd7 3ebd
000003b0: bc93 913c cd9e 9b3d 302f 75bc 0c50 b0bc
000003c0: bf9c ccbd 4828 6b3c 3fd7 ae3d 0127 9b3d
000003d0: 8dfc c03d 8836 453c 5515 b8bd 07b6 9f3d
000003e0: 3f7b cf3d cde5 a53d 52a4 633d 50d2 2fbc
000003f0: f845 5a3c d241 38bd 2bb1 8ebd 0a34 383d

layers.1.bias f4 [64]
0.0 0.0 0.0 0.0 0.0 0.0 0.0 0.0
0.0 0.0 0.0 0.0 0.0 0.0 0.0 0.0
0.0 0.0 0.0 0.0 0.0 0.0 0.0 0.0
0.0 0.0 0.0 0.0 0.0 0.0 0.0 0.0
0.0 0.0 0.0 0.0 0.0 0.0 0.0 0.0
0.0 0.0 0.0 0.0 0.0 0.0 0.0 0.0
0.0 0.0 0.0 0.0 0.0 0.0 0.0 0.0
0.0 0.0 0.0 0.0 0.0 0.0 0.0 0.0
00000000: 0000 0000 0000 0000 0000 0000 0000 0000
00000010: 0000 0000 0000 0000 0000 0000 0000 0000
00000020: 0000 0000 0000 0000 0000 0000 0000 0000
00000030: 0000 0000 0000 0000 0000 0000 0000 0000
00000040: 0000 0000 0000 0000 0000 0000 0000 0000
00000050: 0000 0000 0000 0000 0000 0000 0000 0000
00000060: 0000 0000 0000 0000 0000 0000 0000 0000
00000070: 0000 0000 0000 0000 0000 0000 0000 0000
00000080: 0000 0000 0000 0000 0000 0000 0000 0000
00000090: 0000 0000 0000 0000 0000 0000 0000 0000
000000a0: 0000 0000 0000 0000 0000 0000 0000 0000
000000b0: 0000 0000 0000 0000 0000 0000 0000 0000
000000c0: 0000 0000 0000 0000 0000 0000 0000 0000
000000d0: 0000 0000 0000 0000 0000 0000 0000 0000
000000e0: 0000 0000 0000 0000 0000 0000 0000 0000
000000f0: 0000 0000 0000 0000 0000 0000 0000 0000

layers.1.lin.weight f4 [64, 128]
0.10449453 -0.12980928 0.14564084 -0.011963069 0.17240424 0.12539934 -0.06537374 -0.07423889
0.094105765 0.060979426 -0.13129869 -0.16739944 0.044598326 -0.1319623 0.064432666 -0.13187407
-0.13033855 0.13401555 -0.028091386 -0.031662107 0.1678849 -0.004100427 0.15511613 -0.07637165
-0.009520188 0.17344101 0.03138323 0.028102279 -0.08853026 -0.16674142 0.16418032 0.11574967
0.167944 -0.15129054 -0.06525862 0.0588575 0.11118434 -0.13729422 0.0012098402 0.07270715
0.16921608 -0.15902962 -0.07061694 -0.04285066 0.14160709 -0.054014497 -0.08701986 0.12599249
0.04439509 -0.011116207 0.009676024 0.1748987 -0.09158453 0.10090272 -0.09333479 -0.10630426
-0.1416848 -0.106281936 0.1320249 -0.017147422 0.007616669 -0.010157242 0.16325487 -0.14131512
-0.106604 -0.05367679 0.16121195 -0.0982934 0.10500936 -0.07252402 -0.0030439347 0.15248416
-0.034139603 -0.08580502 0.07267411 -0.08323975 -0.13909929 -0.07379454 0.08644472 0.04297708
-0.09189551 0.1189421 0.1151848 0.08258684 -0.038562298 -0.124485746 -0.11054958 -0.16326858
-0.12642345 -0.10051555 -0.16233927 -0.1445011 0.044047713 0.079380825 0.12570907 0.14134912
-0.17556655 0.11241825 0.013999179 0.011991203 -0.037633345 -0.13265611 -0.13955966 -0.15537238
0.13120408 0.118287966 0.07579781 0.008636907 -0.15903448 0.030601114 0.017733753 0.16431455
-0.004679814 0.14832823 0.08706309 -0.07918126 -0.106038205 -0.077243894 0.15204625 0.02293992
-0.08584603 -0.11249615 0.046765 0.015522763 0.04657033 -0.109900326 -0.07754392 -0.12969115
-0.004948437 -0.09413878 -0.0006660223 -0.16197003 -0.12822458 -0.09224634 -0.13606776 0.07926799
-0.06400296 -0.028436035 -0.09004619 0.06003678 -0.10126935 0.007953867 0.12827854 -0.13777322
0.00025108457 -0.14422126 -0.008427769 0.06838381 0.0048949122 -0.12762475 -0.10746879 0.11344196
-0.085582376 0.14684545 0.12244268 -0.011197507 0.08937259 0.10171859 -0.047002524 -0.09199907
0.03211525 0.019919425 0.03821206 0.017818332 0.16944589 -0.028730258 0.021584019 -0.13244182
0.0067888647 0.15492432 0.13429023 0.033081397 0.037764087 -0.009402618 0.1190096 -0.14249815
0.018286064 -0.03214377 -0.1254634 -0.11259332 0.14705022 0.06600778 -0.16267377 -0.1356232
-0.004810557 0.07181457 0.004247561 -0.09918784 0.08211388 0.028199822 -0.046842307 0.030378208
0.172891 0.14176129 -0.09907304 -0.0756612 0.13507874 -0.11240722 0.13050167 -0.15552336
-0.17283623 0.00575161 0.09406145 0.11175527 -0.13319221 0.086270586 0.05888231 -0.15556486
0.07526563 0.058501422 -0.013307482 0.17284594 -0.06878193 -0.082205385 0.14225219 -0.16565837
0.14146946 0.073786244 0.1015269 -0.041838482 -0.16971615 0.070175245 -0.029611066 0.096070275
0.052297935 -0.12748566 0.13702227 0.033217683 0.03956759 0.04790552 -0.13338508 0.16388844
-0.11334539 0.06492813 0.14601685 -0.06344331 -0.15496926 0.017367646 -0.06192044 0.057315335
-0.1676292 -0.060367607 -0.10876772 0.11458509 -0.08111886 0.055599347 0.08438335 0.1735449
-0.14771484 -0.04653102 -0.056765668 0.104071304 0.015839145 0.06428701 -0.13955095 -0.16034338
00000000: 3a01 d63d b9ec 04be df22 153e c000 44bc
00000010: bd8a 303e af68 003e abe2 85bd 8f0a 98bd
00000020: 86ba c03d 90c5 793d 2a73 06be c26a 2bbe
00000030: bcac 363d 2021 07be 46f5 833d ff09 07be
00000040: 7877 05be 5f3b 093e e81f e6bc 20b0 01bd
00000050: 05ea 2b3e e05c 86bb c3d6 1e3e bd68 9cbd
00000060: 90fa 1bbc 859a 313e b48b 003d c036 e63c
00000070: 5a4f b5bd 43be 2abe e31e 283e 2a0e ed3d
00000080: 83f9 2b3e e8eb 1abe 50a6 85bd 9014 713d
00000090: 9eb4 e33d db96 0cbe 8093 9e3a 7ce7 943d
000000a0: fb46 2d3e a9d8 22be 9d9f 90bd 2c84 2fbd
000000b0: 7301 113e 4e3e 5dbd 7837 b2bd 2d04 013e
000000c0: a0d7 353d c020 36bc 3088 1e3c a518 333e
000000d0: ac90 bbbd 16a6 ce3d 4f26 bfbd 0cb6 d9bd
000000e0: d215 11be 58aa d9bd 8931 073e c078 8cbc
000000f0: 4095 f93b 906a 26bc 492c 273e e9b4 10be
00000100: 3353 dabd 32dc 5bbd bf14 253e 0d4e c9bd
00000110: 260f d73d 7987 94bd c07c 47bb cf24 1c3e
00000120: f8d5 0bbd 8bba afbd 2ad6 943d 9a79 aabd
00000130: 0b70 0ebe 9721 97bd ee09 b13d bc08 303d
00000140: b733 bcbd ea97 f33d 02e6 eb3d 4a23 a93d
00000150: 80f3 1dbd 62f2 febd d167 e2bd e12f 27be
00000160: 2675 01be 19db cdbd 443c 26be 19f8 13be
00000170: 606b 343d 6a92 a23d e1b9 003e d3bd 103e
00000180: b8c7 33be 8a3b e63d d05c 653c c076 443c
00000190: 6c25 1abd 01d7 07be bae8 0ebe f019 1fbe
000001a0: 5d5a 063e f640 f23d e23b 9b3d d081 0d3c
000001b0: efd9 22be 30af fa3c 6046 913c 1342 283e
000001c0: 2059 99bb 5be3 173e 224e b23d c929 a2bd
000001d0: 8f2a d9bd 0c32 9ebd 03b2 1b3e 80ec bb3c
000001e0: 0bd0 afbd 6264 e6bd a88c 3f3d 3053 7e3c
000001f0: 88c0 3e3d 6c13 e1bd 59cf 9ebd c2cd 04be
00000200: 8026 a2bb d5cb c0bd 0098 2eba 79db 25be
00000210: 4e4d 03be a6eb bcbd 5955 0bbe 4257 a23d
00000220: fc13 83bd b0f2 e8bc 236a b8bd 20e9 753d
00000230: 4e66 cfbd f050 023c 735b 033e 6c14 0dbe
00000240: 00a4 8339 bdae 13be a014 0abc d00c 8c3d
00000250: 8065 a03b 10b0 02be 9918 dcbd 4254 e83d
00000260: d045 afbd a75e 163e 3ac3 fa3d c075 37bc
00000270: fa08 b73d d651 d03d b885 40bd 026a bcbd
00000280: 488b 033d 102e a33c 4084 1c3d c0f7 913c
00000290: 3983 2d3e b85b ebbc f8d0 b03c d49e 07be
000002a0: 2075 de3b 7ba4 1e3e 6183 093e 5c80 073d
000002b0: 84ae 1a3d 700d 1abc 4ebb f33d 09eb 11be
000002c0: a8cc 953c 30a9 03bd 7a79 00be 5497 e6bd
000002d0: 5594 163e 162f 873d f493 26be cfe0 0abe
000002e0: e0a1 9dbb 8413 933d 202f 8b3b ff22 cbbd
000002f0: 522b a83d 5003 e73c b8dd 3fbd b8db f83c
00000300: 570a 313e df29 113e cee6 cabd 42f4 9abd
00000310: 1552 0a3e c235 e6bd 3ba2 053e 8441 1fbe
00000320: fbfb 30be 0078 bc3b 4aa3 c03d f2df e43d
00000330: 8a63 08be a2ae b03d 942e 713d 654c 1fbe
00000340: de24 9a3d 309f 6f3d a007 5abc 87fe 303e
00000350: 8add 8cbd 4c5b a8bd 8faa 113e 59a2 29be
00000360: 5fdd 103e 3e1d 973d 56ed cf3d d45e 2bbd
00000370: 12ca 2dbe 0ab8 8f3d e892 f2bc 7ec0 c43d
00000380: 5c36 563d 9a8b 02be 914f 0c3e 440f 083d
00000390: a011 223d 9438 443d 1996 08be 5fd2 273e
000003a0: a121 e8bd 0af9 843d 7185 153e 91ee 81bd
000003b0: 43b0 1ebe 9846 8e3c 4aa0 7dbd 7cc3 6a3d
000003c0: fda6 2bbe 0644 77bd 9cc1 debd 96ab ea3d
000003d0: a521 a6bd 24bc 633d 2ed1 ac3d c1b5 313e
000003e0: 8f42 17be 5097 3ebd 1e83 68bd 5623 d53d
000003f0: 18c1 813c e8a8 833d 72e6 0ebe 0e31 24be
