models/hybrid_recommender_20250428_112906/gnn_model.pt (torch, 232480 bytes, 4 tensors)

layers.0.bias f4 [128]
0.0 0.0 0.0 0.0 0.0 0.0 0.0 0.0
0.0 0.0 0.0 0.0 0.0 0.0 0.0 0.0
0.0 0.0 0.0 0.0 0.0 0.0 0.0 0.0
0.0 0.0 0.0 0.0 0.0 0.0 0.0 0.0
0.0 0.0 0.0 0.0 0.0 0.0 0.0 0.0
0.0 0.0 0.0 0.0 0.0 0.0 0.0 0.0
0.0 0.0 0.0 0.0 0.0 0.0 0.0 0.0
0.0 0.0 0.0 0.0 0.0 0.0 0.0 0.0
0.0 0.0 0.0 0.0 0.0 0.0 0.0 0.0
0.0 0.0 0.0 0.0 0.0 0.0 0.0 0.0
0.0 0.0 0.0 0.0 0.0 0.0 0.0 0.0
0.0 0.0 0.0 0.0 0.0 0.0 0.0 0.0
0.0 0.0 0.0 0.0 0.0 0.0 0.0 0.0
0.0 0.0 0.0 0.0 0.0 0.0 0.0 0.0
0.0 0.0 0.0 0.0 0.0 0.0 0.0 0.0
0.0 0.0 0.0 0.0 0.0 0.0 0.0 0.0
00000000: 0000 0000 0000 0000 0000 0000 0000 0000
00000010: 0000 0000 0000 0000 0000 0000 0000 0000
00000020: 0000 0000 0000 0000 0000 0000 0000 0000
00000030: 0000 0000 0000 0000 0000 0000 0000 0000
00000040: 0000 0000 0000 0000 0000 0000 0000 0000
00000050: 0000 0000 0000 0000 0000 0000 0000 0000
00000060: 0000 0000 0000 0000 0000 0000 0000 0000
00000070: 0000 0000 0000 0000 0000 0000 0000 0000
00000080: 0000 0000 0000 0000 0000 0000 0000 0000
00000090: 0000 0000 0000 0000 0000 0000 0000 0000
000000a0: 0000 0000 0000 0000 0000 0000 0000 0000
000000b0: 0000 0000 0000 0000 0000 0000 0000 0000
000000c0: 0000 0000 0000 0000 0000 0000 0000 0000
000000d0: 0000 0000 0000 0000 0000 0000 0000 0000
000000e0: 0000 0000 0000 0000 0000 0000 0000 0000
000000f0: 0000 0000 0000 0000 0000 0000 0000 0000
00000100: 0000 0000 0000 0000 0000 0000 0000 0000
00000110: 0000 0000 0000 0000 0000 0000 0000 0000
00000120: 0000 0000 0000 0000 0000 0000 0000 0000
00000130: 0000 0000 0000 0000 0000 0000 0000 0000
00000140: 0000 0000 0000 0000 0000 0000 0000 0000
00000150: 0000 0000 0000 0000 0000 0000 0000 0000
00000160: 0000 0000 0000 0000 0000 0000 0000 0000
00000170: 0000 0000 0000 0000 0000 0000 0000 0000
00000180: 0000 0000 0000 0000 0000 0000 0000 0000
00000190: 0000 0000 0000 0000 0000 0000 0000 0000
000001a0: 0000 0000 0000 0000 0000 0000 0000 0000
000001b0: 0000 0000 0000 0000 0000 0000 0000 0000
000001c0: 0000 0000 0000 0000 0000 0000 0000 0000
000001d0: 0000 0000 0000 0000 0000 0000 0000 0000
000001e0: 0000 0000 0000 0000 0000 0000 0000 0000
000001f0: 0000 0000 0000 0000 0000 0000 0000 0000

layers.0.lin.weight f4 [128, 384]
0.09610713 0.025868602 -0.10273621 -0.05561598 -0.06246585 0.09170274 -0.09133556 0.10521484
-0.03075818 -0.092975274 0.09202073 -0.055318963 0.037180357 0.06590737 0.09194442 -0.100647084
0.01697231 -0.0034979805 -0.044774644 0.0086375475 0.005256273 0.08392135 -0.06591454 0.10602445
-0.08655285 -0.056745343 0.031627394 -0.103946514 0.00012467057 0.10504515 0.07416657 -0.097018376
-0.062051468 0.07593835 -0.10034276 -0.049547493 -0.04578056 -0.05361619 0.07403352 0.0441489
0.06770409 -0.10640896 -0.041646346 -0.037775554 0.047959454 -0.0323925 0.07023152 -0.03126736
0.0971868 0.034577318 0.019844644 0.004161097 -0.03518547 0.10320652 0.052495755 0.01537592
0.09830866 0.015684381 0.06054958 0.0051665604 0.006327562 -0.048432827 -0.03993255 -0.10101764
-0.0592602 -0.035217583 -0.080733925 -0.09066576 0.01988595 0.10507538 0.04416641 0.036255874
-0.017371863 -0.017686784 0.012011543 0.005126193 -0.014310628 0.06674629 -0.05815031 -0.09038638
0.10603056 0.04388339 -0.028121382 -0.0024512932 0.07512566 0.04434032 0.08690832 -0.009009466
-0.01753658 -0.09173209 0.048722602 0.05095864 0.022900693 0.03360764 -0.025978543 -0.019216835
0.03973546 -0.01701679 -0.074666746 0.03920517 0.03998091 -0.039132737 0.1050564 -0.053980336
0.0063291267 -0.07802583 0.0052958503 0.08012653 -0.04837259 -0.02598057 0.026341058 -0.009475455
-0.04997868 -0.042641707 -0.10359625 -0.027094416 -0.08431426 0.012288332 0.072411664 -0.07905455
0.080072515 0.045079388 0.106828384 0.0077538267 0.035649292 -0.08117036 0.058260687 -0.021896526
-0.09176904 -0.06759231 0.023209788 -0.009039864 -0.06497684 0.029007338 0.04645034 -0.070564136
-0.06485079 -0.08680973 0.030961744 -0.03196226 -0.02329915 -0.062360536 0.0921709 -0.04169915
0.0026493743 -0.025049388 0.05062606 0.032066174 0.049441405 -0.052507386 0.0752118 0.048534073
0.0997613 0.09240297 -0.033541277 0.05316142 -0.06086544 0.09665806 -0.046667248 -0.049657688
0.08603748 -0.05042725 -0.05210473 0.05420845 -0.0726746 0.055224396 -0.057827678 0.050533988
-0.006502658 -0.078072034 0.02174867 0.017728947 0.029212065 0.0958511 0.04440447 0.05190628
0.106924854 0.025436543 0.086759545 -0.09516999 -0.053444415 0.02754695 0.09610205 0.063349746
-0.05317291 -0.06769766 0.08262538 -0.06176622 -0.08491168 -0.003752619 -0.073651165 0.06763319
-0.05074449 0.09537753 0.022488542 0.014676996 -0.061523493 -0.036504894 -0.053405493 0.08731913
0.04703305 -0.04404813 -0.013497025 0.032421283 0.0709772 0.007055782 0.051331885 -0.060814504
-0.055912595 0.039950363 0.031877004 0.04534989 0.023819827 0.07188634 0.08116623 0.027936824
0.07678313 -0.0014724731 -0.0596296 0.004644856 0.00054389983 0.080041684 -0.02552791 -0.008825906
0.060055174 -0.027023762 0.024313025 -0.019214876 0.10613432 -0.0009816512 0.08371215 0.1064954
-0.03351771 -0.021316223 0.040683396 0.07749485 -0.06492223 -0.057197977 -0.08530715 0.106915526
-0.039624833 0.04373867 0.10561069 0.06476412 -0.081483774 0.06565825 0.05223859 0.031603776
0.062460057 0.03721673 0.07640343 0.027397938 -0.06004733 0.0025309771 -0.10167478 -0.05637362
00000000: d1d3 c43d 64ea d33c 5d67 d2bd 95cd 63bd
00000010: 31dc 7fbd a5ce bb3d 230e bbbd e17a d73d
00000020: 94f8 fbbc d269 bebd 5d75 bc3d 2396 62bd
00000030: 6e4a 183d 71fa 863d 5b4d bc3d 0f20 cebd
00000040: 8409 8b3c 603e 65bb 9e65 37bd 8084 0d3c
00000050: d03c ac3b f5de ab3d 34fe 86bd 5923 d93d
00000060: 9f42 b1bd ce6d 68bd ba8b 013d e9e1 d4bd
00000070: 00ba 0239 e921 d73d a5e4 973d 92b1 c6bd
00000080: ae29 7ebd 9185 9b3d 8180 cdbd 50f2 4abd
00000090: 6584 3bbd a69c 5bbd e39e 973d 7ad5 343d
000000a0: 71a8 8a3d f1ec d9bd 5c95 2abd 8aba 1abd
000000b0: 2271 443d 00ae 04bd 8bd5 8f3d 3412 00bd
000000c0: df09 c73d f2a0 0d3d 3c91 a23c d059 883b
000000d0: a41e 10bd f15d d33d ca05 573d 48eb 7b3c
000000e0: 0d56 c93d 887c 803c d602 783d 404c a93b
000000f0: 7057 cf3b 8061 46bd 5090 23bd 56e2 cebd
00000100: d3ba 72bd 5040 10bd d457 a5bd f8ae b9bd
00000110: dce7 a23c c331 d73d d6e7 343d 0a81 143d
00000120: 704f 8ebc e0e3 90bc 10cc 443c a0f9 a73b
00000130: 2077 6abc 47b2 883d 052f 6ebd 7f1c b9bd
00000140: 8d26 d93d 12bf 333d d05e e6bc e0a5 20bb
00000150: 7bdb 993d 329e 353d fdfc b13d 709c 13bc
00000160: e0a8 8fbc 09de bbbd 5a91 473d 02ba 503d
00000170: 3c9a bb3c 2aa8 093d f4d0 d4bc a06c 9dbc
00000180: a6c1 223d cc66 8bbc e1ea 98bd 9a95 203d
00000190: 06c3 233d a649 20bd cf27 d73d 7c1a 5dbd
000001a0: 9064 cf3b 02cc 9fbd d088 ad3b 6119 a43d
000001b0: 5622 46bd 34d5 d4bc 34c9 d73c f03e 1bbc
000001c0: 72b6 4cbd 12a9 2ebd 452a d4bd 1cf5 ddbc
000001d0: f4ac acbd 0055 493c 914c 943d 5ae7 a1bd
000001e0: 0ffd a33d 2aa5 383d d7c8 da3d d013 fe3b
000001f0: fe04 123d a53c a6bd c2a2 6e3d 5860 b3bc
00000200: 68f1 bbbd d66d 8abd 7422 be3c f01b 14bc
00000210: 9412 85bd cca0 ed3c b642 3e3d ee83 90bd
00000220: 7ed0 84bd 4dc9 b1bd 7ca3 fd3c dcea 02bd
00000230: dcdd bebc c36d 7fbd 19c4 bc3d bacc 2abd
00000240: 20a1 2d3b 6034 cdbc 465d 4f3d d257 033d
00000250: 1283 4a3d fc11 57bd a508 9a3d aacb 463d
00000260: a74f cc3d c53d bd3d 9462 09bd cabf 593d
00000270: 0a4e 79bd a9f4 c53d 2826 3fbd dc65 4bbd
00000280: 6b34 b03d ce8c 4ebd c56b 55bd ae09 5e3d
00000290: 6cd6 94bd fa32 623d b7dc 6cbd bafc 4e3d
000002a0: 4014 d5bb 3be4 9fbd 442a b23c 4c3c 913c
000002b0: 244e ef3c 954d c43d 76e1 353d ae9b 543d
000002c0: 6bfb da3d 4c60 d03c fdae b13d 7ce8 c2bd
000002d0: 88e8 5abd 24aa e13c 27d1 c43d 83bd 813d
000002e0: d6cb 59bd 12a5 8abd 7f37 a93d 93fe 7cbd
000002f0: 2de6 adbd 80ee 75bb 6cd6 96bd 4583 8a3d
00000300: 74d9 4fbd 4b55 c33d e439 b83c c877 703c
00000310: 0f00 7cbd 2886 15bd b8bf 5abd 5fd4 b23d
00000320: baa5 403d d06b 34bd a022 5dbc 2ecc 043d
00000330: 7f5c 913d 3034 e73b 6241 523d a118 79bd
00000340: 9b04 65bd fea2 233d 7691 023d cec0 393d
00000350: cc21 c33c 2539 933d 7b3a a63d c4db e43c
00000360: 7940 9d3d 0000 c1ba 2b3e 74bd e033 983b
00000370: 8094 0e3a e5ec a33d e81f d1bc 889a 10bc
00000380: 6afc 753d f060 ddbc 1c2c c73c 8468 9dbc
00000390: f35c d93d c0aa 80ba 4771 ab3d 431a da3d
000003a0: de49 09bd 5c9f aebc a2a3 263d 9fb5 9e3d
000003b0: f2f5 84bd 6d48 6abd 84b5 aebd 87f6 da3d
000003c0: a64d 22bd 5227 333d 6b4a d83d 0da3 843d
000003d0: f7e0 a6bd d577 863d 22f8 553d f672 013d
000003e0: 1ed6 7f3d 9270 183d 6779 9c3d a471 e03c
000003f0: 30f4 75bd c0de 253b de3a d0bd 06e8 66bd

layers.1.bias f4 [64]
0.0 0.0 0.0 0.0 0.0 0.0 0.0 0.0
0.0 0.0 0.0 0.0 0.0 0.0 0.0 0.0
0.0 0.0 0.0 0.0 0.0 0.0 0.0 0.0
0.0 0.0 0.0 0.0 0.0 0.0 0.0 0.0
0.0 0.0 0.0 0.0 0.0 0.0 0.0 0.0
0.0 0.0 0.0 0.0 0.0 0.0 0.0 0.0
0.0 0.0 0.0 0.0 0.0 0.0 0.0 0.0
0.0 0.0 0.0 0.0 0.0 0.0 0.0 0.0
00000000: 0000 0000 0000 0000 0000 0000 0000 0000
00000010: 0000 0000 0000 0000 0000 0000 0000 0000
00000020: 0000 0000 0000 0000 0000 0000 0000 0000
00000030: 0000 0000 0000 0000 0000 0000 0000 0000
00000040: 0000 0000 0000 0000 0000 0000 0000 0000
00000050: 0000 0000 0000 0000 0000 0000 0000 0000
00000060: 0000 0000 0000 0000 0000 0000 0000 0000
00000070: 0000 0000 0000 0000 0000 0000 0000 0000
00000080: 0000 0000 0000 0000 0000 0000 0000 0000
00000090: 0000 0000 0000 0000 0000 0000 0000 0000
000000a0: 0000 0000 0000 0000 0000 0000 0000 0000
000000b0: 0000 0000 0000 0000 0000 0000 0000 0000
000000c0: 0000 0000 0000 0000 0000 0000 0000 0000
000000d0: 0000 0000 0000 0000 0000 0000 0000 0000
000000e0: 0000 0000 0000 0000 0000 0000 0000 0000
000000f0: 0000 0000 0000 0000 0000 0000 0000 0000

layers.1.lin.weight f4 [64, 128]
-0.10464976 0.1483263 -0.0011839122 0.1044807 -0.09568249 0.04484427 -0.0032333136 0.14616321
-0.10339844 0.15861844 -0.14170945 -0.11196527 0.11229427 -0.027733535 0.1667686 -0.03306538
-0.07797019 0.012717158 0.078506395 0.019028246 -0.01815413 -0.1609386 -0.16837186 -0.098781064
0.06563048 0.008129045 0.17192592 -0.007265836 -0.074186966 -0.1333822 0.07279047 -0.115170285
-0.13552707 -0.16086581 -0.1717571 -0.08849399 -0.062324338 -0.024836943 0.04694046 -0.047614858
-0.17456956 -0.0920315 -0.09745415 0.10279022 0.08152582 0.06629819 -0.049082384 -0.122333
-0.036672264 0.13627483 -0.11733889 0.104408935 0.16790889 -0.0009860396 -0.142822 -0.0154893845
0.029382288 0.038039356 0.10916121 0.1579233 0.13771696 0.010536626 -0.016091302 0.13874082
0.15128334 0.02926886 0.05794382 0.14777 -0.063324034 0.030961007 0.06038499 0.028714105
-0.09904115 0.11964147 0.09343873 0.07832013 0.11285041 0.04587996 0.13413806 0.13087218
0.12685947 -0.12839563 -0.136626 -0.086658195 0.10488288 -0.15271908 0.07308835 -0.15585667
-0.15587562 0.14557482 -0.03145805 -0.13725066 0.072169065 0.16961728 -0.15298423 0.05852899
0.08908279 0.045155123 0.007061243 0.09040932 -0.035041988 -0.049941882 0.11725102 -0.14421088
-0.11642483 0.09257288 0.14870502 0.049681097 0.04354787 0.085629955 0.0012848079 -0.1614436
-0.083665706 -0.1377011 0.12158604 0.10789962 0.0043917894 0.14280035 -0.15756564 -0.064796016
0.13155629 -0.10338344 -0.03500609 -0.098574184 -0.01952897 0.013048217 0.13753985 0.0410202
0.038152218 0.09981389 0.029549822 0.12575911 -0.10824577 -0.13974217 0.068009526 -0.10938751
0.06270914 0.08886312 -0.15966587 -0.02842316 -0.10992292 -0.059411675 -0.004015565 0.102863505
0.13108568 0.15426071 -0.07663091 0.1406066 0.020911708 -0.04763846 -0.050046638 0.02492398
0.14608811 0.04005514 0.10122563 -0.08665965 0.062306672 0.10995756 0.06912093 0.07435478
-0.0036242753 -0.123255715 0.08165203 -0.14621425 0.17303614 -0.07841571 0.15492918 0.06761901
0.09599276 -0.14107408 0.12501182 -0.14571261 -0.0018702298 0.1328481 0.03881377 -0.01675719
-0.06718448 -0.06971152 0.15464519 -0.17543519 0.00045789778 -0.1724004 0.12426226 -0.1496885
-0.0762714 0.0481939 -0.06487831 0.05232732 -0.1579458 -0.0622404 0.03786838 -0.16107035
-0.16145475 0.17178781 -0.05754891 0.120416656 0.15547664 0.0020707548 0.14100035 -0.044991493
-0.0152590275 0.016507745 0.04986237 -0.13197012 0.026243433 -0.088053 0.066927806 0.04620616
-0.14590505 0.13729854 -0.10600845 -0.16991499 0.07752524 -0.09330815 -0.043641567 -0.04527305
0.014643908 -0.13591366 0.088224575 0.06696896 -0.0754597 -0.16889705 0.15601934 0.04939364
-0.037402898 0.02208665 -0.17395899 0.022986919 -0.048472077 0.1718062 0.026574954 0.13904186
-0.10342849 -0.12918593 -0.03059712 0.059791893 -0.13651639 0.025151297 0.09635599 -0.07790733
0.09874518 -0.0069897324 -0.091832794 -0.059440523 -0.078819156 -0.14224723 -0.13417763 0.12345378
0.08110075 -0.06434003 -0.005019799 -0.025533065 0.081076786 0.048104733 0.13575323 -0.0078906715
00000000: 9d52 d6bd d9e2 173e 802d 9bba faf9 d53d
00000010: 2ef5 c3bd a0ae 373d 00e6 53bb cfab 153e
00000020: 90c2 d3bd df6c 223e 481c 11be 0c4e e5bd
00000030: 8afa e53d 7031 e3bc 63c5 2a3e 906f 07bd
00000040: d6ae 9fbd a05b 503c f6c7 a03d 20e1 9b3c
00000050: f8b7 94bc 17cd 24be ac69 2cbe ba4d cabd
00000060: 4669 863d b02f 053c 590d 303e 4016 eebb
00000070: 56ef 97bd 5895 08be 2c13 953d 66de ebbd
00000080: 9cc7 0abe 02ba 24be 18e1 2fbe 563c b5bd
00000090: ce47 7fbd d876 cbbc a444 403d cc07 43bd
000000a0: 5dc2 32be 037b bcbd 0b96 c7bd ae83 d23d
000000b0: 02f7 a63d 58c7 873d 9c0a 49bd b989 fabd
000000c0: a835 16bd a18b 0b3e 5f4f f0bd 5ad4 d53d
000000d0: 4ff0 2b3e 003e 81ba ee3f 12be 30c7 7dbc
000000e0: 20b3 f03c 28cf 1b3d ea8f df3d a5b6 213e
000000f0: ad05 0d3e d0a1 2c3c e8d1 83bc 1312 0e3e
00000100: 05ea 1a3e 40c5 ef3c 8056 6d3d 0551 173e
00000110: 08b0 81bd f0a1 fd3c 4056 773d d839 eb3c
00000120: 16d6 cabd 9606 f53d ce5c bf3d 4e66 a03d
00000130: 1e1e e73d a0ec 3b3d 7d5b 093e 5b03 063e
00000140: 73e7 013e 257a 03be b0e7 0bbe da79 b1bd
00000150: d6cc d63d 6462 1cbe 58af 953d e498 1fbe
00000160: dc9d 1fbe 9111 153e 28da 00bd 708b 0cbe
00000170: 60cd 933d 27b0 2d3e e6a7 1cbe 18bc 6f3d
00000180: 0a71 b63d 94f4 383d 0062 e73b 8628 b93d
00000190: 3088 0fbd dc8f 4cbd 4e21 f03d 04ac 13be
000001a0: 2470 eebd da96 bd3d 2146 183e 687e 4b3d
000001b0: 405f 323d c25e af3d 0067 a83a 7951 25be
000001c0: ed58 abbd 8401 0dbe 1a02 f93d 7afa dc3d
000001d0: 00e9 8f3b 413a 123e e358 21be c6b3 84bd
000001e0: b1b6 063e b2ba d3bd 8c62 0fbd 43e1 c9bd
000001f0: 38fb 9fbc 30c8 553c 3fd7 0c3e cc04 283d
00000200: 8045 1c3d 3a6b cc3d 7812 f23c ffc6 003e
00000210: f5af ddbd 9218 0fbe 9448 8b3d 8f06 e0bd
00000220: a66d 803d defd b53d 737f 23be b0d7 e8bc
00000230: 451f e1bd a859 73bd 0095 83bb 1aaa d23d
00000240: 533b 063e 85f6 1d3e abf0 9cbd 2dfb 0f3e
00000250: 084f ab3c 8c20 43bd b4fd 4cbd 602d cc3c
00000260: 1f98 153e dc10 243d 624f cf3d 9d7a b1bd
00000270: 4835 7f3d 6e31 e13d 468f 8d3d 5247 983d
00000280: 4085 6dbb 7e6d fcbd 2e39 a73d 30b9 15be
00000290: 6330 313e 6a98 a0bd c1a5 1e3e d67b 8a3d
000002a0: da97 c43d b975 10be 1903 003e b035 15be
000002b0: 8022 f5ba 5509 083e 30fb 1e3d 6046 89bc
000002c0: 0498 89bd eac4 8ebd 4f5b 1e3e 48a5 33be
000002d0: 0012 f039 bb89 30be 367d fe3d f147 19be
000002e0: 2e34 9cbd f866 453d ebde 84bd 2c55 563d
000002f0: 8bbc 21be caef 7ebd e01b 1b3d a0ef 24be
00000300: 6554 25be 25e9 2f3e 68b8 6bbd 029d f63d
00000310: 4535 1f3e 80b5 073b 6562 103e 0049 38bd
00000320: 0001 7abc 403b 873c 7c3c 4c3d 2d23 07be
00000330: 78fc d63c 2255 b4bd 7211 893d ac42 3d3d
00000340: 2268 15be fd97 0c3e f51a d9bd 32fe 2dbe
00000350: 8ec5 9e3d 5818 bfbd 80c1 32bd 3c70 39bd
00000360: 00ed 6f3c f32c 0bbe 16af b43d 0627 893d
00000370: 9d8a 9abd 59f3 2cbe 89c3 1f3e fc50 4a3d
00000380: c833 19bd 10ef b43c 4e22 32be 104f bc3c
00000390: a88a 46bd f7ed 2f3e b8b3 d93c fd60 0e3e
000003a0: 51d2 d3bd 5149 04be d0a6 fabc 58e8 743d
000003b0: f4ca 0bbe 180a ce3c 4a56 c53d e18d 9fbd
000003c0: ea3a ca3d 200a e5bb d512 bcbd e877 73bd
000003d0: f06b a1bd 42a9 11be dc65 09be 56d5 fc3d
000003e0: 2618 a63d b5c4 83bd 207d a4bb b82a d1bc
000003f0: 960b a63d 7809 453d e502 0b3e e047 01bc
