models/hybrid_recommender_20250426_140403/gnn_model.pt (torch, 232480 bytes, 4 tensors)

layers.0.bias f4 [128]
0.0 0.0 0.0 0.0 0.0 0.0 0.0 0.0
0.0 0.0 0.0 0.0 0.0 0.0 0.0 0.0
0.0 0.0 0.0 0.0 0.0 0.0 0.0 0.0
0.0 0.0 0.0 0.0 0.0 0.0 0.0 0.0
0.0 0.0 0.0 0.0 0.0 0.0 0.0 0.0
0.0 0.0 0.0 0.0 0.0 0.0 0.0 0.0
0.0 0.0 0.0 0.0 0.0 0.0 0.0 0.0
0.0 0.0 0.0 0.0 0.0 0.0 0.0 0.0
0.0 0.0 0.0 0.0 0.0 0.0 0.0 0.0
0.0 0.0 0.0 0.0 0.0 0.0 0.0 0.0
0.0 0.0 0.0 0.0 0.0 0.0 0.0 0.0
0.0 0.0 0.0 0.0 0.0 0.0 0.0 0.0
0.0 0.0 0.0 0.0 0.0 0.0 0.0 0.0
0.0 0.0 0.0 0.0 0.0 0.0 0.0 0.0
0.0 0.0 0.0 0.0 0.0 0.0 0.0 0.0
0.0 0.0 0.0 0.0 0.0 0.0 0.0 0.0
00000000: 0000 0000 0000 0000 0000 0000 0000 0000
00000010: 0000 0000 0000 0000 0000 0000 0000 0000
00000020: 0000 0000 0000 0000 0000 0000 0000 0000
00000030: 0000 0000 0000 0000 0000 0000 0000 0000
00000040: 0000 0000 0000 0000 0000 0000 0000 0000
00000050: 0000 0000 0000 0000 0000 0000 0000 0000
00000060: 0000 0000 0000 0000 0000 0000 0000 0000
00000070: 0000 0000 0000 0000 0000 0000 0000 0000
00000080: 0000 0000 0000 0000 0000 0000 0000 0000
00000090: 0000 0000 0000 0000 0000 0000 0000 0000
000000a0: 0000 0000 0000 0000 0000 0000 0000 0000
000000b0: 0000 0000 0000 0000 0000 0000 0000 0000
000000c0: 0000 0000 0000 0000 0000 0000 0000 0000
000000d0: 0000 0000 0000 0000 0000 0000 0000 0000
000000e0: 0000 0000 0000 0000 0000 0000 0000 0000
000000f0: 0000 0000 0000 0000 0000 0000 0000 0000
00000100: 0000 0000 0000 0000 0000 0000 0000 0000
00000110: 0000 0000 0000 0000 0000 0000 0000 0000
00000120: 0000 0000 0000 0000 0000 0000 0000 0000
00000130: 0000 0000 0000 0000 0000 0000 0000 0000
00000140: 0000 0000 0000 0000 0000 0000 0000 0000
00000150: 0000 0000 0000 0000 0000 0000 0000 0000
00000160: 0000 0000 0000 0000 0000 0000 0000 0000
00000170: 0000 0000 0000 0000 0000 0000 0000 0000
00000180: 0000 0000 0000 0000 0000 0000 0000 0000
00000190: 0000 0000 0000 0000 0000 0000 0000 0000
000001a0: 0000 0000 0000 0000 0000 0000 0000 0000
000001b0: 0000 0000 0000 0000 0000 0000 0000 0000
000001c0: 0000 0000 0000 0000 0000 0000 0000 0000
000001d0: 0000 0000 0000 0000 0000 0000 0000 0000
000001e0: 0000 0000 0000 0000 0000 0000 0000 0000
000001f0: 0000 0000 0000 0000 0000 0000 0000 0000

layers.0.lin.weight f4 [128, 384]
0.018708952 0.09366941 -0.04837517 0.060624726 -0.033011377 0.066640474 0.03208541 -0.031449102
0.048757322 0.0454294 -0.03391909 0.041484646 0.006871864 -0.013971105 0.09640909 -0.1065157
-0.06987204 0.06586345 -0.022247888 0.093036555 -0.02078832 0.07746457 -0.07376605 0.076845996
0.07744349 0.0965571 -0.0049076006 -0.082451634 0.042692505 -0.022991538 -0.086068936 0.07667708
-0.036271527 0.097092845 -0.08688488 0.06688266 0.0971125 -0.031448103 0.07038417 0.029742204
0.021089934 -0.102370284 0.08969491 0.007626675 -0.07132926 -0.036656037 0.10304617 0.064580314
-0.10794649 0.02848252 0.055280425 -0.060596917 0.005480416 -0.044996 -0.09640214 0.08593515
0.017516963 -0.07164976 0.047238775 0.02214805 -0.093029514 0.03768333 -0.07395595 0.0555766
0.056474186 0.039790682 -0.08414577 0.08058856 -0.006289251 -0.055935334 -0.01740574 0.07273964
0.01000534 0.07116539 -0.07677324 -0.03382814 0.034543253 0.07707188 -0.04217065 0.02746033
0.09521482 -0.074652135 -0.05672063 -0.05638837 0.077234484 0.075813495 0.096913315 -0.028042868
0.0061578155 -0.062486243 0.076558076 0.0688796 0.04879392 0.10362599 -0.10422118 -0.060578488
-0.045025207 -0.07941382 0.101735584 -0.05313221 -0.005103484 -0.107944064 0.098178424 -0.0752247
0.012702182 0.03408324 -0.06149051 0.072129376 0.066725545 0.049761496 -0.102072336 -0.09073216
0.0116973445 0.08126869 0.051279537 0.052849792 -0.02970881 0.02425047 0.026847757 0.033940352
0.020162158 -0.030672789 -0.04132083 0.08330832 0.08703459 0.099905394 0.10118281 0.09091813
0.017145656 0.039293878 -0.08473938 0.007837385 -0.07243076 0.093228124 0.04193338 -0.070827186
-0.0038825944 0.05803477 -0.08232678 -0.09718385 -0.0102095455 -0.01568596 -0.03272026 0.061445214
-0.006490268 -0.039690457 -0.008312993 -0.026831202 -0.024319634 -0.025848322 0.084707685 0.094523974
-0.05637496 -0.010976754 0.07714445 -0.035071872 -0.088597886 -0.09813335 0.068213485 -0.093898006
-0.056306668 -0.09262264 -0.097184196 -0.083575495 -0.028041989 -0.033906713 -0.0062326714 0.0583454
-0.03777562 0.032857858 -0.03612817 -0.06265269 -0.0034361705 0.073276035 0.067599125 0.062343813
0.103079446 -0.0252873 0.022645377 -0.07763279 -0.02446317 -0.106162466 0.10667776 -0.05973879
-0.10412568 0.005096227 0.022452302 0.07051315 -0.0339642 0.02505944 -0.050563317 -0.08706395
-0.0068399906 -0.05148339 0.0742458 0.095199876 -0.03195384 -0.04844727 0.10489022 0.068752624
0.065375604 0.035768397 0.020053826 -0.026928209 0.023871846 -0.018497318 0.00080643594 0.01511848
-0.08112356 -0.058389954 -0.03533832 0.023746602 0.016362593 0.09232872 0.038890846 0.04619629
-0.06702132 -0.0821534 0.04144924 -0.08357458 -0.021450281 -0.026598208 0.06492876 0.017212756
0.097868375 -0.011209726 0.0775575 -0.006746985 0.012754209 -0.0052622855 -0.025568053 -0.009031698
0.025234975 0.07443147 0.030375116 0.03843219 0.088568754 0.049234636 0.008063205 0.004853718
0.036083378 0.03795188 -0.038508363 0.086090006 0.0904933 0.03984972 0.10769024 0.055576913
-0.09601415 -0.02230876 -0.024501577 0.049775265 -0.020797968 -0.08994134 -0.059511997 0.07808574
00000000: 8443 993c bfd5 bf3d 0b25 46bd a251 783d
00000010: f036 07bd cd7a 883d fe6b 033d c6d0 00bd
00000020: c2b5 473d 2e14 3a3d beee 0abd ceeb 293d
00000030: 602d e13b 10e7 64bc 2172 c53d e724 dabd
00000040: 1219 8fbd 6be3 863d 3441 b6bc f389 be3d
00000050: 444c aabc bfa5 9e3d a812 97bd 6f61 9d3d
00000060: b19a 9e3d bbbf c53d f0cf a0bb 67dc a8bd
00000070: 56de 2e3d c058 bcbc e944 b0bd df08 9d3d
00000080: 7491 14bd 9dd8 c63d b3f0 b1bd c7f9 883d
00000090: ebe2 c63d bacf 00bd 9325 903d eca5 f33c
000000a0: ccc4 ac3c 83a7 d1bd f7b1 b73d 30e9 f93b
000000b0: 1315 92bd a424 16bd df09 d33d af42 843d
000000c0: 0d13 ddbd 2c54 e93c ba6d 623d 7934 78bd
000000d0: 1095 b33b ba4d 38bd 7c6e c5bd c5fe af3d
000000e0: bc7f 8f3c 1cbd 92bd 727d 413d d46f b53c
000000f0: 4286 bebd d659 1a3d 3876 97bd 4aa4 633d
00000100: 7a51 673d 8efb 223d 9e54 acbd 9d0b a53d
00000110: 1016 cebb 731c 65bd 7c96 8ebc 85f8 943d
00000120: 70ed 233c 29bf 913d 4a3b 9dbd 608f 0abd
00000130: 3a7d 0d3d ddd7 9d3d 22bb 2cbd 7cf4 e03c
00000140: fdff c23d 38e3 98bd e453 68bd 7ef7 66bd
00000150: 1d2d 9e3d 1b44 9b3d 7d7a c63d 28ba e5bc
00000160: 80c7 c93b 93f1 7fbd 7bca 9c3d bf10 8d3d
00000170: 22dc 473d dd39 d43d ea71 d5bd 2621 78bd
00000180: 5a6c 38bd b6a3 a2bd bf5a d03d 29a1 59bd
00000190: 203b a7bb c711 ddbd c511 c93d 680f 9abd
000001a0: d01c 503c de9a 0b3d 79dd 7bbd 91b8 933d
000001b0: 67a7 883d b6d2 4b3d 4d0b d1bd c8d1 b9bd
000001c0: 38a6 3f3c 3370 a63d 7e0a 523d 0679 583d
000001d0: e45f f3bc eca8 c63c d4ef db3c 0a05 0b3d
000001e0: 1c2b a53c 8045 fbbc 0840 29bd 8d9d aa3d
000001f0: 313f b23d 339b cc3d ef38 cf3d 4933 ba3d
00000200: 0c75 8c3c 9ef2 203d d78b adbd 6068 003c
00000210: 9456 94bd 63ee be3d 56c2 2b3d d80d 91bd
00000220: 2073 7ebb deb5 6d3d f19a a8bd 5408 c7bd
00000230: f045 27bc d87f 80bc ae05 06bd faad 7b3d
00000240: 50ac d4bb 7692 22bd 3833 08bc 1ccd dbbc
00000250: f839 c7bc dcbf d3bc 397b ad3d c995 c13d
00000260: 6ee9 66bd d8d7 33bc e9fd 9d3d 86a7 0fbd
00000270: cf72 b5bd 23fa c8bd 83b3 8b3d 994d c0bd
00000280: d2a1 66bd f0b0 bdbd 8208 c7bd a129 abbd
00000290: 50b8 e5bc c4e1 0abd 703b ccbb 96fb 6e3d
000002a0: 9cba 1abd f695 063d 22fb 13bd 0e50 80bd
000002b0: 6031 61bb bf11 963d 6971 8a3d 3a5c 7f3d
000002c0: 511b d33d 5027 cfbc cc82 b93c f1fd 9ebd
000002d0: fc66 c8bc b56b d9bd df79 da3d a9b0 74bd
000002e0: d83f d5bd 40fe a63b e4ed b73c 3369 903d
000002f0: 0c1e 0bbd 7449 cd3c 7b1b 4fbd 964e b2bd
00000300: 0022 e0bb 3fe0 52bd 2f0e 983d 27f8 c23d
00000310: 08e2 02bd a570 46bd afd0 d63d 2dce 8c3d
00000320: a5e3 853d e281 123d ec47 a43c 8c98 dcbc
00000330: e48e c33c b087 97bc 0067 533a 80b3 773c
00000340: 1c24 a6bd 4e2a 6fbd eabe 10bd 3c88 c23c
00000350: d80a 863c d716 bd3d 024c 1f3d 5238 3d3d
00000360: 7942 89bd 0b40 a8bd aec6 293d 2629 abbd
00000370: 80b8 afbc 7ce4 d9bc 5ff9 843d c401 8d3c
00000380: 376f c83d 00a9 37bc 77d6 9e3d d015 ddbb
00000390: 08f7 503c 406f acbb 1874 d1bc b0f9 13bc
000003a0: 94b9 ce3c 876f 983d 3cd5 f83c 126b 1d3d
000003b0: 8963 b53d 42aa 493d 881b 043c f00b 9f3b
000003c0: 2acc 133d 6e73 1b3d f2ba 1dbd f54f b03d
000003d0: 8d54 b93d 7639 233d b38c dc3d 9ea4 633d
000003e0: 11a3 c4bd dcc0 b6bc 88b7 c8bc 26e1 4b3d
000003f0: 8060 aabc 2a33 b8bd dac2 73bd 6beb 9f3d

layers.1.bias f4 [64]
0.0 0.0 0.0 0.0 0.0 0.0 0.0 0.0
0.0 0.0 0.0 0.0 0.0 0.0 0.0 0.0
0.0 0.0 0.0 0.0 0.0 0.0 0.0 0.0
0.0 0.0 0.0 0.0 0.0 0.0 0.0 0.0
0.0 0.0 0.0 0.0 0.0 0.0 0.0 0.0
0.0 0.0 0.0 0.0 0.0 0.0 0.0 0.0
0.0 0.0 0.0 0.0 0.0 0.0 0.0 0.0
0.0 0.0 0.0 0.0 0.0 0.0 0.0 0.0
00000000: 0000 0000 0000 0000 0000 0000 0000 0000
00000010: 0000 0000 0000 0000 0000 0000 0000 0000
00000020: 0000 0000 0000 0000 0000 0000 0000 0000
00000030: 0000 0000 0000 0000 0000 0000 0000 0000
00000040: 0000 0000 0000 0000 0000 0000 0000 0000
00000050: 0000 0000 0000 0000 0000 0000 0000 0000
00000060: 0000 0000 0000 0000 0000 0000 0000 0000
00000070: 0000 0000 0000 0000 0000 0000 0000 0000
00000080: 0000 0000 0000 0000 0000 0000 0000 0000
00000090: 0000 0000 0000 0000 0000 0000 0000 0000
000000a0: 0000 0000 0000 0000 0000 0000 0000 0000
000000b0: 0000 0000 0000 0000 0000 0000 0000 0000
000000c0: 0000 0000 0000 0000 0000 0000 0000 0000
000000d0: 0000 0000 0000 0000 0000 0000 0000 0000
000000e0: 0000 0000 0000 0000 0000 0000 0000 0000
000000f0: 0000 0000 0000 0000 0000 0000 0000 0000

layers.1.lin.weight f4 [64, 128]
0.09529801 0.021431103 0.0036914945 -0.10996112 -0.019003123 0.0257674 -0.119492404 0.10950588
-0.06805883 -0.09059088 0.12670858 0.042185158 -0.17371437 -0.032656685 0.052721962 -0.06602571
0.0517679 0.13351218 0.0019664466 -0.11114037 -0.036895916 0.14231597 0.007617414 -0.14456531
0.040501475 -0.042924836 0.13294308 -0.12015164 0.09586702 -0.03135799 0.040325582 -0.12713443
-0.09767399 -0.014056206 0.16115694 0.14869924 -0.12232181 -0.17264 -0.0556063 0.015582085
0.028883442 0.14190789 0.08968218 0.0020522922 0.10771833 -0.047109485 0.079219475 0.09658189
-0.08858279 0.119949386 0.09783332 0.08196716 -0.053164244 -0.110833585 -0.10938578 -0.092327155
0.015804961 0.17261411 0.04242517 0.12490143 0.023881674 0.07245827 -0.12114273 -0.018792704
-0.00994505 0.15042521 -0.10967499 0.1623763 -0.0430744 -0.043266103 -0.070041865 -0.018717647
-0.06490672 -0.09779352 -0.09188356 -0.010992363 0.09723745 0.15150185 0.01894258 0.12645246
0.16404088 0.09400879 -0.06419054 0.11278649 -0.06138271 -0.09486834 0.09136249 0.07810749
0.15305136 -0.108160235 0.14407115 -0.17191288 -0.1678768 0.08455761 -0.16231517 0.0028429478
0.10991065 -0.04399307 -0.08155061 0.11945568 0.08732392 -0.099130675 -0.16767824 0.061053246
0.08535381 -0.092388675 0.09276615 -0.08543596 0.024445847 0.08374642 0.07352789 0.005821049
-0.10282965 0.094306394 -0.16209522 -0.007756263 0.024671182 0.12477271 0.06239049 -0.059418015
0.15035884 0.0031739771 0.059300736 0.038796127 0.17143689 -0.10110662 -0.17546907 0.06817171
0.11981325 -0.060188018 0.14511453 0.05149144 -0.083804116 -0.0408365 0.015691489 0.0050971806
-0.17208919 0.1053343 0.10334034 0.11699106 -0.1572754 -0.07796225 0.07929526 0.088881746
0.07978426 -0.15137021 0.10565139 0.059095144 0.06256144 0.11564122 0.05513668 0.04401429
-0.0030114949 -0.15563211 -0.0699389 -0.038479373 0.16914473 -0.0036914498 -0.03208576 0.13676392
0.072424516 0.11553745 -0.033209965 -0.16346812 0.13842823 -0.1525889 0.17635907 0.062201455
0.0619808 0.17343412 -0.05135058 -0.13458395 0.16233845 -0.021967545 -0.15827537 0.17184247
0.056923747 -0.10257995 0.06359686 -0.12230535 0.16853328 -0.10152434 0.16458018 -0.07898625
-0.05065535 -0.16484034 -0.16772966 0.00820747 0.09113459 0.082926884 -0.09573547 -0.11644485
-0.08116349 -0.10931586 0.10229634 -0.16351566 -0.09217572 0.062399507 0.025117189 -0.049957275
-0.06414875 -0.060989246 0.063238665 0.079189196 -0.1094258 -0.08855952 -0.00897184 0.11404787
-0.13512707 0.057745963 -0.17531784 0.004954368 0.033819363 -0.17534831 0.055191845 0.113726005
-0.10056194 0.034362227 0.0001605004 -0.09721902 -0.03386809 0.051088706 -0.11429713 0.0011468977
0.080341026 -0.11682446 -0.08814341 -0.12320046 -0.15135185 0.1600674 0.022257641 0.10629873
-0.010544464 -0.15239313 -0.044115216 -0.10156756 -0.123095855 -0.14032331 -0.14406028 0.0057718903
-0.08343106 -0.14320195 -0.08546456 -0.12643464 -0.0731794 -0.11642002 0.032892495 0.09244074
0.054797262 0.15123038 -0.05686307 -0.041577384 -0.0922474 0.1754555 -0.16827577 0.17622446
00000000: 9a2b c33d 4890 af3c 00ed 713b 4c33 e1bd
00000010: 70ac 9bbc 2816 d33c 6fb8 f4bd 9e44 e03d
00000020: 6e62 8bbd b687 b9bd e5bf 013e 58ca 2c3d
00000030: 2ee2 31be 04c3 05bd fcf2 573d 7d38 87bd
00000040: 940a 543d 6bb7 083e 80df 003b 909d e3bd
00000050: 2c20 17bd 47bb 113e 809b f93b ee08 14be
00000060: e0e4 253d f4d1 2fbd 3b22 083e 1012 f6bd
00000070: ee55 c43d 3c71 00bd 702c 253d 872f 02be
00000080: 4d09 c8bd 004c 66bc 5306 253e 9d44 183e
00000090: db83 fabd 8ac8 30be 6ec3 63bd 004c 7f3c
000000a0: f89c ec3c 4d50 113e 4aab b73d c07f 063b
000000b0: 6e9b dc3d e0f5 40bd d23d a23d bacc c53d
000000c0: e56a b5bd 06a8 f53d d65c c83d 66de a73d
000000d0: c0c2 59bd b8fc e2bd a705 e0bd 0516 bdbd
000000e0: 6879 813c c1c1 303e 04c6 2d3d 52cc ff3d
000000f0: 80a3 c33c 0065 943d ae19 f8bd 28f3 99bc
00000100: 90f0 22bc 1109 1a3e 489d e0bd f945 263e
00000110: c86e 30bd cc37 31bd 1c72 8fbd c055 99bc
00000120: d0ed 84bd f847 c8bd 732d bcbd 5019 34bc
00000130: 6e24 c73d 4d23 1b3e 782d 9b3c c17c 013e
00000140: 55fa 273e ae87 c03d 5476 83bd 9afc e63d
00000150: 706c 7bbd 554a c2bd 421c bb3d d2f6 9f3d
00000160: 7fb9 1c3e 1d83 ddbd 6387 133e ee09 30be
00000170: e5e7 2bbe 8a2c ad3d f335 26be c050 3a3b
00000180: d618 e13d 1432 34bd 0204 a7bd 2ea5 f43d
00000190: e2d6 b23d 0605 cbbd d8b3 2bbe f812 7a3d
000001a0: facd ae3d 4636 bdbd 2efc bd3d 0cf9 aebd
000001b0: a842 c83c 3e83 ab3d ca95 963d 80be be3b
000001c0: 5a98 d2bd b623 c13d 4afc 25be 4028 febb
000001d0: 381b ca3c d688 ff3d 2c8d 7f3d 4e60 73bd
000001e0: abf7 193e 8002 503b 54e5 723d b0e8 1e3d
000001f0: 278d 2f3e fd10 cfbd 2aae 33be 9c9d 8b3d
00000200: a660 f53d b687 76bd e798 143e b0e8 523d
00000210: 7ea1 abbd 2c44 27bd 708b 803c 4006 a73b
00000220: 2638 30be 82b9 d73d 1aa4 d33d 0299 ef3d
00000230: cd0c 21be acaa 9fbd 8e65 a23d a207 b63d
00000240: ee65 a33d cb00 1bbe c25f d83d c00d 723d
00000250: 3620 803d 4ed5 ec3d 00d7 613d 5448 343d
00000260: 805c 45bb 065e 1fbe 203c 8fbd 8c9c 1dbd
00000270: 4734 2d3e 40ec 71bb 5c6c 03bd d70b 0c3e
00000280: 4e53 943d e69e ec3d 2c07 08bd 3064 27be
00000290: 21c0 0d3e 4440 1cbe 7997 343e f4c6 7e3d
000002a0: 94df 7d3d b798 313e fc54 52bd 60d0 09be
000002b0: 0d3c 263e 48f5 b3bc f012 22be 79f7 2f3e
000002c0: e028 693d 7015 d2bd 123f 823d 3a7b fabd
000002d0: fd93 2c3e feeb cfbd b587 283e 8bc3 a1bd
000002e0: fc7b 4fbd e8cb 28be 53c1 2bbe a078 063c
000002f0: c6a4 ba3d 92d5 a93d f510 c4bd a37a eebd
00000300: 0b39 a6bd fee0 dfbd be80 d13d a670 27be
00000310: a0c6 bcbd a096 7f3d 90c2 cd3c 00a0 4cbd
00000320: 6b60 83bd dccf 79bd 4683 813d f22d a23d
00000330: a21a e0bd b25e b5bd a0fe 12bc ee91 e93d
00000340: c05e 0abe 0887 6c3d 8586 33be 4058 a23b
00000350: 2c86 0a3d 828e 33be d810 623d 2ee9 e83d
00000360: 6bf3 cdbd 68bf 0c3d 004c 2839 c41a c7bd
00000370: 44b9 0abd 6442 513d 9d14 eabd 8053 963a
00000380: d689 a43d aa41 efbd 8884 b4bd 8650 fcbd
00000390: fbfb 1abe b5e8 233e a855 b63c 26b3 d93d
000003a0: b0c2 2cbc f20c 1cbe 28b2 34bd a702 d0bd
000003b0: ae19 fcbd eab0 0fbe 8a84 13be 2022 bd3b
000003c0: e7dd aabd 88a3 12be 0b08 afbd 1578 01be
000003d0: 15df 95bd 9f6d eebd 48ba 063d 9251 bd3d
000003e0: 1873 603d 23dc 1a3e 40e9 68bd 0c4d 2abd
000003f0: 34ec bcbd 9baa 333e 7c50 2cbe 2f74 343e
